benchmark/classsr/experiments/pre_trained_models/CARN_branch2.pth (torch_old, 804525 bytes, 90 tensors)

sub_mean.weight f4 [3, 3, 1, 1]
1.0699712 -0.0010996534 -0.019287204 -0.010100728 1.0669446 0.0032411902 -0.019699816 -0.0064143026
1.0743393
00000000: d1f4 883f 3f22 90ba 3300 9ebc 867d 25bc
00000010: a491 883f 266a 543b 8261 a1bc 122f d2bb
00000020: f383 893f

sub_mean.bias f4 [3]
-0.44153535 -0.42039186 -0.3924407
00000000: ec10 e2be 9a3d d7be fded c8be

add_mean.weight f4 [3, 3, 1, 1]
0.88027596 0.0043544983 0.009290054 0.0058628893 0.8472969 0.0013704636 -0.0070292307 -0.0010737325
0.88416153
00000000: c459 613f 2eb0 8e3b 5035 183c 7b1d c03b
00000010: 73e8 583f 21a1 b33a 7655 e6bb 7cbc 8cba
00000020: 6958 623f

add_mean.bias f4 [3]
0.44535714 0.3930195 0.38564205
00000000: da05 e43e da39 c93e e072 c53e

entry.weight f4 [52, 3, 3, 3]
-0.10180901 -0.18420273 -0.056181487 -0.15469576 -0.5282636 0.19742347 0.13213006 0.16406558
0.09731009 -0.0066784513 0.09689709 -0.0336919 0.15965319 0.12726673 0.2550686 -0.013879336
0.14655979 0.06941541 -0.061036613 -0.09405072 0.027354231 -0.022883018 0.21163002 0.10399615
-0.14986233 -0.07282726 -0.23485512 0.049962837 -0.19937819 0.017382903 -0.10459376 0.26272002
0.062130578 -0.08691533 0.19186924 0.1813973 -0.16698138 -0.2000942 0.009867649 0.040702794
0.101828165 0.16803429 0.073910825 -0.14103942 -0.1086382 0.20851856 0.107864976 -0.031297673
-0.073653854 -0.030626317 -0.26320106 0.105559595 -0.3352507 0.05146512 -0.0844139 -0.2291724
-0.104283266 -0.08825791 0.07122983 -0.10888314 0.14625232 -0.09576713 -0.017391302 0.25316083
-0.24500085 -0.065829724 -0.19320664 0.3373348 0.021254562 -0.032838825 -0.10839129 0.077781536
-0.012432705 -0.006557238 -0.086987466 -0.08332524 0.011595787 0.08197878 0.21639371 0.016759
-0.12771964 0.103661485 0.11880351 -0.0061048316 0.036335215 -0.18199386 0.15219997 0.06247438
0.22176103 -0.17876914 0.10497755 -0.022120165 -0.031540837 -0.02881444 -0.08940122 0.08398365
0.13645671 0.076526016 -0.1722489 -0.059877902 0.074159585 0.027273005 -0.1573865 0.02315093
-0.24756126 0.07300762 -0.12494052 0.05242758 -0.01888073 -0.051732354 -0.06696894 -0.15353262
0.16320805 0.12878683 -0.094298065 -0.26910603 -0.053302463 0.059435237 0.21166922 -0.21126346
0.03855838 0.3458128 0.23892626 -0.14563254 0.11615938 -0.08167045 -0.20732427 0.04681507
-0.06946079 -0.032561272 -0.174133 -0.15618886 0.1257272 0.18245637 0.16318128 0.13931464
-0.19337988 -0.109154455 0.02729232 -0.14169735 -0.27803147 0.18374431 -0.11200808 0.08971366
-0.11486166 0.07677293 0.022117546 0.105810866 0.21958327 -0.22138041 0.12700129 -0.15795392
0.055933263 -0.13007948 0.16893432 0.08540369 -0.018249355 0.0017313284 0.23032875 0.0715356
0.0051250956 -0.076288454 0.034082297 0.14107044 0.15559979 0.152435 0.14105937 0.020553734
-0.10881865 -0.15693304 0.12094092 -0.12385272 -0.050861016 0.11414482 -0.17576298 -0.39726946
-0.21751618 0.14243343 -0.010298656 0.15693553 -0.051052183 -0.1309168 0.11339391 -0.2229431
-0.43314523 0.07814704 0.11394836 -0.16200422 -0.14713539 -0.008676573 -0.013066279 0.015228732
0.09241003 0.040602535 -0.14605318 -0.055127505 0.07723183 -0.019526536 -0.13193376 0.006739841
-0.04981851 -0.07239739 0.205223 0.08781898 0.13222806 0.18043327 -0.031879798 -0.12746193
0.104527146 0.08786065 0.16222021 0.2656657 0.12971032 0.03736785 0.04787273 0.07696572
-0.1316224 0.08203366 0.05313872 0.06975316 -0.008325078 0.05769492 -0.04883672 -0.17016365
-0.09305729 0.15565708 -0.08979693 0.03325931 0.09808128 0.09831695 -0.14143567 0.15167889
-0.06669963 0.13839592 -0.04481244 -0.1668165 -0.0044499603 -0.18010023 0.6978218 -0.26720822
-0.052022204 -0.12568223 -0.053085633 0.072332084 -0.1727654 -0.043732803 0.15790948 0.21241382
-0.13211256 -0.061229195 0.056451887 -0.11960695 0.029254064 0.044050686 -0.04000038 0.0860469
00000000: 3e81 d0bd a49f 3cbe 8f1e 66bd 9168 1ebe
00000010: 493c 07bf 6129 4a3e 1a4d 073e cf00 283e
00000020: 834a c73d e9d6 dabb fb71 c63d 8500 0abd
00000030: 207c 233e 3652 023e 5a98 823e 2866 63bc
00000040: c513 163e ab29 8e3d 8701 7abd aa9d c0bd
00000050: fb15 e03c 2b75 bbbc 8ab5 583e effb d43d
00000060: 8375 19be 7526 95bd dc7d 70be d5a5 4c3d
00000070: cc29 4cbe 9766 8e3c 4135 d6bd 3d83 863e
00000080: a27c 7e3d aa00 b2bd 5f79 443e 37c0 393e
00000090: 2bfd 2abe 7ee5 4cbe ebab 213c f9b7 263d
000000a0: 498b d03d 2e11 2c3e 8f5e 973d a36c 10be
000000b0: b47d debd e485 553e 50e8 dc3d fd31 00bd
000000c0: d5d7 96bd 0be4 fabc 4ac2 86be a12f d83d
000000d0: fba5 abbe 17cd 523d 32e1 acbd 2bac 6abe
000000e0: 7792 d5bd 90c0 b4bd f2e0 913d 20fe debd
000000f0: 2bc3 153e 8f21 c4bd 3478 8ebc 4c9e 813e
00000100: 81e1 7abe bcd1 86bd f6d7 45be 26b7 ac3e
00000110: 0c1e ae3c 0182 06bd 41fc ddbd ed4b 9f3d
00000120: 8bb2 4bbc 19de d6bb 7c26 b2bd 6ca6 aabd
00000130: 41fc 3d3c 7ee4 a73d 5096 5d3e 2c4a 893c
00000140: f0c8 02be 794c d43d 414f f33d 0a0b c8bb
00000150: 3cd4 143d 995c 3abe 4fda 1b3e 23e5 7f3d
00000160: 5315 633e 420f 37be 78fe d63d 5935 b5bc
00000170: f730 01bd 430c ecbc fd17 b7bd 9fff ab3d
00000180: 4fbb 0b3e acb9 9c3d 0462 30be 8842 75bd
00000190: fbe0 973d a36b df3c ed29 21be 05a7 bd3c
000001a0: b380 7dbe 0585 953d d1e0 ffbd 4dbe 563d
000001b0: c3ab 9abc 4ee5 53bd 0327 89bd a837 1dbe
000001c0: 0320 273e b2e0 033e 581f c1bd 44c8 89be
000001d0: af53 5abd 5d72 733d d1bf 583e 7355 58be
000001e0: 64ef 1d3d 600e b13e 16a9 743e b220 15be
000001f0: f8e4 ed3d d642 a7bd d04c 54be 29c1 3f3d
00000200: 7541 8ebd f85e 05bd ec4f 32be f9ef 1fbe
00000210: a2be 003e d8d5 3a3e fe18 273e 7fa8 0e3e
00000220: 6005 46be 5f8c dfbd 2594 df3c 1c19 11be
00000230: 245a 8ebe 7827 3c3e 7e64 e5bd ccbb b73d
00000240: 973c ebbd 203b 9d3d db2f b53c 5eb3 d83d
00000250: 70da 603e 8cb1 62be a00c 023e acbe 21be
00000260: 471a 653d 8e33 05be 1efd 2c3e 21e8 ae3d
00000270: ac7f 95bc beed e23a 4ddb 6b3e 4281 923d
00000280: 6bf0 a73b 1f3d 9cbd e199 0b3d c574 103e
00000290: 8d55 1f3e ec17 1c3e de71 103e 4e60 a83c
000002a0: 50dc debd 0eb3 20be e0af f73d 7fa6 fdbd
000002b0: a453 50bd c2c4 e93d 36fb 33be e766 cbbe
000002c0: 90bc 5ebe 12da 113e b2bb 28bc b5b3 203e
000002d0: 181c 51bd 0e0f 06be 113b e83d 324b 64be
000002e0: 36c5 ddbe 8e0b a03d c25d e93d 6fe4 25be
000002f0: a9aa 16be 2f28 0ebc f213 56bc ee81 793c
00000300: 7841 bd3d d84e 263d f78e 15be 61cd 61bd
00000310: b92b 9e3d 1df6 9fbc a519 07be e2d9 dc3b
00000320: 7e0e 4cbd 1545 94bd fa25 523e 70da b33d
00000330: cb66 073e 80c3 383e 6494 02bd 6185 02be
00000340: 5412 d63d 49f0 b33d 0e1d 263e 5605 883e
00000350: c8d2 043e 080f 193d 3216 443d 34a0 9d3d
00000360: 06c8 06be 4301 a83d fda7 593d bfda 8e3d
00000370: e865 08bc 8251 6c3d 0309 48bd 613f 2ebe
00000380: d294 bebd 9264 1f3e 74e7 b7bd ea3a 083d
00000390: d7de c83d 665a c93d 83d4 10be b651 1b3e
000003a0: d199 88bd a9b7 0d3e 408d 37bd f2d1 2abe
000003b0: f9d0 91bb 326c 38be 73a4 323f 84cf 88be
000003c0: 3c15 55bd d8b2 00be 5270 59bd d822 943d
000003d0: 6ae9 30be 2b21 33bd 06b3 213e 0283 593e
000003e0: 8448 07be 77cb 7abd 183a 673d 7df4 f4bd
000003f0: 38a6 ef3c 7e6e 343d 70d7 23bd 5b39 b03d

entry.bias f4 [52]
0.0071508605 -0.008699117 -0.11204536 -0.12499417 0.03229791 -0.0585735 -0.11888326 -0.12460811
0.13093796 -0.10280699 -0.0884267 -0.053815916 0.036631577 -0.121571586 -0.14176776 -0.17391731
0.13965166 0.121872924 -0.117918566 -0.13117526 -0.06518615 -0.06461719 0.004116814 -0.06997894
0.0063587464 0.12595813 0.0015498655 0.09301025 -0.08000548 0.12991466 0.047319267 -0.045032624
-0.16969442 -0.039879557 -0.00942499 -0.123836696 0.05455084 -0.05463821 -0.008242177 -0.02741561
0.11419598 -0.08363186 -0.13735427 0.10029246 0.024075864 -0.04201706 0.019242002 0.05724054
-0.045637302 0.0017645505 0.052041136 -0.06394012
00000000: c451 ea3b be86 0ebc 0a78 e5bd f2fc ffbd
00000010: d04a 043d c4ea 6fbd 1179 f3bd 8932 ffbd
00000020: 9a14 063e 798c d2bd 0f19 b5bd 146e 5cbd
00000030: fe0a 163d 86fa f8bd 912b 11be 6117 32be
00000040: d800 0f3e 8398 f93d 4a7f f1bd cf52 06be
00000050: 5180 85bd 0456 84bd 57e6 863b 1e51 8fbd
00000060: 085d d03b 2bfb 003e db24 cb3a 287c be3d
00000070: ead9 a3bd 5908 053e d9d1 413d 2174 38bd
00000080: 60c4 2dbe bf58 23bd 466b 1abc 189e fdbd
00000090: b470 5f3d 51cc 5fbd 320a 07bc b496 e0bc
000000a0: 95df e93d 2e47 abbd 99a6 0cbe 2266 cd3d
000000b0: bf3a c53c 151a 2cbd 67a1 9d3c 0e75 6a3d
000000c0: 2eee 3abd 7d48 e73a 1629 553d 0af3 82bd

b1.b1.body.0.weight f4 [52, 13, 3, 3]
0.025759956 -0.0015343531 0.01807714 0.11130075 0.17117873 0.13876812 0.09713425 0.12007669
0.0075220675 -0.2074218 -0.20702603 -0.13707371 -0.1511652 -0.07380387 -0.12856747 -0.030330315
-0.08253195 -0.11955984 -0.02066948 0.08139771 -0.051725328 -0.019149892 0.039632283 -0.007375082
-0.008731581 0.18190032 -0.059567213 -0.028710458 0.011314727 -0.10548798 -0.010651611 -0.029342877
-0.058245778 -0.06377041 -0.0045000385 -0.12855761 0.059330907 0.1437161 0.01680495 0.15814616
-0.022072572 -0.054574993 0.0014274901 0.11207601 -0.014973659 0.010275831 0.106315285 0.082896754
0.2148933 0.29330513 -0.024724185 0.09975357 0.08728563 0.04744059 -0.059599407 -0.039801374
-0.025073444 -0.09540711 -0.002194894 -0.020855183 -0.06136909 -0.03715868 -0.05208567 0.0995389
-0.051270705 0.037785638 0.023493143 -0.037292868 -0.09897282 0.016631119 0.020619651 -0.04819845
0.08598655 0.042739812 -0.01724283 -0.086124636 -0.029480519 0.029260833 -0.089527756 0.06845371
-0.06526579 -0.09404089 0.063466206 -0.04733748 -0.06905493 -0.055095505 0.059632864 -0.009698534
-0.06374436 0.004672434 0.06665148 -0.06534429 0.089527436 -0.07564956 -0.05525369 -0.083616614
0.043391913 0.005641198 -0.11567323 0.03902404 0.09342968 0.06874004 0.009557054 -0.015719691
0.05558731 -0.011027663 0.0232639 0.013543286 0.09098431 0.095320284 0.00024501493 -0.0044645043
-0.018263152 0.058789346 0.092776746 0.08040296 -0.04271206 0.026410652 0.04247924 0.03335285
-0.06523063 -0.10158165 0.028450293 0.026724009 0.012566855 0.048476454 -0.020819198 0.09703194
-0.07131907 0.06617464 0.05558183 0.058865163 0.04373831 0.036464073 0.1095373 0.08497873
0.09846139 0.0072423713 0.16217594 0.1991936 0.041469887 0.10435733 0.075208925 0.0842041
-0.052480202 -0.018300124 -0.12886569 -0.055019446 0.041203626 -0.06278892 -0.060743585 -0.0066102063
0.009993353 0.14360823 0.015454372 0.14278209 0.08412214 -0.07694617 0.15059075 0.022691583
0.06485741 0.076225474 0.087307446 0.016992826 0.016157692 0.025515098 0.055174254 -0.039857782
0.08131968 0.026231881 0.06255308 0.029620033 0.08029478 0.022925215 0.121184126 -0.032046564
-0.010060592 0.060108192 0.09870251 0.08313009 0.038843106 0.07726082 -0.0015097349 0.06320289
0.06054699 -0.004064586 -0.071926124 -0.021707889 0.0749499 -0.08760435 0.018695695 -0.039840214
-0.09076135 -0.0340837 -0.06803188 -0.004665652 0.045046963 0.058295578 0.056557707 -0.07755819
0.014222252 0.05128251 0.029070895 0.08532808 -0.09876156 -0.009421638 0.014118773 0.012517671
0.0881827 -0.04009336 0.0027889276 0.050026093 -0.04462105 -0.059638493 -0.038425475 -0.006950341
0.11715737 -0.06841345 -0.022383023 0.071946785 0.12294794 0.02093446 0.051637087 0.10824222
0.013345021 -0.08130527 0.087700464 0.090789884 0.011197839 -0.031592257 -0.004590839 0.011848073
-0.13044922 0.0054305485 -0.16163674 0.052742895 0.22450896 -0.15857199 0.007859457 -0.05028247
0.034726646 -0.0560954 -0.026062768 -0.030317629 0.00017845098 0.08646998 -0.038541492 -0.014344204
0.2502794 -0.05149512 -0.055236436 0.10617549 0.043489374 0.048453476 -0.03393674 0.27604198
00000000: 8b06 d33c 591c c9ba 8316 943c a6f1 e33d
00000010: 7a49 2f3e 3b19 0e3e 52ee c63d c5ea f53d
00000020: ad7b f63b 6166 54be a2fe 53be 0d5d 0cbe
00000030: 0dcb 1abe 7c26 97bd 31a7 03be 4877 f8bc
00000040: 8306 a9bd cadb f4bd 0b53 a9bc d8b3 a63d
00000050: f0dd 53bd 3ce0 9cbc 7655 223d acaa f1bb
00000060: e80e 0fbc 1444 3a3e c0fc 73bd 3232 ebbc
00000070: 6861 393c 150a d8bd 1884 2ebc 7960 f0bc
00000080: 2093 6ebd 109a 82bd 0f75 93bb 9ba4 03be
00000090: f704 733d 502a 133e 89aa 893c 11f1 213e
000000a0: 8ad1 b4bc 078a 5fbd 9f1a bb3a 1b88 e53d
000000b0: 1454 75bc f65b 283c d4bb d93d c6c5 a93d
000000c0: fd0c 5c3e 172c 963e 608a cabc 9a4b cc3d
000000d0: cfc2 b23d 1051 423d 821e 74bd c406 23bd
000000e0: d366 cdbc ce64 c3bd 36d8 0fbb 7dd8 aabc
000000f0: 285e 7bbd b333 18bd c957 55bd 0ddb cb3d
00000100: 3b01 52bd 1dc5 1a3d b174 c03c 68c0 18bd
00000110: 43b2 cabd fc3d 883c 8bea a83c bd6b 45bd
00000120: b719 b03d f10f 2f3d d640 8dbc 1d62 b0bd
00000130: 2181 f1bc 6ab4 ef3c 545a b7bd 7531 8c3d
00000140: 12aa 85bd 8398 c0bd 92fa 813d f2e4 41bd
00000150: ac6c 8dbd d3ab 61bd 9741 743d 9ae6 1ebc
00000160: 678c 82bd 381b 993b 9280 883d 3ad3 85bd
00000170: 295a b73d 28ee 9abd b151 62bd 303f abbd
00000180: b8bb 313d ccd9 b83b 16e6 ecbd acd7 1f3d
00000190: 0f58 bf3d 94c7 8c3d 3195 1c3c 95c6 80bc
000001a0: 85af 633d 5fad 34bc ef93 be3c a9e4 5d3c
000001b0: fb55 ba3d 4837 c33d 5975 8039 fa4a 92bb
000001c0: 9b9c 95bc 19cd 703d bc01 be3d 4faa a43d
000001d0: d7f2 2ebd 275b d83c b6fe 2d3d ff9c 083d
000001e0: a397 85bd 0a0a d0bd 9710 e93c 4fec da3c
000001f0: 36e5 4d3c 3f8f 463d 068d aabc afb8 c63d
00000200: bc0f 92bd 9286 873d c6a9 633d 991c 713d
00000210: f126 333d 5a5b 153d 1855 e03d 5409 ae3d
00000220: 20a6 c93d 6a51 ed3b 7311 263e 68f9 4b3e
00000230: 54dc 293d 4cb9 d53d 2307 9a3d 3373 ac3d
00000240: 7bf5 56bd 24ea 95bc 5ef5 03be 125c 61bd
00000250: 22c5 283d 7a97 80bd 44ce 78bd 6e9a d8bb
00000260: 29bb 233c 090e 133e 5634 7d3c 7835 123e
00000270: 3b48 ac3d f495 9dbd 7634 1a3e b3e3 b93c
00000280: f6d3 843d 1a1c 9c3d 3fce b23d 8a34 8b3c
00000290: 235d 843c 0a05 d13c 66fe 613d ea41 23bd
000002a0: ef8a a63d 3ee4 d63c d41b 803d b6a5 f23c
000002b0: 9771 a43d a9cd bb3c 622f f83d 4243 03bd
000002c0: 2ed5 24bc 0234 763d 8b24 ca3d 1c40 aa3d
000002d0: f319 1f3d ec3a 9e3d 4ce2 c5ba 8470 813d
000002e0: 1f00 783d 3830 85bb 014e 93bd bed4 b1bc
000002f0: 557f 993d e969 b3bd b727 993c 7e2f 23bd
00000300: 16e1 b9bd 5a9b 0bbd 4c54 8bbd 53e2 98bb
00000310: 2a83 383d 58c7 6e3d 0ea9 673d d4d6 9ebd
00000320: 7304 693c 9c0d 523d 1626 ee3c 7dc0 ae3d
00000330: 8043 cabd 375d 1abc 6d52 673c eb16 4d3c
00000340: 2299 b43d ef38 24bd 71c6 363b 29e8 4c3d
00000350: 90c4 36bd 7e47 74bd 0864 1dbd b0bf e3bb
00000360: 34f0 ef3d 5a1c 8cbd 9a5c b7bc d658 933d
00000370: 21cc fb3d bf7e ab3c 6981 533d 19ae dd3d
00000380: 13a5 5a3c 6183 a6bd 4d9c b33d 0cf0 b93d
00000390: 2477 373c e266 01bd c06e 96bb 6c1e 423c
000003a0: 7b94 05be bef2 b13b 1a84 25be ef08 583d
000003b0: ade5 653e b260 22be f4c4 003c fef4 4dbd
000003c0: 873d 0e3d 4ac4 65bd 9681 d5bc ad5c f8bc
000003d0: 921e 3b39 2c17 b13d afdd 1dbd f403 6bbc
000003e0: 9f24 803e 8cec 52bd 9a3f 62bd 8972 d93d
000003f0: ea21 323d 2777 463d 4001 0bbd 6055 8d3e

b1.b1.body.0.bias f4 [52]
-0.07671244 -0.05744814 -0.02330355 -0.093658775 0.060102433 0.107252285 -0.1859971 -0.06669554
0.15737836 0.037457317 -0.03656838 -0.025602393 -0.047405027 -0.12546456 0.05725764 0.059416834
0.13915639 -0.033461146 0.031342685 0.032866925 0.03166706 0.021899015 0.0858515 -0.09410707
0.094489425 -0.0515783 -0.050393954 -0.01996719 0.110423855 -0.03417577 0.030712347 -0.027630063
-0.06450592 -0.008623539 0.06881275 -0.06339835 0.12831524 0.10234614 0.10381558 0.17864335
-0.039085783 0.017170863 -0.05178929 -0.10111369 -0.16064979 0.08222039 0.003093482 0.15856463
0.08669566 -0.094914526 0.06586983 -0.05061536
00000000: 691b 9dbd be4e 6bbd 16e7 bebc 2cd0 bfbd
00000010: f82d 763d 16a7 db3d 0676 3ebe ac97 88bd
00000020: cb27 213e d86c 193d bac8 15bd 1cbc d1bc
00000030: c62b 42bd c879 00be fd86 6a3d 115f 733d
00000040: 037f 0e3e 8e0e 09bd 3061 003d 789f 063d
00000050: 52b5 013d 9065 b33c e9d2 af3d 35bb c0bd
00000060: ac83 c13d c443 53bd e469 4ebd 3c92 a3bc
00000070: e725 e23d e4fb 0bbd 7698 fb3c 7158 e2bc
00000080: ae1b 84bd be49 0dbc b3ed 8c3d fed6 81bd
00000090: 1265 033e da9a d13d 439d d43d 48ee 363e
000000a0: 6a18 20bd e9a9 8c3c 0221 54bd b214 cfbd
000000b0: 6181 24be 2a63 a83d 04bc 4a3b c45e 223e
000000c0: 7f8d b13d 8c62 c2bd c3e6 863d 0d52 4fbd

b1.b1.body.2.weight f4 [52, 13, 3, 3]
-0.066769555 0.044577498 -0.049137644 0.016697584 0.09802441 0.02088359 -0.023892062 -0.011679461
0.022134056 0.009264543 -0.0069098393 0.042267103 0.0009218516 -0.025890727 -0.002866445 0.08578197
0.0012912728 0.021366557 0.00035220894 0.061271627 0.05965867 0.063039854 -0.07282853 0.064322986
-0.012039326 0.06718642 0.045800682 0.043016046 -0.06045151 -0.08781727 0.062478714 -0.088170394
-0.11124103 -0.054611392 -0.046841793 0.07147761 0.14290099 0.11486688 0.050427843 0.062234633
-0.04227916 0.091710545 -0.08026875 -0.18125558 0.02695294 -0.043674003 -0.038510367 -0.01919413
-0.11030059 0.14160602 -0.06738671 0.073574886 0.068905674 -0.07777656 -0.051250417 -0.01157151
-0.07096995 -0.032639142 -0.012721046 -0.07413026 -0.031534094 -0.03680693 -0.095411435 -0.06673459
0.060999118 0.019906627 -0.110538416 0.10339115 0.063116305 -0.05089076 -0.00037122637 0.026380863
0.049428392 0.08935916 0.05476365 -0.0070991293 -0.007465149 0.051320735 -0.039085172 0.104419515
-0.015199658 0.1433354 0.16217896 0.00651664 0.15524988 0.009983507 0.0018012547 -0.11497952
-0.010382496 -0.039854303 0.029919878 -0.038015593 -0.017182363 -0.046029016 0.053580903 -0.0015587268
-0.0074150455 0.010110612 -0.015977578 -0.0889874 0.12931573 0.074532 0.06633302 -0.026012342
0.04378864 0.028280733 0.054617494 0.08481909 -0.054816887 0.002910506 0.051190916 -0.021658117
-0.03285379 0.041418146 -0.11885838 -0.029352972 0.0013946262 -0.022062149 0.060186498 0.036191296
0.010163974 0.009842369 0.030991063 0.005418066 -0.0022036692 0.048616573 0.02798816 -0.036799893
-0.06686895 -0.0778769 -0.00781406 0.07110605 0.0705457 0.032537892 -0.08153028 0.11679528
-0.08968221 -0.0026718911 -0.11123288 0.17962833 -0.02545802 -0.04740402 -0.022504335 0.103584655
-0.016873874 0.08727459 -0.07343805 0.031300116 -0.055575684 0.02433636 -0.10470214 -0.11700135
-0.162808 -0.0372917 0.0067665335 0.031187993 0.00383965 0.12194186 0.04994439 -0.13484655
-0.021662708 -0.080520414 -0.084767185 -0.06463334 -0.0031266354 0.027311979 0.067263454 0.029714027
-0.07869669 0.029240813 -0.031742677 0.03766924 -0.06969787 -0.007629771 0.054698024 -0.017553637
-0.0436451 0.11975086 -0.038536377 -0.06413631 0.036217112 0.03344688 -0.008648221 -0.031910587
-0.04681978 0.013185474 0.016415017 -0.028959798 -0.026482603 -0.05971068 0.07221456 0.102630764
-0.06666611 0.23720594 -0.0645362 0.033787053 -0.16648117 -0.009430265 -0.097402565 0.106494695
0.070165634 0.03391048 0.0024347228 -0.08260385 -0.06049993 -0.037541367 -0.1302609 -0.056064237
0.060222603 0.11504142 -0.15761985 0.13297231 -0.01740737 -0.18141037 0.091859296 0.07212947
-0.013752666 0.18977277 -0.014083946 -0.09049688 0.06718252 0.030961752 -0.015919695 0.014233767
0.017320061 0.12105418 -0.014798533 0.092823885 0.11958829 0.10394373 0.037784275 -0.013366956
0.15035951 0.04549522 0.09652322 -0.076521546 0.026818419 -0.020339213 0.061690204 -0.004114998
0.016227784 -0.14496657 -0.022027696 -0.063617714 0.07661396 0.019235862 -0.009550316 0.15247613
0.016012298 -0.063402764 -0.0074744257 0.080660686 0.05096539 0.07050073 0.0048381337 0.00065485534
00000000: 7abe 88bd e596 363d 8e44 49bd 5fc9 883c
00000010: 06c1 c83d 1014 ab3c 49b9 c3bc 365b 3fbc
00000020: 7b52 b53c 4fca 173c ef6b e2bb 4520 2d3d
00000030: 6aa8 713a ca18 d4bc f8da 3bbb 75ae af3d
00000040: ed3f a93a eb08 af3c afa8 b839 f5f7 7a3d
00000050: a65c 743d 0a1b 813d 2027 95bd c5bb 833d
00000060: 9840 45bc 0999 893d 7f99 3b3d 9831 303d
00000070: 019c 77bd 8ad9 b3bd aee9 7f3d ae92 b4bd
00000080: 56d2 e3bd 32b0 5fbd 2edd 3fbd da62 923d
00000090: a354 123e 543f eb3d 6d8d 4e3d bee9 7e3d
000000a0: ea2c 2dbd bdd2 bb3d f163 a4bd 109b 39be
000000b0: 69cc dc3c 83e3 32bd 0cbd 1dbd 023d 9dbc
000000c0: 47e5 e1bd 2b01 113e 0b02 8abd 6eae 963d
000000d0: 6b1e 8d3d 5149 9fbd f5eb 51bd 6e96 3dbc
000000e0: b158 91bd 9fb0 05bd ef6b 50bc 9bd1 97bd
000000f0: e529 01bd ddc2 16bd 1267 c3bd 25ac 88bd
00000100: 36da 793d 3913 a33c f761 e2bd bdbe d33d
00000110: 1f43 813d d472 50bd 29a1 c2b9 ae1c d83c
00000120: 6d75 4a3d ef01 b73d d94f 603d d09f e8bb
00000130: 359e f4bb b135 523d c617 20bd e6d9 d53d
00000140: fd07 79bc 84c6 123e 3e12 263e 8a89 d53b
00000150: d3f9 1e3e dd91 233c 1418 ec3a 627a ebbd
00000160: 581b 2abc 443e 23bd 881a f53c 3db6 1bbd
00000170: 07c2 8cbc ec88 3cbd a677 5b3d 314e ccba
00000180: e9f9 f2bb fba6 253c 69e3 82bc 073f b6bd
00000190: 586b 043e 3ca4 983d 9bd9 873d d617 d5bc
000001a0: b85b 333d ffac e73c 98b6 5f3d a2b5 ad3d
000001b0: ac87 60bd 30be 3e3b 91ad 513d 5d6c b1bc
000001c0: b291 06bd 13a6 293d 066c f3bd a575 f0bc
000001d0: e4cb b63a aebb b4bc 1e86 763d 533d 143d
000001e0: cc86 263c e341 213c f8e0 fd3c 088a b13b
000001f0: 6f6b 10bb 2c22 473d 6d47 e53c 7cbb 16bd
00000200: 97f2 88bd ed7d 9fbd 8b06 00bc 0ca0 913d
00000210: 447a 903d 7446 053d 59f9 a6bd 5d32 ef3d
00000220: 4eab b7bd e51a 2fbb 10ce e3bd 7df0 373e
00000230: 568d d0bc b82a 42bd 035b b8bc 3124 d43d
00000240: 143b 8abc 05bd b23d b066 96bd 8d34 003d
00000250: 54a3 63bd 0c5d c73c 136e d6bd 679e efbd
00000260: 24b7 26be 2ebf 18bd ccb9 dd3b f67d ff3c
00000270: a3a2 7b3b a7bc f93d 7d92 4c3d 3715 0abe
00000280: fe75 b1bc e3e7 a4bd 6b9a adbd 7c5e 84bd
00000290: 3de8 4cbb 5fbd df3c 6cc1 893d d56a f33c
000002a0: bb2b a1bd 6e8a ef3c 9c04 02bd 104b 1a3d
000002b0: c2bd 8ebd 2803 fabb 090b 603d a5cc 8fbc
000002c0: 34c5 32bd f03f f53d 52d8 1dbd e659 83bd
000002d0: 6558 143d 98ff 083d 45b1 0dbc adb4 02bd
000002e0: 19c6 3fbd e307 583c c978 863c 193d edbc
000002f0: 0bf2 d8bc 3093 74bd 3ae5 933d 1430 d23d
00000300: 3e88 88bd 1de6 723e 8e2b 84bd 4b64 0a3d
00000310: 0a7a 2abe 6681 1abc ff7a c7bd e419 da3d
00000320: 00b3 8f3d b7e5 0a3d df8f 1f3b 352c a9bd
00000330: c6ce 77bd fac4 19bd 1d63 05be 9da3 65bd
00000340: faab 763d d69a eb3d 1967 21be e529 083e
00000350: e799 8ebc a4c3 39be ba20 bc3d 9eb8 933d
00000360: dd52 61bc cb53 423e 5ac0 66bc 6e56 b9bd
00000370: fd96 893d 80a3 fd3c 056a 82bc bf34 693c
00000380: cde2 8d3c 41eb f73d 8c75 72bc 731a be3d
00000390: b5ea f43d 73e0 d43d afc3 1a3d 1401 5bbc
000003a0: d8f7 193e 3259 3a3d f7ad c53d 54b7 9cbd
000003b0: 4db2 db3c 6c9e a6bc deae 7c3d 1bd7 86bb
000003c0: 21f0 843c 1e72 14be 6d73 b4bc 014a 82bd
000003d0: c8e7 9c3d 8794 9d3c ee78 1cbc b422 1c3e
000003e0: 392c 833c 4fd9 81bd 07ec f4bb 6e31 a53d
000003f0: 16c1 503d b062 903d 3589 9e3b 99aa 2b3a

b1.b1.body.2.bias f4 [52]
0.012170116 0.00090418285 -0.09139733 -0.0007615531 0.027159324 -0.09851114 -0.048693284 0.07985727
0.13616726 -0.019970652 -0.10711279 -0.07803996 0.05008863 -0.15941702 -0.07933028 0.085868835
0.04961234 -0.03663212 -0.06679713 0.091228805 -0.017327301 0.023131998 0.046775486 -0.09008394
0.11661272 0.14690948 0.14239483 0.08719682 0.059181873 0.046981543 0.028831385 -0.11459297
0.0026675179 -0.08202581 0.04628175 -0.04187065 0.088724546 0.10542684 -0.015318371 0.19417007
0.033475894 -0.04618628 0.014914406 0.16798593 0.006956998 0.064879306 -0.0395236 -0.030227924
0.07959443 0.058826953 0.15456665 -0.13722177
00000000: 2b65 473c af06 6d3a 862e bbbd f7a2 47ba
00000010: 3b7d de3c 35c0 c9bd 9c72 47bd 358c a33d
00000020: 6e6f 0b3e 7e99 a3bc f35d dbbd 6ad3 9fbd
00000030: bc29 4d3d 373e 23be ea77 a2bd 00dc af3d
00000040: 4f36 4b3d 900b 16bd efcc 88bd 2bd6 ba3d
00000050: fcf1 8dbc 517f bd3c a797 3f3d ee7d b8bd
00000060: a6d2 ee3d 706f 163e f3cf 113e 3f94 b23d
00000070: b168 723d b86f 403d cc2f ec3c b8af eabd
00000080: 86d1 2e3b 26fd a7bd ef91 3d3d 8f80 2bbd
00000090: 37b5 b53d 07ea d73d e8f9 7abc 85d4 463e
000000a0: 051e 093d d32d 3dbd 8e5b 743c 8104 2c3e
000000b0: 87f7 e33b 71df 843d 80e3 21bd 8da0 f7bc
000000c0: 6802 a33d 88f4 703d b846 1e3e dd83 0cbe

b1.b1.body.4.weight f4 [52, 52, 1, 1]
0.08136056 0.08701743 0.21150254 0.008123578 -0.08532775 -0.06873235 0.15156668 0.14407079
-0.047043387 -0.10646136 0.011755747 -0.20368029 0.057597853 -0.015651593 -0.1613237 0.0023313342
-0.17977388 -0.027155392 0.07076979 0.084327884 0.0073973327 0.13548094 -0.18037574 0.01079804
0.13649446 0.08317434 -0.056739267 0.19055931 0.03090361 -0.14830385 -0.12567455 0.038449477
0.0161953 0.105318904 0.09030095 0.08737956 0.25599903 0.15739872 -0.13908474 0.16411136
-0.020959906 -0.13068189 -0.14750434 -0.017711721 -0.027456954 -0.17746739 0.0077842707 -0.11647984
0.0847191 -0.093944736 -0.15030706 0.033058267 -0.1162586 0.080065325 0.20923509 -0.08417078
0.0002698651 -0.075271256 0.105700605 0.06566597 0.14744164 0.011639268 -0.29169372 -0.14529613
0.21028297 0.031600304 -0.1695057 0.054595944 0.00811578 -0.017069435 -0.001374092 0.12214159
0.03767504 0.092583664 -0.12593421 0.09361898 0.07136879 0.13827407 -0.15825826 0.03937346
-0.18713312 0.03383644 0.1688241 -0.06440449 0.06653976 0.024027174 -0.07983353 -0.12338912
-0.032354828 -0.06381907 -0.17633711 0.19404408 -2.6744596e-05 0.031893943 0.044957478 -0.09172116
0.10378283 -0.0033532802 0.0047993707 0.035599254 -0.061013862 -0.049008097 0.13184784 -0.05672158
-0.030625228 0.034950644 -0.070697576 0.011106107 -0.06706765 -0.055025302 0.20811717 0.0389478
0.0664953 -0.15683697 0.21666344 -0.15042923 -0.040349655 0.23314153 -0.0972248 -0.11553951
0.19632557 -0.06803912 0.029258952 -0.080467455 -0.09996007 0.0045484514 0.11197236 -0.062925935
0.22839777 0.04171244 -0.08535678 -0.06544364 0.040732343 0.14371072 0.084457524 -0.04765892
0.078505985 0.07279224 -0.0050595687 0.12714458 0.10230976 0.02645732 0.060781296 0.06613401
0.06804596 0.033952236 0.061284926 -0.079270564 0.049996186 -0.0037317353 -0.09645011 -0.03714425
0.059397675 0.12003022 0.096749075 -0.056577645 -0.012426217 -0.1006918 0.09587901 0.03052845
-0.014919956 0.09613648 -0.047803767 -0.010322857 0.04935214 0.043356795 -0.0033318424 -0.124421835
0.056022692 -0.21808457 -0.043815825 -0.13550314 0.15627962 -0.10386155 -0.12634765 -0.050561566
-0.07104645 0.088281296 0.15040368 -0.11761965 -0.08998444 0.0704198 -0.00086280913 -0.1545917
0.031196604 0.03064109 -0.15194486 0.029157704 0.05264843 -0.006986392 -0.061747313 0.034121994
-0.23836276 0.052486263 -0.046396628 -0.025688153 -0.084694065 -0.10873033 0.050342534 0.07250918
-0.12926511 0.080157585 0.118887804 -0.026739977 -0.07244678 -0.056582067 -0.38571876 -0.055731602
0.012598761 0.03980793 0.2643139 0.029858308 0.0068343664 -0.08311486 -0.095465586 0.09545303
-0.07057542 -0.010194043 0.12754768 -0.21169214 -0.09296833 0.3066684 -0.17656524 0.08979843
-0.032336853 0.08750284 -0.107108414 0.12513636 -0.04848116 0.14631519 0.14174163 0.056669615
-0.23302549 -0.24665776 0.021913705 0.10908633 -0.023611803 -0.051089548 -0.15100455 -0.10170681
-0.16598937 -0.23154508 0.12780292 0.15495925 -0.08601784 0.082683325 0.1909903 -0.13507107
-0.1260543 0.033273224 -0.029940516 0.05269597 -0.09136197 0.027048137 -0.04613161 -0.04325428
00000000: 5ea0 a63d 3236 b23d 1f94 583e c118 053c
00000010: 51c0 aebd 8cc3 8cbd 4c34 1b3e 4b87 133e
00000020: 91b0 40bd 6a08 dabd 2d9b 403c 9191 50be
00000030: baeb 6b3d c537 80bc 0a32 25be 4cc9 183b
00000040: a516 38be fc74 debc c0ef 903d 19b4 ac3d
00000050: 5365 f23b 84bb 0a3e 6bb4 38be 43ea 303c
00000060: 34c5 0b3e 4f57 aa3d 6f67 68bd fb21 433e
00000070: 9129 fd3c f7dc 17be d4b0 00be 337d 1d3d
00000080: 01ac 843c 70b1 d73d b4ef b83d 0ef4 b23d
00000090: 4e12 833e 212d 213e 3b6c 0ebe cf0c 283e
000000a0: 1cb4 abbc 79d1 05be 610b 17be 2c18 91bc
000000b0: 68ed e0bc 03ba 35be 3213 ff3b fb8c eebd
000000c0: 3581 ad3d 1966 c0bd 18ea 19be 1b68 073d
000000d0: fd18 eebd 4af9 a33d b941 563e bb61 acbd
000000e0: ae7c 8d39 d127 9abd 8f79 d83d e17b 863d
000000f0: f1fa 163e a1b2 3e3c e158 95be 82c8 14be
00000100: 6b54 573e 526f 013d e792 2dbe ff9f 5f3d
00000110: 0cf8 043c 33d5 8bbc e01a b4ba 5f25 fa3d
00000120: 2551 1a3d 819c bd3d e6f4 00be 4fbb bf3d
00000130: cd29 923d b897 0d3e 740e 22be 1146 213d
00000140: d39f 3fbe 1498 0a3d 3ae0 2c3e 80e6 83bd
00000150: ff45 883d a3d4 c43c c37f a3bd 6fb3 fcbd
00000160: 7f86 04bd 93b3 82bd b791 34be 7eb3 463e
00000170: 9559 e0b7 39a3 023d 5525 383d 4ed8 bbbd
00000180: 188c d43d b5c2 5bbb 0a44 9d3b 86d0 113d
00000190: ace9 79bd b7bc 48bd 1f03 073e e354 68bd
000001a0: c2e1 fabc 6828 0f3d e4c9 90bd 64f6 353c
000001b0: c45a 89bd 3662 61bd ab1c 553e ba87 1f3d
000001c0: b02e 883d df99 20be 05dd 5d3e 1f0a 1abe
000001d0: ae45 25bd a7bc 6e3e cc1d c7bd fb9f ecbd
000001e0: 9209 493e 1858 8bbd 78b0 ef3c 1fcc a4bd
000001f0: ddb7 ccbd 2d0b 953b c451 e53d 50df 80bd
00000200: 1be1 693e aada 2a3d 89cf aebd 5107 86bd
00000210: f5d6 263d e728 133e 11f8 ac3d 0036 43bd
00000220: bfc7 a03d 1914 953d bdca a5bb 3032 023e
00000230: c887 d13d 06bd d83c cff5 783d 4571 873d
00000240: ae5b 8b3d 8011 0b3d e705 7b3d 9b58 a2bd
00000250: cdc8 4c3d 2190 74bb a387 c5bd 9224 18bd
00000260: fa4a 733d 67d2 f53d 6124 c63d f6bd 67bd
00000270: 5597 4bbc 8137 cebd 375c c43d cd16 fa3c
00000280: d572 74bc 34e3 c43d e2cd 43bd 3321 29bc
00000290: 7825 4a3d e596 313d 0a5b 5abb e0d0 febd
000002a0: 0d78 653d 9051 5fbe 3978 33bd 56c1 0abe
000002b0: c407 203e 5db5 d4bd 4761 01be a519 4fbd
000002c0: cd80 91bd d3cc b43d 6c03 1a3e 92e2 f0bd
000002d0: c349 b8bd 4238 903d 242e 62ba 494d 1ebe
000002e0: 0590 ff3c 0603 fb3c 6f97 1bbe 23dc ee3c
000002f0: e1a5 573d 1bee e4bb c0ea 7cbd 81c3 0b3d
00000300: 5e15 74be d6fb 563d 640a 3ebd f66f d2bc
00000310: 1574 adbd 02ae debd f933 4e3d b17f 943d
00000320: 135e 04be a929 a43d 737b f33d cc0d dbbc
00000330: fa5e 94bd 99c2 67bd ee7c c5be d246 64bd
00000340: 096b 4e3c a40d 233d 2754 873e 6999 f43c
00000350: d2f2 df3b 2038 aabd 7683 c3bd e17c c33d
00000360: d989 90bd ea04 27bc dc9b 023e d3c5 58be
00000370: 2e66 bebd a403 9d3e 85cd 34be 3de8 b73d
00000380: a673 04bd b034 b33d a85b dbbd bf23 003e
00000390: 2e94 46bd a6d3 153e b824 113e 661e 683d
000003a0: 3c9e 6ebe da93 7cbe 5f84 b33c a768 df3d
000003b0: 8a6d c1bc 4643 51bd f0a0 1abe a94b d0bd
000003c0: 1ef9 29be 271a 6dbe c5de 023e a3ad 1e3e
000003d0: 1f2a b0bd e055 a93d f692 433e 1250 0abe
000003e0: 6114 01be 8149 083d d045 f5bc bbd7 573d
000003f0: fc1b bbbd 0e94 dd3c 80f4 3cbd 662b 31bd

b1.b1.body.4.bias f4 [52]
0.5198354 -0.032656286 -0.01859078 0.026172902 0.37959093 -0.07083194 -0.018523147 0.07315759
0.2414002 0.11989989 0.0054213 0.14818972 -0.08808415 0.01195518 0.085746154 -0.060882315
-0.02469228 -0.011356957 0.06821752 0.006877302 0.09836745 0.36016545 -0.027280137 -0.05442873
0.41277796 -0.13093732 -0.06574174 -0.06551874 0.10052453 0.031564746 0.23569754 0.10332672
-0.1403228 -0.110925585 0.12208741 0.095378324 -0.02171604 -0.10081499 0.023291128 0.06899195
-0.095776275 0.075547904 0.04453739 0.008107478 0.031798054 -0.011502268 -0.0010374289 -0.06746487
0.055409018 0.02382425 0.3582823 -0.018512784
00000000: ef13 053f 99c2 05bd b14b 98bc 8e68 d63c
00000010: be59 c23e 5610 91bd dbbd 97bc a6d3 953d
00000020: 9d31 773e 138e f53d 29a5 b13b 0cbf 173e
00000030: 7665 b4bd a9df 433c ae9b af3d bc5f 79bd
00000040: 7747 cabc 8812 3abc a1b5 8b3d fe5a e13b
00000050: e074 c93d 9b67 b83e 987a dfbc a9f0 5ebd
00000060: a257 d33e 6f14 06be 9ba3 86bd b02e 86bd
00000070: cedf cd3d 094a 013d b25a 713e f69c d33d
00000080: c8b0 0fbe f42c e3bd f708 fa3d b655 c33d
00000090: d6e5 b1bc 1778 cebd 09cd be3c a74b 8d3d
000000a0: 5a26 c4bd dcb8 9a3d d76c 363d 3ad5 043c
000000b0: ad3e 023d 0274 3cbc 56fa 87ba 062b 8abd
000000c0: 91f4 623d 132b c33c c770 b73e 1fa8 97bc

b1.c1.0.weight f4 [52, 104, 1, 1]
0.055973534 -0.2004664 -0.08613596 0.027307063 0.018159732 0.03302472 -0.0027554873 -0.011848446
0.007470945 -0.1086824 -0.013711876 0.10891663 -0.055670973 -0.118954666 -0.01854822 -0.12800625
0.122388035 -0.025111685 -0.07551175 0.020238442 0.15885782 0.110897385 -0.059523307 0.1304746
0.059447333 -0.16030629 -0.05457723 -0.0049346 0.07893209 -0.099516764 0.10251477 -0.026820518
-0.01285256 0.021368725 0.060312353 0.018006543 -0.06027495 -0.10651348 -0.03501473 -0.16956863
0.023514638 -0.14277938 -0.078474104 0.08254006 0.13070782 0.03388146 0.13315478 -0.007089762
-0.041209757 0.008166113 0.07397212 -0.022971524 0.04262518 0.031374883 0.05466833 0.14875634
0.24259157 0.038613 -0.15293866 -0.09263504 -0.019289184 -0.10507839 -0.07462213 0.0829264
0.13291246 -0.106528476 -0.046904396 0.009240044 -0.024666235 0.0738675 0.16654214 0.04117783
-0.07205846 -0.06659082 0.12679774 -0.020229567 0.021243589 -0.08556728 0.10022342 0.0074399984
0.09842618 -0.094913274 -0.044597458 -0.026147485 0.059715293 0.045010015 0.0954113 0.0010275146
0.11237283 -0.07458812 0.0020342984 -0.00052615866 0.17620347 0.012541939 0.17631559 0.08694285
0.20375471 0.0002373233 0.04011513 0.061483245 0.09893608 -0.13106807 0.10590242 0.041378334
0.18648073 0.096045226 -0.0064128595 0.00969219 -0.20876807 0.1348472 -0.22089359 0.08340732
0.2536845 0.041422546 0.027133957 0.0761151 0.028277177 0.011506019 -0.03859301 0.02667651
-0.008796756 -0.09595004 0.011559272 -0.057234753 -0.038532205 0.15020059 -0.14152806 -0.040684704
-0.07075043 0.06040223 0.11568081 0.040300503 -0.052182768 0.017202483 0.059560906 0.030516997
-0.013478923 0.10350526 0.06309747 0.06739665 0.06193732 -0.062344845 0.006450658 -0.035787374
-0.025180522 0.119183235 0.07011001 0.107578635 0.022824777 -0.0042773816 0.15267262 0.04532533
-0.15849507 0.09475932 -0.19602495 -0.046769764 0.052532464 -0.12059737 -0.06510809 -0.036158785
-0.14832914 -0.039048895 0.12763178 0.05936885 0.18251172 0.016008845 0.029965164 0.031580355
0.011497698 -0.06800413 -0.04927045 -0.22334573 -0.025094863 0.101107486 0.054787196 -0.29453942
0.0029337537 -0.0107116625 -0.020598777 -0.0356063 0.05616632 -0.05296729 -0.0062860004 0.06130244
0.07734299 0.03969924 0.2920216 0.023244943 -0.25735325 -0.0054160156 0.006040324 0.08156294
-0.136594 -0.023103926 0.115635976 0.06248903 0.15683618 -0.024395686 0.14667298 -0.05142385
-0.08441603 -0.07064713 0.10368237 0.0033095996 0.114229985 -0.06317858 -0.19679081 -0.016667152
0.0705746 -0.038372267 -0.057848834 0.16201651 -0.0044171065 0.0027360017 -0.07176572 0.012662597
0.20402217 0.13156563 -0.028671985 0.19497584 -0.017185237 0.045740202 -0.06895157 0.00036783025
0.08478001 0.021806754 0.15834573 0.11053743 -0.0034331093 0.026474087 -0.18071382 0.006994643
-0.15432557 -0.015034385 -0.017839866 0.029328289 -0.092906885 -0.01812152 -0.020058516 -0.03778957
-0.060474895 0.05010717 0.06181287 0.010094253 0.12965183 -0.00026766222 -0.033454753 -0.045344878
-0.056744616 0.13317147 0.10201037 0.03693646 0.18109499 -0.06834019 0.22588755 -0.09821295
00000000: 8144 653d 1047 4dbe 0d68 b0bd 10b3 df3c
00000010: b8c3 943c ee44 073d 6895 34bb fc1f 42bc
00000020: d4ce f43b e194 debd c7a7 60bc af0f df3d
00000030: 3f07 64bd 819e f3bd 70f2 97bc 1214 03be
00000040: 94a6 fa3d 05b7 cdbc e8a5 9abd 17cb a53c
00000050: a0ab 223e 2b1e e33d b6ce 73bd 229b 053e
00000060: 0c7f 733d 5527 24be 608c 5fbd 6db2 a1bb
00000070: 26a7 a13d 72cf cbbd 44f3 d13d b4b6 dbbc
00000080: 8b93 52bc 770d af3c 160a 773d 7582 933c
00000090: dee2 76bd bd23 dabd 9b6b 0fbd 66a3 2dbe
000000a0: c5a1 c03c c234 12be 08b7 a0bd c30a a93d
000000b0: 45d8 053e 49c7 0a3d ba59 083e 3c51 e8bb
000000c0: 90cb 28bd 29cb 053c b27e 973d c72e bcbc
000000d0: be97 2e3d f382 003d e6eb 5f3d 9553 183e
000000e0: ed69 783e aa28 1e3d f49b 1cbe 71b7 bdbd
000000f0: 5a04 9ebc 5733 d7bd 7dd3 98bd 51d5 a93d
00000100: 341a 083e 9a2b dabd d31e 40bd 8e63 173c
00000110: d810 cabc d847 973d 068a 2a3e 16aa 283d
00000120: 6393 93bd c560 88bd 44d7 013e 7ab8 a5bc
00000130: 0907 ae3c e63d afbd f041 cd3d 3bcb f33b
00000140: aa93 c93d e461 c2bd d3ab 36bd 4033 d6bc
00000150: 0698 743d 6c5c 383d 0067 c33d abad 863a
00000160: ba23 e63d a8c1 98bd dd51 053b e9ed 09ba
00000170: af6e 343e b47c 4d3c 138c 343e 180f b23d
00000180: 13a5 503e fdd9 7839 c34f 243d dbd5 7b3d
00000190: 009f ca3d b536 06be 5ee3 d83d 547c 293d
000001a0: cef4 3e3e 5cb3 c43d f722 d2bb fecb 1e3c
000001b0: 4cc7 55be 6215 0a3e ee31 62be 75d1 aa3d
000001c0: efe2 813e b0aa 293d 0848 de3c 3ce2 9b3d
000001d0: 8aa5 e73c be83 3c3c b413 1ebd b288 da3c
000001e0: 4520 10bc 7481 c4bd 1a63 3d3c fd6e 6abd
000001f0: f2d3 1dbd 2fce 193e bbec 10be 01a5 26bd
00000200: 9ae5 90bd 5468 773d 0fea ec3d 2412 253d
00000210: 99bd 55bd 39ec 8c3c 23f6 733d c8fe f93c
00000220: b3d6 5cbc 91fa d33d 3f39 813d 4107 8a3d
00000230: fdb1 7d3d 4f5d 7fbd 0b60 d33b c895 12bd
00000240: 6247 cebc 5716 f43d d695 8f3d 3052 dc3d
00000250: 07fb ba3c 4729 8cbb 3656 1c3e 0ea7 393d
00000260: 884c 22be 2d11 c23d c4ba 48be a791 3fbd
00000270: 482c 573d c1fb f6bd 6457 85bd 3c1b 14bd
00000280: 98e3 17be bcf1 1fbd e8b1 023e c02c 733d
00000290: 5ae4 3a3e fb24 833c 8179 f53c 675a 013d
000002a0: d760 3c3c c045 8bbd d0cf 49bd beb4 64be
000002b0: be93 cdbc 7111 cf3d 8a68 603d dfcd 96be
000002c0: 3844 403b f87f 2fbc c4be a8bc e9d7 11bd
000002d0: a80e 663d 3bf4 58bd cbfa cdbb 4418 7b3d
000002e0: 0066 9e3d ac9b 223d db83 953e 2e6c be3c
000002f0: cec3 83be d578 b1bb e9ed c53b 780a a73d
00000300: 4cdf 0bbe 7244 bdbc 8ed2 ec3d 7ff4 7f3d
00000310: aa99 203e 76d9 c7bc 7131 163e d1a1 52bd
00000320: 50e2 acbd 71af 90bd 6c57 d43d dee5 583b
00000330: 69f1 e93d c563 81bd 8883 49be 8d89 88bc
00000340: 6a89 903d 3d2c 1dbd e6f2 6cbd a8e7 253e
00000350: 60bd 90bb 7e4e 333b e8f9 92bd c876 4f3c
00000360: 30eb 503e 24b9 063e 83e1 eabc bfa7 473e
00000370: 0ec8 8cbc 145a 3b3d 7b36 8dbd 57d9 c039
00000380: 24a1 ad3d 14a4 b23c 6225 223e 7361 e23d
00000390: 04fe 60bb 2fe0 d83c 0b0d 39be 5133 e53b
000003a0: 8607 1ebe c852 76bc e924 92bc e141 f03c
000003b0: f745 bebd 9573 94bc c251 a4bc 3cc9 1abd
000003c0: 86b4 77bd 2d3d 4d3d 7e2f 7d3d 5e62 253c
000003d0: 73c3 043e 0455 8cb9 da07 09bd 8dbb 39bd
000003e0: 0b6d 68bd 1a5e 083e d0ea d03d af4a 173d
000003f0: f770 393e f1f5 8bbd 114f 673e df23 c9bd

b1.c1.1.weight f4 [52]
0.850153 0.9306662 0.7098084 1.0115861 0.7231154 0.95483965 0.9198038 0.9959318
0.89947027 0.9522556 0.86543703 0.71343577 0.941514 0.93882173 0.93993276 0.9935795
0.69954646 0.8326629 0.9523092 0.86261916 0.8210922 0.7433828 0.92515546 0.9297688
0.90545917 0.75215125 0.7889789 0.945984 0.83317775 0.84061444 0.98469096 0.8477177
1.0368983 0.94393873 0.91912824 0.785348 0.9316499 0.96336335 0.972094 0.83443993
0.9888622 0.8129752 0.97163093 0.9102362 0.9474038 0.9077706 0.8747583 1.0434636
1.0136049 0.95945 0.93200326 0.9349164
00000000: a1a3 593f 2440 6e3f 01b6 353f a77b 813f
00000010: 171e 393f 5f70 743f 4378 6b3f 63f5 7e3f
00000020: af43 663f 06c7 733f 488d 5d3f baa3 363f
00000030: 1007 713f 9f56 703f 6f9f 703f 3a5b 7e3f
00000040: 7a15 333f 6529 553f 89ca 733f 9cd4 5c3f
00000050: 1933 523f 564e 3e3f fdd6 6c3f 5405 6e3f
00000060: 2ccc 673f fc8c 403f 85fa 493f 022c 723f
00000070: 234b 553f 8232 573f b514 7c3f 0704 593f
00000080: 15b9 843f f8a5 713f fd4b 6b3f 910c 493f
00000090: 9c80 6e3f fb9e 763f 27db 783f db9d 553f
000000a0: 1326 7d3f 251f 503f cebc 783f 3d05 693f
000000b0: 0e89 723f a763 683f 29f0 5f3f 3790 853f
000000c0: cebd 813f 849e 753f c497 6e3f ae56 6f3f

b1.c1.1.bias f4 [52]
-0.083494626 -0.0018585491 0.21108054 0.012712965 -0.10726412 -0.05874854 -0.12486224 0.09752076
-0.01889267 -0.11764962 0.13908668 0.35292152 -0.043655477 -0.025360342 0.008759163 0.073598154
0.24634357 -0.04148257 -0.01055537 0.061300274 0.05542395 0.018386919 0.0570715 0.04924229
0.11054855 0.10244762 0.14962748 0.006396157 0.03978826 -0.06509381 -0.022664368 0.10453633
0.00027925448 0.041377082 0.04762466 0.14371553 -0.05005334 -0.072589144 0.12852046 -0.08706474
-0.03062548 0.073721536 -0.035301477 -0.067105904 0.0022002836 -0.08119981 -0.079002656 -0.050630786
-0.06501363 -0.028097339 0.06458166 0.008497491
00000000: 3bff aabd 8f9a f3ba 7f25 583e 0a4a 503c
00000010: 4aad dbbd 4fa2 70bd c6b7 ffbd f7b8 c73d
00000020: cdc4 9abc 49f2 f0bd bd6c 0e3e 21b2 b43e
00000030: 16d0 32bd 7ec0 cfbc 9882 0f3c a1ba 963d
00000040: 7d41 7c3e a1e9 29bd 6ef0 2cbc ff15 7b3d
00000050: 3904 633d 2aa0 963c cec3 693d 49b2 493d
00000060: 4767 e23d 0fd0 d13d f237 193e db96 d13b
00000070: 04f9 223d e74f 85bd a0aa b9bc 2517 d63d
00000080: e768 9239 047b 293d 1312 433d 2a2a 133e
00000090: bb04 4dbd 9ea9 94bd de9a 033e 004f b2bd
000000a0: 49e2 fabc 51fb 963d 4898 10bd d26e 89bd
000000b0: a232 103b 164c a6bd 25cc a1bd 3a62 4fbd
000000c0: de25 85bd 642c e6bc 6443 843d 0f39 0b3c

b1.c1.1.running_mean f4 [52]
0.27001047 0.10566353 0.06876384 -0.16460021 -0.14727643 0.2104637 0.1831137 -0.011578724
-0.34277806 -0.22115745 0.012258883 0.3356884 -0.22263709 -0.15145496 -0.03900046 0.014845052
0.1833972 -0.19944769 0.0037385188 0.20581143 -0.28931734 -0.26638877 0.053434722 -0.15733714
0.04534868 -0.06735696 0.09643785 -0.0681299 -0.1787773 0.06199523 0.122565515 -0.07333176
0.093216896 0.26506618 -0.10655042 -0.040962033 0.06131701 -0.023053221 0.15289856 -0.17555864
-0.09550963 0.18680075 -0.0038301873 -0.046892036 0.14626774 -0.18516216 -0.32899788 -0.23247361
0.13264222 -0.082412 -0.040414784 -0.23191367
00000000: d03e 8a3e 1f66 d83d 0ed4 8c3d f58c 28be
00000010: a2cf 16be cc83 573e 2882 3b3e b0b4 3dbc
00000020: 9b80 afbe 1977 62be 7bd9 483c 5adf ab3e
00000030: fafa 63be 0217 1bbe f2be 1fbd a938 733c
00000040: 7acc 3b3e 043c 4cbe f001 753b 3bc0 523e
00000050: 6721 94be 1c64 88be 5ede 5a3d fd1c 21be
00000060: 8abf 393d 72f2 89bd 3581 c53d b087 8bbd
00000070: 6611 37be b6ee 7d3d a103 fb3d f62e 96bd
00000080: 80e8 be3d c1b6 873e 1b37 dabd cec7 27bd
00000090: 8c27 7b3d 1cda bcbc 7191 1c3e a5c5 33be
000000a0: 8e9a c3bd b248 3f3e e103 7bbb dd11 40bd
000000b0: 36c7 153e 269b 3dbe 6972 a8be 900d 6ebe
000000c0: 5dd3 073e 9fc7 a8bd f989 25bd c77a 6dbe

b1.c1.1.running_var f4 [52]
0.047417715 0.03991319 0.0081427535 0.015118635 0.04419657 0.055375498 0.034341644 0.023370948
0.055250194 0.03770198 0.028713228 0.0040485505 0.0384717 0.010479694 0.042735998 0.01532147
0.007221058 0.0115376655 0.0275242 0.016551916 0.027117664 0.0070514623 0.021374043 0.0260263
0.021896064 0.034879964 0.012183848 0.07648331 0.015668951 0.0298451 0.03676835 0.019016536
0.14547053 0.024324259 0.027844723 0.015530844 0.06821016 0.043141466 0.029742712 0.050494667
0.10258594 0.01975436 0.03570804 0.09706248 0.022449031 0.039682977 0.038363457 0.031074222
0.02479986 0.029369872 0.011334518 0.0101496335
00000000: 1439 423d 037c 233d 2f69 053c 27b4 773c
00000010: 7607 353d 6bd1 623d d3a9 0c3d 6e74 bf3c
00000020: 074e 623d 646d 1a3d 0138 eb3c b4a9 843b
00000030: 8094 1d3d 06b3 2b3c f10b 2f3d e706 7b3c
00000040: a09e ec3b 7a08 3d3c 6e7a e13c e297 873c
00000050: dd25 de3c f40f e73b 9e18 af3c 1b35 d53c
00000060: 605f b33c 4bde 0e3d c39e 473c 48a3 9c3d
00000070: 2c5c 803c b67d f43c 699a 163d 91c8 9b3c
00000080: 3af6 143e ab43 c73c 9e1a e43c 1575 7e3c
00000090: c5b1 8b3d 1bb5 303d fda6 f33c 7fd3 4e3d
000000a0: 9418 d23d e5d3 a13c 9842 123d b2c8 c63d
000000b0: 08e7 b73c 9e8a 223d 0023 1d3d 5e8f fe3c
000000c0: 1329 cb3c 1699 f03c 6ab4 393c a64a 263c

b1.c2.0.weight f4 [52, 156, 1, 1]
-0.028034436 0.02887745 0.22670351 -0.03060875 0.019118454 -0.0009142266 -0.0015845171 0.08163806
-0.008352086 -0.032174096 0.05379748 -0.11666212 0.010845507 -0.0833441 -0.03791525 -0.026911141
0.025424005 -0.11943871 0.20946924 -0.015113721 0.015609658 0.01942866 0.027424874 -0.002946978
0.14003274 0.07810636 0.124991395 -0.027263429 0.09846421 -0.117042065 0.046351433 -0.13056774
-0.008534824 0.07837209 0.06301204 0.012283781 0.09573141 0.09158019 -0.03975758 0.0356417
-0.033494614 0.042182483 0.05339573 0.054285068 -0.029105458 -0.08829418 -0.10108349 -0.06352072
-0.100532085 -0.04706852 -0.26253375 -0.018651554 -0.12713742 -0.12458268 -0.219926 -0.22042683
0.24237292 -0.057786062 -0.15342627 -0.025363311 0.033115093 -0.008876004 -0.013317722 -0.13155904
-0.07149134 -0.19150504 -0.04576989 -0.16067919 -0.06386136 0.11829367 0.016871462 0.02336233
-0.15214415 -0.012354879 -0.17119756 0.12718117 0.050822023 -0.15449934 0.014478834 0.042331662
-0.1689147 0.0503662 0.10413374 -0.055598825 -0.056134965 -0.04885262 -0.07299932 0.14044425
0.00025225402 0.058736105 -0.28630978 -0.012876169 0.16055572 0.055051383 -0.122900926 -0.086913384
0.026815338 -0.032301936 -0.060130324 -0.124885224 -0.3363561 -0.13582656 -0.21967985 -0.0485802
0.047797047 0.10616771 -0.01902208 -0.0022754786 -0.005762664 0.16593605 0.15922917 0.06392957
-0.030674048 -0.0060884207 -0.016708469 0.00813085 0.09525105 -0.08955869 0.06676809 0.09642683
-0.077824034 0.11705876 0.07248861 0.15656553 0.060730603 0.08069838 -0.08381756 -0.06984729
-0.0016379153 0.08544304 0.12323495 0.025687259 0.04339873 0.13943976 -0.08247169 -0.02749573
0.12234727 0.026773393 0.059478097 0.006188983 0.10833954 -0.046215665 0.060225002 -0.127088
-0.029058076 -0.09935144 -0.010173039 -0.052242666 -0.07479501 -0.035525013 0.034426376 0.108742334
-0.08433782 0.14450206 -0.017330803 0.07855245 -0.035036772 0.0816474 -0.06531662 -0.03405893
-0.03157912 -0.050645143 0.027904488 -0.0061674085 -0.16296118 0.052760784 -0.008164916 -0.03641156
-0.10732365 -0.03566176 -0.02122813 -0.10351535 0.08312152 -0.114822425 0.092212774 -0.020692948
0.033984132 0.023825075 0.15663593 0.10248938 -0.19042967 0.07000389 0.13646568 -0.005786637
0.07283078 -0.067775995 0.017029155 -0.06843932 -0.072719395 0.047574442 0.02729794 0.040218018
0.02364893 0.09992384 -0.044087723 0.2969818 0.10996259 -0.019114789 -0.109983645 -0.0059945905
-0.070669934 0.0859658 -0.06619252 -0.044791836 0.08751776 0.018839901 -0.08365192 0.038451698
-0.10444916 0.043367676 0.061664566 0.045810834 0.03347766 0.016232517 0.05853466 0.09593463
-0.08025182 0.06608062 0.0040509105 0.09951917 -0.059764497 0.09567871 0.1438752 0.07422846
-0.065702565 0.004527554 0.15815903 0.0008229412 0.10854683 0.0068197954 0.030395925 0.2465343
-0.041848004 0.05266468 0.052384496 0.012350427 0.028709162 -0.040639922 -0.04884627 -0.06607753
-0.1129975 0.05357591 0.10052474 0.08243796 -0.037749045 0.2290287 -0.2724701 0.23471509
0.13670519 -0.05596339 -0.026944956 0.054912515 -0.22766848 0.09839694 -0.0007782399 0.09100811
00000000: 79a8 e5bc 6790 ec3c f724 683e 34bf fabc
00000010: 4e9e 9c3c b5a8 6fba 92af cfba db31 a73d
00000020: 30d7 08bc fcc8 03bd bf5a 5c3d 8dec eebd
00000030: 5ab1 313c 50b0 aabd 054d 1bbd c174 dcbc
00000040: 0146 d03c 489c f4bd 1b7f 563e 8a9f 77bc
00000050: a7bf 7f3c da28 9f3c 21aa e03c 1622 41bb
00000060: be64 0f3e 3af6 9f3d 7dfb ff3d 8e57 dfbc
00000070: 9ba7 c93d c0b3 efbd 00db 3d3d 8db3 05be
00000080: a5d5 0bbc 8c81 a03d 750c 813d e941 493c
00000090: d40e c43d 658e bb3d d8d8 22bd 08fd 113d
000000a0: a631 09bd 8ac7 2c3d 7bb5 5a3d 055a 5e3d
000000b0: 926e eebc 94d3 b4bd dc04 cfbd 2717 82bd
000000c0: c4e3 cdbd ecca 40bd d36a 86be 25cb 98bc
000000d0: 5030 02be 3425 ffbd 4834 61be 92b7 61be
000000e0: 9b30 783e 14b1 6cbd c71b 1dbe b8c6 cfbc
000000f0: b1a3 073d a96c 11bc 9332 5abc 6ab7 06be
00000100: 0d6a 92bd e619 44be 3579 3bbd 1689 24be
00000110: bfc9 82bd f443 f23d 0536 8a3c 5b62 bf3c
00000120: adcb 1bbe 1e6c 4abc 6a4e 2fbe c83b 023e
00000130: c12a 503d 1335 1ebe a238 6d3c f763 2d3d
00000140: faf7 2cbe ca4c 4e3d 1244 d53d 98bb 63bd
00000150: c7ed 65bd af19 48bd ab80 95bd 9ed0 0f3e
00000160: f640 8439 4595 703d 3297 92be 91f6 52bc
00000170: b868 243e 8f7d 613d 7bb3 fbbd a5ff b1bd
00000180: d7ab db3c 094f 04bd 374b 76bd d3c3 ffbd
00000190: de36 acbe 1e16 0bbe c1f3 60be 08fc 46bd
000001a0: d6c6 433d 756e d93d 31d4 9bbc 3220 15bb
000001b0: bbd4 bcbb 24eb 293e f90c 233e 82ed 823d
000001c0: 2448 fbbc 6081 c7bb 33e0 88bc 4237 053c
000001d0: fc12 c33d 8c6a b7bd b5bd 883d 6e7b c53d
000001e0: 3562 9fbd 81bc ef3d e974 943d b752 203e
000001f0: a7c0 783d 3145 a53d 8aa8 abbd 190c 8fbd
00000200: 51af d6ba c3fc ae3d 9b62 fc3d 166e d23c
00000210: dec2 313d 4cc9 0e3e ebe6 a8bd ba3e e1bc
00000220: 3591 fa3d e053 db3c 4e9f 733d f4cc ca3b
00000230: 1fe1 dd3d a34c 3dbd 7eae 763d 5b23 02be
00000240: 340b eebc c578 cbbd d1ac 26bc 68fc 55bd
00000250: 202e 99bd ad82 11bd ac02 0d3d 4db4 de3d
00000260: 4fb9 acbd 59f8 133e 54f9 8dbc 1be0 a03d
00000270: b882 0fbd c136 a73d b8c4 85bd 6081 0bbd
00000280: 1b59 01bd 4871 4fbd f497 e43c f917 cabb
00000290: 4cdf 26be b11b 583d 24c6 05bc 4a24 15bd
000002a0: 80cc dbbd 1112 12bd 9ee6 adbc dbff d3bd
000002b0: 9e3b aa3d 0528 ebbd 0dda bc3d 4284 a9bc
000002c0: f232 0b3d ce2c c33c 2b65 203e f4e5 d13d
000002d0: ffff 42be 335e 8f3d a9bd 0b3e d49d bdbb
000002e0: 4e28 953d 24ce 8abd ba80 8b3c ea29 8cbd
000002f0: e8ed 94bd 6bdd 423d ee9f df3c a6bb 243d
00000300: 67bb c13c dfa4 cc3d 5495 34bd 000e 983e
00000310: 1134 e13d 9e96 9cbc 1b3f e1bd 456e c4bb
00000320: 66bb 90bd d60e b03d f28f 87bd a577 37bd
00000330: 833c b33d 2356 9a3c b351 abbd 877f 1d3d
00000340: 71e9 d5bd 4ea2 313d fc93 7c3d 24a4 3b3d
00000350: df1f 093d 0efa 843c 0ac2 6f3d 6079 c43d
00000360: 115b a4bd 4755 873d 80bd 843b b5d0 cb3d
00000370: 9ecb 74bd 33f3 c33d 0554 133e 1705 983d
00000380: 118f 86bd e05b 943b 71f4 213e a6ba 573a
00000390: cd4d de3d 9778 df3b e000 f93c 7d73 7c3e
000003a0: d068 2bbd ebb6 573d 2091 563d 7259 4a3c
000003b0: 7a2f eb3c 0c76 26bd 0713 48bd a853 87bd
000003c0: 3c6b e7bd 6a72 5b3d eadf cd3d 3cd5 a83d
000003d0: be9e 1abd 8086 6a3e 3381 8bbe 2759 703e
000003e0: 72fc 0b3e de39 65bd abbb dcbc f2eb 603d
000003f0: ed21 69be 5684 c93d cc02 4cba 7662 ba3d

b1.c2.1.weight f4 [52]
0.99596834 0.9891468 0.89747757 1.0658195 0.93124294 1.0604299 0.9468733 0.917792
0.90009826 0.86880237 0.8737393 0.9263991 1.0917819 0.8811679 0.7606279 0.89622223
0.78067786 0.84201336 0.7622457 0.79484 0.94467235 0.95663184 0.86552465 0.9371703
0.8765787 0.8850984 0.9451647 0.90668786 0.8755562 0.9931861 1.0080613 1.0081462
0.98129797 0.86132723 0.764321 0.929512 0.9443458 0.81258714 0.7095496 0.8753824
0.84802926 0.7750062 0.9079218 0.96459264 0.9633432 0.9890225 0.95054007 0.97587615
0.80031914 0.8315212 0.86739594 0.824136
00000000: c8f7 7e3f ba38 7d3f 17c1 653f c66c 883f
00000010: f065 6e3f 2bbc 873f 4a66 723f 6bf4 6a3f
00000020: d76c 663f d569 5e3f 61ad 5f3f 7e28 6d3f
00000030: 82bf 8b3f 3894 613f 83b8 423f d26e 653f
00000040: 81da 473f 308e 573f 8922 433f a27a 4b3f
00000050: 0cd6 713f d3e5 743f 0693 5d3f 65ea 6f3f
00000060: 7667 603f cf95 623f 50f6 713f b21c 683f
00000070: 7324 603f 7241 7e3f 2708 813f ef0a 813f
00000080: 5836 7b3f f17f 5c3f 8baa 433f 80f4 6d3f
00000090: a5c0 713f b605 503f 0ba5 353f 1019 603f
000000a0: 7218 593f ce66 463f 906d 683f 8bef 763f
000000b0: a99d 763f 9430 7d3f 9856 733f 05d3 793f
000000c0: b7e1 4c3f 93de 543f a90d 5e3f 94fa 523f
