benchmark/classsr/experiments/pre_trained_models/CARN_branch1.pth (torch_old, 399789 bytes, 90 tensors)

sub_mean.weight f4 [3, 3, 1, 1]
1.0347524 -0.01219708 -0.025283175 -0.025872719 1.0440291 -0.019102706 -0.023240669 -0.020098943
1.027321
00000000: c472 843f 43d6 47bc a91e cfbc 06f3 d3bc
00000010: bfa2 853f 477d 9cbc 3763 bebc 8aa6 a4bc
00000020: 417f 833f

sub_mean.bias f4 [3]
-0.46637934 -0.46328732 -0.42860487
00000000: 46c9 eebe ff33 edbe 1972 dbbe

add_mean.weight f4 [3, 3, 1, 1]
0.8479947 0.029603109 0.020542223 0.00072456227 0.8499015 0.0009873065 -0.009564497 0.03151773
0.8807547
00000000: 2e16 593f 3882 f23c 2a48 a83c 8df0 3d3a
00000010: 2593 593f 8268 813a 68b4 1cbc bc18 013d
00000020: 2479 613f

add_mean.bias f4 [3]
0.44654524 0.42739606 0.44073933
00000000: 94a1 e43e a8d3 da3e 96a8 e13e

entry.weight f4 [36, 3, 3, 3]
-0.14455576 -0.25818238 -0.14014742 -0.23380063 -0.49699512 0.06816217 0.13995147 0.10940601
0.087541 0.053816207 0.20349264 -0.081310354 0.23071937 0.27247173 0.2530518 0.057482317
0.2721432 0.10019531 -0.05527825 -0.070115425 0.019341812 -0.056298763 0.060069434 0.042435978
-0.13823618 -0.06376691 -0.2168169 0.19241692 -0.10649261 0.017264614 0.047520507 0.35609576
0.025465364 0.0070191803 0.1710767 0.14430021 -0.20595396 -0.25660855 -0.040304806 0.045866832
0.08781963 0.15335503 0.10535695 -0.10195552 -0.14541148 0.15520903 0.12073482 -0.10953045
-0.09410647 0.060578454 -0.16699801 -0.02248595 -0.22196352 0.010018634 -0.029023873 -0.20445672
-0.05668527 -0.061891105 0.19391926 -0.032155063 0.14088875 -0.18380003 -0.014169499 0.19171785
-0.27590588 -0.084193744 -0.19246255 0.4860499 0.047988117 -0.08684596 -0.19533713 0.0610436
-0.023426335 -0.041851584 -0.07497871 -0.15339032 -0.07907611 0.088822395 0.19291876 0.0070100464
-0.080622375 0.1841885 0.21703638 0.021796467 0.006522438 -0.14920753 0.13843958 0.07519328
0.2167891 -0.19757129 -0.0015131307 -0.10281648 -0.06995744 -0.08398875 -0.014494892 0.11047626
0.1384809 0.07833531 -0.23086293 -0.08727882 0.11980877 0.0086505 -0.13250034 0.11928948
-0.2184412 0.052804973 -0.0991123 -0.021691376 -0.09967075 -0.18019609 -0.15520972 -0.17587198
-0.05593691 0.12341018 -0.19700652 -0.36632368 -0.16213357 0.22425425 0.26617658 -0.13848388
0.105502546 0.24802256 0.25827077 -0.04930891 0.1471509 -0.09460442 -0.18703304 0.04316373
-0.04731189 -0.022547612 -0.07711199 -0.14176872 0.15858603 0.17488945 0.1746783 0.0811139
-0.22059779 -0.10969186 -0.04562286 -0.26682952 -0.18386066 0.12068409 -0.18539925 0.042630874
-0.10382654 0.05272926 -0.017640974 0.1503042 0.0055432054 -0.21650884 0.16090368 -0.19501987
0.03354721 -0.09215301 0.16806084 0.076177016 0.08107133 0.028196022 0.24249725 0.22277753
0.046959676 -0.0041254424 -0.032419663 0.10627208 0.08701682 0.17130211 0.17453995 -0.035147756
-0.17774162 -0.19002782 0.062616386 -0.048701786 -0.005803259 0.17485005 -0.091526724 -0.42654404
-0.2039763 0.1790411 0.007412057 0.19765821 0.060013752 0.022938866 0.17917109 -0.061724566
-0.33829924 0.13308121 0.19626297 -0.056386534 -0.08075184 0.02436253 0.03422991 0.05822574
0.15034628 0.17796451 -0.084086455 -0.015469147 0.12795536 0.045295604 -0.13194102 0.04358469
-0.018675385 -0.03719032 0.32614824 0.16253744 0.18021573 0.2541029 0.031273585 -0.12413654
0.08127632 0.10319201 0.167985 0.24022608 0.14033785 0.0644288 0.05582206 0.07895898
-0.16097622 0.08690672 0.040128455 0.072871715 -0.033325877 0.07156811 -0.02198605 -0.17488867
0.018092927 0.14305764 -0.10057352 0.033900846 0.08943162 -6.39202e-06 -0.11903177 0.14485347
-0.0343641 0.18492763 0.009593357 -0.1606021 -0.088182874 -0.18673822 0.6324295 -0.18099312
-0.19915898 0.06182456 -0.12278077 0.085886136 -0.22392124 -0.038929313 0.109340824 0.31346416
-0.28579333 0.010325679 -0.024586098 -0.19790687 0.12389033 0.0698988 -0.07034704 0.17764425
00000000: 6d06 14be 7b30 84be ce82 0fbe 6f69 6fbe
00000010: 2576 febe 9c98 8b3d 704f 0f3e 4210 e03d
00000020: b248 b33d 626e 5c3d 6060 503e 0b86 a6bd
00000030: b341 6c3e 6a81 8b3e 0190 813e 9472 6b3d
00000040: 5a56 8b3e 3333 cd3d 726b 62bd ad98 8fbd
00000050: b872 9e3c 8899 66bd 5e0b 763d 59d1 2d3d
00000060: c98d 0dbe 3a98 82bd 4005 5ebe f108 453e
00000070: cc18 dabd 856e 8d3c dda4 423d 2f52 b63e
00000080: bd9c d03c 2701 e63b bb2e 2f3e 6fc3 133e
00000090: 98e5 52be 3262 83be a716 25bd dcde 3b3d
000000a0: c7da b33d 1a09 1d3e 62c5 d73d 0ece d0bd
000000b0: bfe6 14be 1eef 1e3e d143 f73d 8051 e0bd
000000c0: e5ba c0bd 1d21 783d 8701 2bbe 7434 b8bc
000000d0: 684a 63be 3225 243c 79c3 edbc 1a5d 51be
000000e0: d02e 68bd 8781 7dbd c592 463e 07b5 03bd
000000f0: 2445 103e 1336 3cbe 3027 68bc af51 443e
00000100: 8943 8dbe c56d acbd e714 45be 88db f83e
00000110: 308f 443d 4bdc b1bd 7506 48be db08 7a3d
00000120: 96e8 bfbc 916c 2bbd 708e 99bd 5a12 1dbe
00000130: a8f2 a1bd 84e8 b53d 7f8c 453e 88b4 e53b
00000140: 581d a5bd e99b 3c3e c93e 5e3e 818e b23c
00000150: 2dba d53b dcc9 18be 1bc3 0d3e effe 993d
00000160: f6fd 5d3e 2150 4abe 3e54 c6ba 7291 d2bd
00000170: d945 8fbd 4b02 acbd fc7b 6dbc 6141 e23d
00000180: f0cd 0d3e 436e a03d 5567 6cbe 3dbf b2bd
00000190: 4d5e f53d d4ba 0d3c 2bae 07be 0b4e f43d
000001a0: 0daf 5fbe 074a 583d 64fb cabd 1db2 b1bc
000001b0: 2e20 ccbd 5385 38be 4cef 1ebe c917 34be
000001c0: 1a1e 65bd 7abe fc3d 14bc 49be c78e bbbe
000001d0: 5806 26be e8a2 653e 4c48 883e b8ce 0dbe
000001e0: b811 d83d a0f9 7d3e 113c 843e 24f8 49bd
000001f0: baae 163e f6bf c1bd 9785 3fbe 74cc 303d
00000200: 1dca 41bd c5b5 b8bc e4ec 9dbd d22b 11be
00000210: 6064 223e 3816 333e dede 323e 0b1f a63d
00000220: 63e4 61be 20a6 e0bd 09df 3abd e19d 88be
00000230: f845 3cbe 3829 f73d 4dd9 3dbe b69d 2e3d
00000240: 02a3 d4bd a3fa 573d ce83 90bc 58e9 193e
00000250: c7a3 b53b 7eb4 5dbe efc3 243e 4ab3 47be
00000260: cd68 093d b8ba bcbd 2418 2c3e b202 9c3d
00000270: ba08 a63d 58fb e63c 3351 783e cb1f 643e
00000280: ca58 403d b82e 87bb 7bca 04bd 2da5 d93d
00000290: e035 b23d d269 2f3e 9aba 323e 18f7 0fbd
000002a0: e601 36be a796 42be 053d 803d 867b 47bd
000002b0: 4429 bebb e40b 333e 5d72 bbbd fb63 dabe
000002c0: 2adf 50be 8d56 373e d7e0 f23b ea66 4a3e
000002d0: fbd0 753d 4aea bb3c a078 373e e6d2 7cbd
000002e0: 8f35 adbe 7146 083e 29f9 483e 91f5 66bd
000002f0: 3861 a5bd ee93 c73c a934 0c3d 1d7e 6e3d
00000300: 60f4 193e 543c 363e 8535 acbd 4e72 7dbc
00000310: bb06 033e e287 393d 8c1b 07be dc85 323d
00000320: 1ffd 98bc e154 18bd e7fc a63e 3770 263e
00000330: 798a 383e c619 823e bb18 003d 4c3b febd
00000340: 3374 a63d 5556 d33d 4304 2c3e d3fd 753e
00000350: bab4 0f3e 3ff3 833d aca5 643d 3fb5 a13d
00000360: f3d6 24be 27fc b13d bc5d 243d c43d 953d
00000370: b780 08bd 4d92 923d 171c b4bc 0416 33be
00000380: 9e37 943c b47d 123e 7df9 cdbd 9ddb 0a3d
00000390: ed27 b73d 097b d6b6 eec6 f3bd 7854 143e
000003a0: 5fc1 0cbd ab5d 3d3e 752d 1d3c e074 24be
000003b0: 3999 b4bd 4e38 3fbe e6e6 213f 4356 39be
000003c0: 55f0 4bbe c03b 7d3d 7c74 fbbd 12e5 af3d
000003d0: 9c4b 65be 5874 1fbd 15ee df3d 607e a03e
000003e0: 8153 92be 092d 293c c968 c9bc 19a8 4abe
000003f0: 37ba fd3d 1a27 8f3d 1c12 90bd 60e8 353e

entry.bias f4 [36]
-0.009734159 0.16701153 0.12870696 -0.040580764 0.017862909 -0.10060535 0.16040438 0.023545595
0.10247329 -0.1321861 0.07420393 -0.02288894 -0.1599392 0.004541248 0.01155832 0.1916443
-0.050130047 -0.08221176 0.1427185 -0.16940999 0.07959795 -0.052208725 0.18742284 -0.1913779
-0.103913374 0.100555144 0.12874307 0.17040117 -0.07111825 0.12912153 0.01779389 0.113834746
-0.08302517 -0.041151036 0.0690928 0.1582086
00000000: 067c 1fbc 1205 2b3e c2cb 033e 0438 26bd
00000010: 3c55 923c 2e0a cebd 0c41 243e b1e2 c03c
00000020: 84dd d13d cb5b 07be 3bf8 973d 9681 bbbc
00000030: 1ac7 23be c0ce 943b 1c5f 3d3c 673e 443e
00000040: 2a55 4dbd a45e a8bd cc24 123e d079 2dbe
00000050: 4004 a33d d1d8 55bd c6eb 3f3e 91f8 43be
00000060: 89d0 d4bd dbef cd3d 39d5 033e a57d 2e3e
00000070: 72a6 91bd 6f38 043e 7ec4 913c 3122 e93d
00000080: 1a09 aabd fd8d 28bd 8780 8d3d 6f01 223e

b1.b1.body.0.weight f4 [36, 9, 3, 3]
0.09790816 -0.04424041 0.2569238 -0.059685543 0.16651274 0.053301867 0.29379398 -0.018015489
-0.033047676 -0.026879657 -0.042531226 -0.003192166 -0.011034623 0.04822878 -0.047259826 0.061828848
0.063209265 0.00985368 -0.044350017 0.13936101 -0.054116204 0.023066768 -0.09300471 -0.08220726
0.007632658 0.06619009 -0.044565942 -0.011897147 -0.070575945 0.14416549 0.016432175 0.03315857
0.08487095 0.091937065 -0.032391414 -0.06280178 -0.062399097 0.22316834 -0.114142165 0.10334601
-0.022359384 0.03353131 0.030651465 0.020824004 0.066828996 0.016400864 0.037251048 0.0010508827
0.06325952 0.09665862 0.14362903 0.11090305 0.09404139 0.15507157 0.051428895 -0.08187046
0.035821464 -0.09168202 -0.024161655 0.02763798 -0.10023548 0.0003747065 -0.06880477 0.009896519
-0.11734912 0.04627258 -0.1504795 0.048705436 0.014623887 0.0037636424 0.002443505 0.10336532
-0.018177135 -0.019188808 0.299207 -0.05784683 0.07438679 0.035662737 0.12119056 0.0048344224
-0.033967372 0.2070462 0.2530745 0.13315085 0.26937166 0.2753517 0.10193361 0.2276551
0.23911312 0.1408157 0.026290141 -0.19933324 -0.13621949 -0.15060328 -0.017067036 -0.015915401
0.026378637 0.009699773 -0.024688622 0.11329908 0.05559115 0.013536177 0.061590955 -0.064055875
0.05999594 0.15271552 0.07872129 0.07058305 0.08575821 -0.03399802 -0.07368236 -0.022594415
0.06501492 -0.029666677 -0.085547864 -0.11803958 -0.050045487 -0.094079226 0.09575218 -0.0110705225
0.021269344 0.014226814 0.037099287 0.14384323 -0.02808572 0.02935486 0.18706894 -0.022798749
-0.017611533 0.07506817 -0.06770235 -0.04505992 -0.017664932 -0.05793672 0.06181594 -0.023956615
0.025751984 -0.0047966866 -0.11150464 -0.13148642 0.03289027 0.07003179 -0.11388442 0.03600719
0.038413003 -0.09193534 0.060249336 -0.01241223 0.09047731 -0.07662222 -0.08049064 -0.069126956
0.014760927 0.061553154 -0.040532522 -0.015578194 -0.051955536 0.07602868 -0.04661508 -0.025553338
0.06723856 0.049908966 -0.02865686 0.050251164 -0.03262062 -0.12241152 -0.053570613 -0.034310907
0.027783614 0.00849733 0.04492718 0.010160444 0.051606342 0.028038945 0.024786571 -0.0014134409
-0.10858368 0.098461 0.21008839 0.102202505 -0.00032450593 0.1680933 -0.056500252 0.04549003
-0.15248086 0.008879095 -0.07127581 0.024575416 -0.046513744 0.1385597 0.091655865 0.19989145
0.03360925 -0.06378958 0.04737246 -0.06309762 -0.01638595 0.03545665 0.11548899 -0.088751644
-0.016232127 0.06497389 0.047797907 -0.03797109 0.2117863 0.12556642 0.13062656 0.07533007
-0.010783164 -0.0393231 0.107051596 -0.08150418 0.046589207 -0.06692418 0.071322754 0.0477919
0.022050465 0.051336177 -0.12191156 0.15123561 0.032582782 0.059970498 -0.01880968 -0.04820569
-0.020188643 0.09804388 0.014028116 0.040346805 -0.02534332 -0.14494699 -0.05395998 0.043157667
0.05236504 -0.033711124 -0.14482585 0.19185574 0.06399285 0.122484975 -0.14511506 0.091487385
-0.08286058 0.10799923 0.1490571 0.0386575 0.06213796 -0.09936737 0.0912074 -0.026347663
0.066367604 0.00040349257 0.26698965 0.1137788 0.07145971 0.061049797 0.041234463 -0.00130704
00000000: 1384 c83d 6f35 35bd 848b 833e d478 74bd
00000010: 5182 2a3e 0f53 5a3d 2a6c 963e 3895 93bc
00000020: 005d 07bd ba32 dcbc 3935 2ebd a933 51bb
00000030: 90ca 34bc 8b8b 453d 8593 41bd 3f40 7d3d
00000040: dc73 813d 5471 213c 5da8 35bd a7b4 0e3e
00000050: f4a8 5dbd 85f6 bc3c 4179 bebd 485c a8bd
00000060: 601b fa3b ab8e 873d c78a 36bd 40ec 42bc
00000070: 1f8a 90bd 1ea0 133e c59c 863c 48d1 073d
00000080: d2d0 ad3d 8049 bc3d dcac 04bd 389e 80bd
00000090: 3296 7fbd 3e86 643e 5ec3 e9bd 13a7 d33d
000000a0: 072b b7bc 2058 093d c818 fb3c 1a97 aa3c
000000b0: a4dd 883d 1b5b 863c 8e94 183d c6bd 893a
000000c0: 358e 813d f4f4 c53d 7d13 133e 2321 e33d
000000d0: c698 c03d 15cb 1e3e 1ba7 523d b3ab a7bd
000000e0: 87b9 123d c8c3 bbbd aaee c5bc 0c69 e23c
000000f0: 4248 cdbd 4174 c439 84e9 8cbd 0225 223c
00000100: bc54 f0bd 5188 3d3d 4c17 1abe 5a7f 473d
00000110: 0799 6f3c 71a7 763b 3623 203b 32b1 d33d
00000120: 37e8 94bc d931 9dbc a931 993e ccf0 6cbd
00000130: 1a58 983d 1713 123d c232 f83d 136a 9e3b
00000140: 5f21 0bbd eb03 543e fb92 813e b258 083e
00000150: 15eb 893e e6fa 8c3e 92c2 d03d 6b1e 693e
00000160: 12da 743e fe31 103e 6c5e d73c 031e 4cbe
00000170: 1f7d 0bbe bf37 1abe 2bd0 8bbc 0461 82bc
00000180: 0318 d83c cceb 1e3c cb3f cabc 5909 e83d
00000190: 8cb3 633d d7c6 5d3c cc46 7c3d ba2f 83bd
000001a0: 4ebe 753d 7561 1c3e a138 a13d d98d 903d
000001b0: 00a2 af3d 8241 0bbd c7e6 96bd ec17 b9bc
000001c0: 8b26 853d 8807 f3bc b833 afbd bcbe f1bd
000001d0: 7ffc 4cbd 9cac c0bd b819 c43d 2361 35bc
000001e0: 0c3d ae3c 9517 693c 6cf5 173d a44b 133e
000001f0: 0614 e6bc 9a79 f03c 008f 3f3e 71c4 babc
00000200: 1046 90bc 57bd 993d 88a7 8abd c090 38bd
00000210: 0cb6 90bc 0e4f 6dbd b632 7d3d aa40 c4bc
00000220: d3f5 d23c 862d 9dbb 8b5c e4bd 60a4 06be
00000230: f3b7 063d d46c 8f3d 3c3c e9bd 467c 133d
00000240: f456 1d3d 9848 bcbd 02c8 763d aa5c 4bbc
00000250: 2b4c b93d 1cec 9cbd 47d8 a4bd 6f92 8dbd
00000260: d1d7 713c 291f 7c3d 6e05 26bd ae3b 7fbc
00000270: 54cf 54bd edb4 9b3d 74ef 3ebd 3c55 d1bc
00000280: 5fb4 893d 586d 4c3d cbc1 eabc 2ad4 4d3d
00000290: 339d 05bd e4b2 fabd dc6c 5bbd 9889 0cbd
000002a0: 769a e33c 6338 0b3c 9005 383d fe77 263c
000002b0: 2c61 533d eeb1 e53c 350d cb3c 3543 b9ba
000002c0: 1f61 debd eca5 c93d 6921 573e 8c4f d13d
000002d0: 7322 aab9 a620 2c3e cf6c 67bd c153 3a3d
000002e0: f123 1cbe a079 113c 0df9 91bd 6252 c93c
000002f0: 3285 3ebd 98e2 0d3e 12b6 bb3d 58b0 4c3e
00000300: daa9 093d 1ca4 82bd a009 423d 5339 81bd
00000310: d43b 86bc fe3a 113d 7e85 ec3d 6cc3 b5bd
00000320: 3df9 84bc 0811 853d bdc7 433d 9387 1bbd
00000330: 82de 583e 7c94 003e f8c2 053e a746 9a3d
00000340: deab 30bc 4211 21bd de3d db3d aaeb a6bd
00000350: 53d4 3e3d 8b0f 89bd aa11 923d 70c1 433d
00000360: 2da3 b43c e245 523d c5ac f9bd 82dd 1a3e
00000370: 8675 053d a0a3 753d c216 9abc 5473 45bd
00000380: a762 a5bc 3bcb c83d 2fd6 653c b142 253d
00000390: cb9c cfbc fc6c 14be 2405 5dbd 18c6 303d
000003a0: b97c 563d ad14 0abd 3a4d 14be d575 443e
000003b0: af0e 833d 67d9 fa3d 0b99 14be bd5d bb3d
000003c0: cfb2 a9bd b32e dd3d 6da2 183e 5457 1e3d
000003d0: 6084 7e3d 1f81 cbbd f2ca ba3d 0ed7 d7bc
000003e0: bdeb 873d db8b d339 deb2 883e dc04 e93d
000003f0: 7859 923d 5a0f 7a3d 78e5 283d fc50 abba

b1.b1.body.0.bias f4 [36]
-0.11694186 0.057573695 -0.013935376 0.0798021 -0.017383613 0.00018806523 -0.00032466266 0.06284425
0.005668238 -0.21627392 -0.13662042 0.12105165 -0.03616476 -0.075338244 0.091930084 -0.036362953
0.030126706 -0.018025879 0.042980473 0.2060041 -0.0011766594 -0.036798898 0.12479083 0.028279277
-0.025342194 0.059712492 -0.060756754 -0.13731346 -0.040102985 0.047219563 0.09921167 -0.08395954
0.10377494 0.049651995 -0.059446108 -0.13402715
00000000: 377f efbd 65d2 6b3d 3451 64bc 496f a33d
00000010: 1468 8ebc 6033 4539 7c37 aab9 7cb4 803d
00000020: a0bc b93b e976 5dbe 39e6 0bbe ede9 f73d
00000030: 8021 14bd f04a 9abd d745 bc3d 52f1 14bd
00000040: 48cc f63c 02ab 93bc 4b0c 303d bdf2 523e
00000050: 233a 9aba 71ba 16bd 5692 ff3d f1a9 e73c
00000060: 6f9a cfbc 1695 743d 13dc 78bd e69b 0cbe
00000070: 0743 24bd 4d69 413d 7d2f cb3d fbf2 abbd
00000080: f587 d43d e45f 4b3d c37d 73bd 6a3e 09be

b1.b1.body.2.weight f4 [36, 9, 3, 3]
-0.009539485 -0.022793148 -0.12612727 -0.012529826 0.014054404 0.06934647 -0.017261408 -0.007017854
-0.08717316 -0.0738741 0.035573673 0.011533451 -0.004394707 0.14739874 0.07527191 0.104575485
0.1848599 0.12265202 -0.052568488 0.040278684 0.039206136 -0.08393712 -0.09525067 0.15041777
-0.05342834 0.00909306 0.054492086 0.02357474 0.035361826 -0.1948796 -0.049967986 -0.01751785
-0.025689453 -0.070127495 -0.07474689 0.04782453 -0.049508214 0.0031685191 -0.1094041 -0.023326047
-0.054565072 0.06975258 -0.10788195 -0.035536084 -0.038184527 -0.04718422 -0.025801726 -0.063233554
-0.0994604 0.07517142 -0.018669473 -0.17200746 -0.031737283 0.0073260143 0.09167901 0.110781424
0.120560385 -0.013572159 -0.003215519 -0.02854039 0.018267212 -0.05744736 -0.03220165 -0.10253888
0.002802638 -0.059531268 0.1241347 0.040494267 -0.10422352 0.08938717 0.13730878 0.16362284
0.0414917 -0.13104075 0.08372472 -0.040372778 -0.0020844375 -0.01278158 0.07460107 0.124156184
0.047277257 0.10142693 -0.06025457 0.034239348 -0.08595068 -0.07435506 -0.067356326 -0.23097146
-0.030818963 0.38603497 0.008804674 0.077142894 0.19653742 0.03533559 -0.06928978 -0.08280138
0.14924857 -0.08612882 0.03116437 -0.050460216 0.18170027 -0.020254951 -0.05257751 -0.04872615
0.088030875 -0.014382754 0.06244587 -0.09724802 -0.13587134 0.027980331 0.034523793 0.16188233
0.090257384 -0.051524635 0.18237293 0.013747309 0.16204055 -0.036678202 0.018617604 0.059119318
0.05328657 -0.029875532 -0.049370795 0.107223436 0.028750457 -0.07544013 -0.029297914 0.28079253
-0.17079777 -0.10846155 0.152372 -0.026830763 -0.10589665 0.326854 -0.121002644 -0.28380942
0.17419542 -0.10153412 -0.25415352 0.2502371 -0.08302985 -0.052731134 0.0658668 0.027537484
-0.014177593 0.035193555 -0.055049624 -0.035254568 -0.073564135 -0.0932415 0.017660376 -0.12783138
0.08377027 0.02866867 0.1199831 0.0029437407 0.14141756 -0.054528672 0.06522713 0.017528325
-0.045100935 0.037474826 0.05091492 -0.0044574453 -0.036384154 0.042333417 -0.08337635 0.05529509
0.025196755 -0.023651285 -0.16224399 -0.04345137 -0.031859774 -0.010798137 -0.020287178 0.052658666
-0.035960395 0.05222329 0.016137613 -0.010355948 0.06957065 0.14244592 -0.16241702 0.15695429
0.0259558 0.08513721 0.06527045 0.12683168 -0.032899152 0.01526928 0.097506665 -0.049686138
0.027868256 0.05991743 -0.029072376 0.062259287 0.062211975 0.054732773 0.13954072 0.06781253
-0.06602744 0.030105278 -0.034901764 -0.118267745 0.032220732 0.026946595 0.024499064 0.15062144
-0.026591755 -0.0053595053 -0.059517458 -0.12231329 -0.16099082 0.11368779 -0.059549302 0.099501856
-0.07970789 0.080525585 0.022758354 -0.09300577 0.0026010636 -0.06153805 -0.089661404 -0.0222318
-0.027039563 0.04506244 -0.10058226 -0.17539352 0.08798408 -0.06815706 -0.1091309 0.032184117
-0.02567171 -0.07873972 0.115314975 -0.076941006 -0.02872062 -0.15791997 -0.057198066 -0.03887149
0.13829917 0.033115223 -0.031013858 0.1053209 0.060682822 0.107743904 0.1579617 -0.003450023
-0.083906986 0.13126649 -0.052860744 0.06262927 0.09691781 -0.08593609 -0.03229129 0.08633868
00000000: 804b 1cbc b2b8 babc 8227 01be e649 4dbc
00000010: 7144 663c 8605 8e3d cc67 8dbc 07f6 e5bb
00000020: d787 b2bd 4e4b 97bd b3b5 113d cdf6 3c3c
00000030: 7901 90bb b2ef 163e 2928 9a3d ac2b d63d
00000040: ea4b 3d3e fb30 fb3d 0e52 57bd 43fb 243d
00000050: 9d96 203d 3ae7 abbd c912 c3bd 1e07 1a3e
00000060: add7 5abd 0ffb 143c 1833 5f3d d01f c13c
00000070: 90d7 103d 858e 47be 3bab 4cbd 9881 8fbc
00000080: b072 d2bc 019f 8fbd e614 99bd a8e3 433d
00000090: 20c9 4abd eea6 4f3b 420f e0bd 4416 bfbc
000000a0: a07f 5fbd 71da 8e3d 36f1 dcbd 498e 11bd
000000b0: 6167 1cbd 3e44 41bd 245e d3bc 9880 81bd
000000c0: e5b1 cbbd 79f3 993d b9f0 98bc b922 30be
000000d0: f4fe 01bd 100f f03b 34c2 bb3d 5fe1 e23d
000000e0: 5de8 f63d c35d 5ebc 75bb 52bb 89cd e9bc
000000f0: 1fa5 953c ec4d 6bbd e1e5 03bd e8ff d1bd
00000100: 77ac 373b 0fd7 73bd 553a fe3d 51dd 253d
00000110: 2473 d5bd 9f10 b73d ac9a 0c3e bf8c 273e
00000120: 33f3 293d 8c2f 06be de77 ab3d ed5d 25bd
00000130: 0f9b 08bb d569 51bc 72c8 983d 9945 fe3d
00000140: cca5 413d ecb8 cf3d 7fcd 76bd 8f3e 0c3d
00000150: e906 b0bd 7747 98bd 1df2 89bd c883 6cbe
00000160: 0d78 fcbc 60a6 c53e 7b41 103c 18fd 9d3d
00000170: 1b41 493e 0dbc 103d cde7 8dbd c593 a9bd
00000180: 9ed4 183e 4f64 b0bd 6c4c ff3c 5faf 4ebd
00000190: a30f 3a3e b6ed a5bc 845b 57bd 1295 47bd
000001a0: 8849 b43d a5a5 6bbc 3ec7 7f3d f829 c7bd
000001b0: db21 0bbe 0237 e53c d268 0d3d 7bc4 253e
000001c0: ddd8 b83d 7f0b 53bd f8bf 3a3e 653c 613c
000001d0: f5ed 253e e23b 16bd f283 983c 1927 723d
000001e0: 0543 5a3d 88bd f4bc 0839 4abd f697 db3d
000001f0: 1486 eb3c 5b80 9abd 2e02 f0bc 0ac4 8f3e
00000200: 9ce5 2ebe 1721 debd 6807 1c3e 30cc dbbc
00000210: 58e0 d8bd 6859 a73e 3cd0 f7bd 784f 91be
00000220: 4960 323e 1ff1 cfbd 6920 82be 141f 803e
00000230: 8e0b aabd 9afc 57bd 2ce5 863d 4a96 e13c
00000240: 2349 68bc 1e27 103d b77b 61bd 1867 10bd
00000250: cba8 96bd 66f5 bebd 7eac 903c 3be6 02be
00000260: bf8f ab3d 8fda ea3c b3b9 f53d c6eb 403b
00000270: c4cf 103e 7559 5fbd cd95 853d 9097 8f3c
00000280: c2bb 38bd 347f 193d 2a8c 503d c30f 92bb
00000290: 8d07 15bd ce65 2d3d 38c1 aabd 1b7d 623d
000002a0: 6d69 ce3c 57c0 c1bc 4a23 26be 10fa 31bd
000002b0: 657f 02bd abea 30bc 4c31 a6bc 9db0 573d
000002c0: 354b 13bd 17e8 553d 0733 843c feab 29bc
000002d0: 0f7b 8e3d 58dd 113e a650 26be a0b8 203e
000002e0: 42a1 d43c 6b5c ae3d 84ac 853d 2ae0 013e
000002f0: 43c1 06bd 012c 7a3c 93b1 c73d b183 4bbd
00000300: f84b e43c fb6b 753d 3129 eebc 9803 7f3d
00000310: fcd1 7e3d 792f 603d c3e3 0e3e 4ce1 8a3d
00000320: 6539 87bd 589f f63c 27f5 0ebd 5c36 f2bd
00000330: e3f9 033d 1bbf dc3c 43b2 c83c 823c 1a3e
00000340: f4d6 d9bc ca9e afbb 94c8 73bd 647f fabd
00000350: c7da 24be 25d5 e83d f8e9 73bd a1c7 cb3d
00000360: e43d a3bd 99ea a43d ba6f ba3c cf79 bebd
00000370: 9b76 2a3b 530f 7cbd 66a0 b7bd 771f b6bc
00000380: 1382 ddbc 6593 383d 12fe cdbd 5c9a 33be
00000390: ff30 b43d ee95 8bbd 0580 dfbd 7ed3 033d
000003a0: 7a4d d2bc 4a42 a1bd 422a ec3d 3f93 9dbd
000003b0: 8147 ebbc c6b5 21be 8548 6abd b637 1fbd
000003c0: 4c9e 0d3e d4a3 073d c610 febc 7cb2 d73d
000003d0: 8d8e 783d d6a8 dc3d b6c0 213e c819 62bb
000003e0: 6dd7 abbd b96a 063e 8284 58bd c643 803d
000003f0: d87c c63d 43ff afbd df43 04bd 55d2 b03d

b1.b1.body.2.bias f4 [36]
0.08337988 -0.12157222 0.10462276 -0.12438043 0.08489969 -0.15390664 -0.03141934 0.02682277
-0.051151212 0.046806257 -0.017616061 0.00015707695 0.08686316 0.12104841 -0.15246862 -0.013613365
-0.14042886 -0.17076327 0.023711417 -0.0682295 -0.030734314 0.13546795 -0.01771244 0.029689299
0.020374794 0.06882372 -0.039154276 -0.045597736 -0.13134678 0.15581325 0.078715734 0.039414797
0.024094114 -0.02394428 -0.111680344 -0.056995876
00000000: 12c3 aa3d dbfa f8bd 7544 d63d 2bbb febd
00000010: e3df ad3d b499 1dbe 91b1 00bd 6dbb db3c
00000020: ef83 51bd ebb7 3f3d 8f4f 90bc 06b5 2439
00000030: 50e5 b13d 3be8 f73d bc20 1cbe 970a 5fbc
00000040: 95cc 0fbe 91dc 2ebe 723e c23c e8bb 8bbd
00000050: 87c6 fbbc 1cb8 0a3e ae19 91bc f936 f33c
00000060: 0ae9 a63c 73f3 8c3d 3c60 20bd b1c4 3abd
00000070: c57f 06be 828d 1f3e b735 a13d 6971 213d
00000080: 0561 c53c cb26 c4bc aab8 e4bd 8274 69bd

b1.b1.body.4.weight f4 [36, 36, 1, 1]
-0.25410247 -0.010488583 0.14906885 0.11846104 -0.069248155 0.10616735 -0.17056069 -0.04868535
-0.06637449 0.18156981 0.14639385 -0.027040692 0.12272268 0.06463715 0.09872894 -0.17106967
-0.054020792 -0.019246336 -0.09830987 -0.074021325 -0.14785281 0.13061917 -0.08761158 0.11409421
-0.0036773977 -0.122036725 0.20077637 0.1769609 -0.059978742 -0.06661625 0.11753754 -0.020657256
-0.1250647 0.10592092 -0.20026341 -0.1283948 0.112357266 0.029373124 -0.26728734 -0.16063343
-0.3349257 -0.110274516 -0.09727758 -0.15593438 0.1926762 -0.06069035 -0.23662148 -0.029720072
0.124064274 -0.24947238 -0.03237277 0.07676896 0.05613024 -0.13399404 0.006545511 0.08385036
0.14714472 -0.022894481 0.073487416 -0.017932238 0.081081845 0.12728173 0.15326242 0.1706349
-0.06534294 0.07212309 0.056680113 0.05103931 0.07809141 -0.0388172 0.17542931 -0.07932929
-0.037586696 -0.09344576 0.081494704 -0.07656996 -0.063683905 -0.2576937 -0.016862877 -0.11709673
0.10127749 -0.024394223 0.08183419 -0.07591334 -0.026735617 -0.13140517 -0.065281495 -0.08353502
-0.22052819 -0.08348889 0.020661943 0.048036188 -0.06903013 0.18856439 -0.06650364 0.020386381
-0.19925843 -0.07458658 -0.11846841 0.035122234 -0.010374565 0.033276152 -0.254306 -0.12555514
-0.16451892 0.033062156 -0.026616577 0.13032667 -0.10940237 0.29869002 -0.17139925 -0.3004312
0.04912716 -0.1481477 -0.26639163 -0.21566014 0.11987811 0.0041224062 -0.4226127 0.06933646
0.010334742 0.11143198 0.14772497 -0.28051248 -0.08064364 -0.1503454 0.018876534 -0.19470374
-0.021481171 0.17089948 -0.1344068 -0.002229634 0.19487734 -0.04338338 -0.039045356 -0.0344771
0.015752818 -0.1057675 0.013470865 0.18863638 0.085285425 0.007417064 -0.05529014 0.2227969
0.07053915 -0.3193668 -0.12432595 -0.04888556 0.21468338 -0.08466422 0.08894568 -0.08547593
-0.042803727 -0.037137695 -0.14685638 0.04713087 -0.12764485 0.06649174 0.33135685 0.018099915
0.04505789 -0.024793165 -0.0010947344 -0.07619341 -0.03628654 -0.065265834 0.012149306 -0.08565439
0.015111339 -0.08034936 0.0410243 0.12794952 -0.07112045 -0.16718179 0.0015461824 -0.017785326
0.15088393 -0.033038132 0.10454765 -0.07209621 0.16069964 0.046186287 -0.018473115 -0.18591344
0.07287076 -0.06862472 -0.044124138 -0.14818087 0.0026811408 0.10544315 -0.030677829 -0.0024392777
0.15612389 0.18914384 -0.07495591 -0.08208085 -0.02468459 -0.3126455 -0.09889411 -0.0054500573
-0.09285021 0.0824934 -0.03155817 0.06262077 -0.06657574 0.14714736 -0.022186317 -0.082342245
0.007886056 0.11345144 0.11411939 0.07374161 -0.114382215 -0.13386862 -0.13672262 -0.1595589
-0.18669039 -0.026118604 0.10907286 0.11898699 0.09643776 0.023674691 0.08222174 0.010755389
0.17285554 -0.03586816 -0.06276231 -0.17108704 0.17725481 0.18639539 -0.0724826 -0.124012366
-0.08922232 -0.12942873 0.04261224 0.08458173 -0.27812308 -0.11884111 0.18066509 -0.04952164
0.19705789 0.0004065768 -0.23024319 0.2457294 -0.053198505 0.18588758 -0.01464125 -0.014913041
0.060679223 -0.04311369 -0.00030283222 0.0028830534 -0.057125483 0.06251174 0.18333417 -0.024268957
00000000: b819 82be 4ed8 2bbc 81a5 183e b49b f23d
00000010: fad1 8dbd 456e d93d 76a7 2ebe 4a6a 47bd
00000020: 59ef 87bd 70ed 393e 45e8 153e 7184 ddbc
00000030: 0756 fb3d 7b60 843d 6632 ca3d e32c 2fbe
00000040: e844 5dbd 7eaa 9dbc af56 c9bd 7e98 97bd
00000050: ba66 17be 08c1 053e b36d b3bd 3aaa e93d
00000060: 7f00 71bb 64ee f9bd 5298 4d3e 3d35 353e
00000070: 45ac 75bd 1a6e 88bd 86b7 f03d 6839 a9bc
00000080: f610 00be 11ed d83d da11 4dbe ed79 03be
00000090: 911b e63d e89f f03c e3d9 88be 177d 24be
000000a0: 627b abbe 9bd7 e1bd 7839 c7bd 43ad 1fbe
000000b0: e94c 453e 7296 78bd e74c 72be 8277 f3bc
000000c0: 6915 fe3d b075 7fbe 4f99 04bd 0b39 9d3d
000000d0: d3e8 653d bc35 09be ba7b d63b bdb9 ab3d
000000e0: 1bad 163e 358d bbbc 9280 963d a1e6 92bc
000000f0: 3d0e a63d 2456 023e d3f0 1c3e eaba 2e3e
00000100: 85d2 85bd 45b5 933d 6829 683d 980e 513d
00000110: 64ee 9f3d c9fe 1ebd bea3 333e 6577 a2bd
00000120: 82f4 19bd 7e60 bfbd b2e6 a63d b6d0 9cbd
00000130: b56c 82bd 6ef0 83be 0424 8abc 69d0 efbd
00000140: 936a cf3d 65d6 c7bc af98 a73d 7478 9bbd
00000150: a704 dbbc 148f 06be 4eb2 85bd 6914 abbd
00000160: 24d2 61be 39fc aabd 3c43 a93c 98c1 443d
00000170: ab5f 8dbd 0617 413e 0f33 88bd 5701 a73c
00000180: 670a 4cbe d9c0 98bd 919f f2bd 55dc 0f3d
00000190: 14fa 29bc 934c 083d 6534 82be 8791 00be
000001a0: a677 28be 2f6c 073d 020b dabc 5b74 053e
000001b0: 5a0e e0bd e6ed 983e 4983 2fbe 1ed2 99be
000001c0: 9039 493d 08b4 17be 7c64 88be 03d6 5cbe
000001d0: a882 f53d 4015 873b b160 d8be 4600 8e3d
000001e0: 0d53 293c 7336 e43d 3745 173e 559f 8fbe
000001f0: 7e28 a5bd 25f4 19be f6a2 9a3c 6b60 47be
00000200: 48f9 afbc 4600 2f3e f0a1 09be 0d1f 12bb
00000210: ed8d 473e c5b2 31bd 06ee 1fbd dc37 0dbd
00000220: 0e0c 813c a29c d8bd e7b4 5c3c e529 413e
00000230: 20aa ae3d d80a f33b ea77 62bd df24 643e
00000240: d476 903d 0c84 a3be 9b9e febd 3a3c 48bd
00000250: f6d5 5b3e 6f64 adbd 2729 b63d 010e afbd
00000260: f652 2fbd b21d 18bd 8561 16be 4d0c 413d
00000270: 55b5 02be d22c 883d 9ba7 a93e 4646 943c
00000280: 9f8e 383d 091b cbbc 317d 8fba 4a0b 9cbd
00000290: 32a1 14bd 18aa 85bd e20d 473c 926b afbd
000002a0: 8d95 773c 358e a4bd 1909 283d 3305 033e
000002b0: 99a7 91bd b431 2bbe 46a9 ca3a 88b2 91bc
000002c0: 5181 1a3e fe52 07bd 141d d63d 2ea7 93bd
000002d0: 728e 243e d52d 3d3d ee54 97bc 1860 3ebe
000002e0: 443d 953d 1e8b 8cbd 83bb 34bd babc 17be
000002f0: 14b6 2f3b 94f2 d73d 1250 fbbc 4adc 1fbb
00000300: f1de 1f3e ecae 413e 7c82 99bd 011a a8bd
00000310: 5637 cabc 1213 a0be ff88 cabd 6596 b2bb
00000320: 4028 bebd 4df2 a83d 2443 01bd 513f 803d
00000330: dd58 88bd ccad 163e 14c0 b5bc 0da3 a8bd
00000340: 8434 013c 3b59 e83d 6db7 e93d d705 973d
00000350: 3941 eabd db14 09be 0401 0cbe 6963 23be
00000360: c42b 3fbe aff6 d5bc 9761 df3d 73af f33d
00000370: 2981 c53d 6df1 c13c df63 a83d 5f37 303c
00000380: 0b01 313e 7eea 12bd 8789 80bd 7131 2fbe
00000390: 4982 353e 6fde 3e3e c271 94bd 32fa fdbd
000003a0: 31ba b6bd f788 04be 2c8a 2e3d 3039 ad3d
000003b0: 2666 8ebe f862 f3bd 4500 393e 34d7 4abd
000003c0: 8bc9 493e d029 d539 dfc4 6bbe 7da0 7b3e
000003d0: ade6 59bd 5059 3e3e dae1 6fbc d455 74bc
000003e0: c78a 783d fb97 30bd 74c5 9eb9 9cf1 3c3b
000003f0: 69fc 69bd 2806 803d f4bb 3b3e b1cf c6bc

b1.b1.body.4.bias f4 [36]
0.13448453 -0.09548897 -0.0010669876 -0.07784078 0.051110517 -0.009154874 0.12675722 -0.029225655
1.0169665 0.13000734 0.10028215 -0.17720915 -0.11577725 -0.059022944 0.101847745 -0.06719394
-0.049833454 0.08420693 0.3674173 -0.045369625 -0.039623674 -0.048804507 -0.032617997 0.1365787
-0.034242205 0.19407533 -0.11111091 -0.045607947 0.058774758 -0.04312385 -0.050157554 -0.040927306
-0.0068216235 -0.19598584 0.065135606 -0.13011053
00000000: 50b6 093e b98f c3bd 2ada 8bba fd6a 9fbd
00000010: 4359 513d 53fe 15bc a5cc 013e a46a efbc
00000020: f52b 823f a520 053e ba60 cd3d 5176 35be
00000030: 9f1c edbd 0bc2 71bd 8d95 d03d fa9c 89bd
00000040: 2a1e 4cbd af74 ac3d 1f1e bc3e 80d5 39bd
00000050: 6f4c 22bd 3ce7 47bd 739a 05bd 49db 0b3e
00000060: 8e41 0cbd afbb 463e 1e8e e3bd 66cf 3abd
00000070: cdbd 703d a2a2 30bd 0272 4dbd 64a3 27bd
00000080: ed87 dfbb 83b0 48be d165 853d b23b 05be

b1.c1.0.weight f4 [36, 72, 1, 1]
0.03971883 -0.15127839 -0.034885045 0.02856891 -0.00058458606 -0.0060263923 0.12676865 0.051459294
-0.07926209 -0.21024814 0.09677506 0.13428593 0.07594243 0.052848294 0.26281604 0.12545875
0.07256811 0.10276442 -0.12691458 -0.08272785 -0.10216772 -0.18789196 0.18628392 0.11234522
-0.005109033 -0.10903568 0.025572889 0.052998386 -0.14431678 -0.1726222 0.100269936 0.12650064
-0.09846129 -0.069251694 0.115630426 -0.00804352 -0.12718713 0.106937096 -0.026041253 0.10640067
0.074481525 0.076385565 0.002580201 -0.16139084 -0.16841713 0.02668486 -0.07407816 0.04572125
-0.016900426 -0.00201207 0.1691809 0.12134472 -0.016440853 -0.1793686 -0.2500418 -0.24121629
0.0026295246 -0.052146308 0.15638894 -0.087233685 -0.034425437 0.07994345 -0.16206524 -0.08544073
-0.02763888 -0.118049085 -0.055072576 -0.10059124 -0.21929495 -0.24983895 0.020082185 0.0034318604
0.07406584 0.08652192 0.05017671 -0.006905456 0.12093574 -0.019363955 -0.04750856 0.072576836
0.012786515 -0.12838812 0.045100786 0.120405704 0.06692773 -0.18005484 -0.11835929 -0.14023846
-0.09488887 -0.12340111 0.013744716 -0.062440865 -0.06443863 0.1980718 -0.090358645 0.09096522
0.15328434 0.049088906 0.013340253 -0.005585672 0.0059568128 -0.20682669 0.11744487 0.077205256
0.09011677 0.008735739 -0.19433199 0.044528175 0.041614827 -0.14483386 0.025225094 0.23933792
-0.17015061 0.048580173 -0.07099006 0.08251254 0.10150529 0.01985173 0.026589485 -0.20878501
-0.17794627 0.07546624 -0.105636045 -0.25268576 0.10792346 0.09796976 0.10556388 -0.0979149
-0.02231955 -0.1758088 -0.06886069 -0.06555405 -0.16727397 -0.017086532 -0.04116813 -0.02641859
-0.0033352198 -0.18646856 -0.17400317 -0.015070732 0.066746265 0.030635284 0.0012516482 -0.116358854
0.11118359 0.17001432 0.17185879 -0.10324478 0.08503105 -0.07271141 0.0074360175 0.052508816
0.0753601 0.16427281 -0.008164844 -0.05871451 -0.034658674 0.113232635 -0.057051063 -0.023284648
0.065833285 -0.064009726 -0.013521262 -0.03332937 0.016963974 0.017095614 -0.058071896 -0.09619649
0.014399804 -0.07617076 0.18036665 0.01413974 -0.076018 -0.10824657 0.05249857 -0.16004904
-0.10888199 -0.12072112 -0.0370007 0.12223734 0.19493909 -0.09173181 -0.022148129 0.10494784
0.031326264 0.086518325 -0.18568623 0.085321605 0.16953921 -0.09218988 -0.10200339 -0.036438286
-0.23421578 0.13998531 -0.0035438717 -0.18773219 0.08002717 0.045868233 0.023673752 0.16945158
-0.018911552 -0.021178966 0.009978665 0.036033697 0.018652333 0.10069991 0.1560115 0.07941911
-0.10091159 -0.13009486 -0.16394943 0.045626767 0.05658465 -0.037525643 0.11961504 -0.051209383
0.13209797 -0.0595426 -0.046486177 0.017801005 -0.07232997 0.07741131 -0.026605949 -0.10224572
0.014017736 -0.05842026 0.0047336253 0.014097255 -0.08573402 -0.0882502 0.006686441 -0.022282584
0.035892345 0.014985409 -0.002440686 0.03885776 0.088937715 0.026677433 -0.051592954 0.12453034
-0.000534304 -0.18699467 -0.112410285 -0.11956807 0.11046577 -0.05693065 -0.05444714 -0.09832296
-0.007371325 -0.058242895 0.033733726 -0.10507306 0.1638509 0.07185696 0.17461173 -0.07171794
00000000: 36b0 223d b9e8 1abe 9fe3 0ebd 5909 ea3c
00000010: e83e 19ba 0b79 c5bb a4cf 013e fbc6 523d
00000020: 2a54 a2bd 4a4b 57be 0132 c63d 4082 093e
00000030: b487 9b3d 7477 583d d38f 863e 4278 003e
00000040: 979e 943d 2776 d23d e5f5 01be 386d a9bd
00000050: 4f3d d1bd c066 40be 36c1 3e3e 4015 e63d
00000060: ad69 a7bb 194e dfbd 3c7e d13c d614 593d
00000070: c7c7 13be e0c3 30be 535a cd3d 6289 013e
00000080: 13a6 c9bd d5d3 8dbd a5cf ec3d f8c8 03bc
00000090: 583d 02be d601 db3d 7754 d5bc 98e8 d93d
000000a0: c589 983d 0970 9c3d 9718 293b a443 25be
000000b0: 8a75 2cbe 359a da3c 4ab6 97bd 3546 3b3d
000000c0: c372 8abc efdc 03bb c23d 2d3e 9583 f83d
000000d0: f8ae 86bc 67ac 37be 7b05 80be 6701 77be
000000e0: 1a54 2c3b 5e97 55bd 6c24 203e 93a7 b2bd
000000f0: b001 0dbd 64b9 a33d 6ef4 25be 8dfb aebd
00000100: ef6a e2bc b8c3 f1bd c893 61bd c802 cebd
00000110: db8e 60be c8d5 7fbe 6583 a43c 10e9 603b
00000120: d5af 973d 6832 b13d 1886 4d3d 2a47 e2bb
00000130: 28ad f73d 28a1 9ebc 5698 42bd 2aa3 943d
00000140: 887e 513c 2d78 03be 9abb 383d 4497 f63d
00000150: 6811 893d 4c60 38be 5b66 f2bd ac9a 0fbe
00000160: 1955 c2bd b9b9 fcbd 8431 613c fec1 7fbd
00000170: 67f8 83bd 55d3 4a3e f40d b9bd f94b ba3d
00000180: 92f6 1c3e 7311 493d 1491 5a3c 0308 b7bb
00000190: 5e31 c33b 60ca 53be f086 f03d ca1d 9e3d
000001a0: 248f b83d 5820 0f3c f7fe 46be 2d63 363d
000001b0: 4f74 2a3d 544f 14be dba4 ce3c 0015 753e
000001c0: f63b 2ebe 01fc 463d 3d63 91bd 56fc a83d
000001d0: 01e2 cf3d 18a0 a23c 31d2 d93c bdcb 55be
000001e0: 8c37 36be 0b8e 9a3d b657 d8bd 0760 81be
000001f0: fa06 dd3d 5fa4 c83d e031 d83d 9b87 c8bd
00000200: 7dd7 b6bc 3907 34be d506 8dbd 3441 86bd
00000210: de49 2bbe 0ef9 8bbc ea9f 28bd cd6b d8bc
00000220: b493 5abb 9df1 3ebe e32d 32be 3beb 76bc
00000230: 44b2 883d d9f6 fa3c 580e a43a 8d4d eebd
00000240: 39b4 e33d 3c18 2e3e c0fb 2f3e 0072 d3bd
00000250: c224 ae3d b8e9 94bd d6a9 f33b 7c13 573d
00000260: 6556 9a3d 2237 283e d6c5 05bc a07e 70bd
00000270: 41f6 0dbd 83e6 e73d 60ae 69bd 72bf bebc
00000280: 9ad3 863d 8817 83bd 4988 5dbc 6184 08bd
00000290: 08f8 8a3c 1a0c 8c3c ccdc 6dbd aa02 c5bd
000002a0: 28ed 6b3c 6aff 9bbd 09b2 383e 5eaa 673c
000002b0: 53af 9bbd 61b0 ddbd be08 573d e5e3 23be
000002c0: 85fd debd a23c f7bd 0c8e 17bd 9257 fa3d
000002d0: 1d9e 473e e3dd bbbd fe6f b5bc e5ee d63d
000002e0: f84f 003d 8530 b13d 8824 3ebe 18bd ae3d
000002f0: b09b 2d3e 0cce bcbd 27e7 d0bd 5040 15bd
00000300: 43d6 6fbe 4f58 0f3e 4d40 68bb de3c 40be
00000310: 49e5 a33d 54e0 3b3d 75ef c13c b784 2d3e
00000320: 66ec 9abc 837f adbc 8e7d 233c 1298 133d
00000330: c7cc 983c c13b ce3d 7bc1 1f3e 7da6 a23d
00000340: bcaa cebd 9637 05be 5ce2 27be 22e3 3a3d
00000350: 4ec5 673d 7db4 19bd bbf8 f43d eec0 51bd
00000360: b144 073e f1e2 73bd 4a68 3ebd 6ad3 913c
00000370: bc21 94bd d289 9e3d b8f4 d9bc 3466 d1bd
00000380: a5aa 653c 154a 6fbd 871c 9b3b 2cf8 663c
00000390: 5195 afbd 85bc b4bd ef19 db3b f789 b6bc
000003a0: da03 133d 5c85 753c ebf3 1fbb 5129 1f3d
000003b0: fa24 b63d a28a da3c 2253 53bd c309 ff3d
000003c0: 8910 0cba 887b 3fbe 5d37 e6bd 1be0 f4bd
000003d0: e13b e23d 1d30 69bd f703 5fbd 8c5d c9bd
000003e0: 288b f1bb 1a90 6ebd 602c 0a3d 8b30 d7bd
000003f0: 88c8 273e be29 933d 6bcd 323e dbe0 92bd

b1.c1.1.weight f4 [36]
0.8291331 0.9568584 0.85763836 1.004231 1.001833 0.9854952 0.9365417 0.90096223
0.92956954 0.99771047 0.9571704 0.85000896 0.96738434 0.9979826 0.9963393 0.921559
0.9565667 0.92193425 0.9269068 0.8485808 0.9235673 0.96009135 0.9226171 0.8985896
0.92517704 0.8964262 1.0053 0.93344367 0.85402834 0.91984814 0.89735186 0.92825985
0.7878993 0.9528843 0.853848 0.9517695
00000000: 1142 543f acf4 743f 308e 5b3f a48a 803f
00000010: 103c 803f 6a49 7c3f 32c1 6f3f 76a5 663f
00000020: 45f8 6d3f f469 7f3f 1f09 753f 309a 593f
00000030: 80a6 773f ca7b 7f3f 1810 7f3f 4aeb 6b3f
00000040: 8ee1 743f e203 6c3f c449 6d3f 973c 593f
00000050: e86e 6c3f 8cc8 753f a230 6c3f f809 663f
00000060: 67d8 6c3f 307c 653f acad 803f 2af6 6e3f
00000070: 9aa1 5a3f 2b7b 6b3f dab8 653f 70a2 6d3f
00000080: c5b3 493f 3af0 733f c895 5a3f 2aa7 733f

b1.c1.1.bias f4 [36]
0.044000685 0.045643732 -0.17673111 0.02529858 0.017103424 -0.15587436 -0.0094216205 0.039895725
0.25348502 -0.06964186 -0.0117213065 0.23343106 0.21615696 -0.16024649 0.077393554 -0.036543712
-0.023365578 0.1492809 -0.035070848 -0.02887365 -0.004466664 -0.1366373 -0.027190132 -0.029739445
-0.07690406 0.008393226 -0.033414915 -0.09073166 0.04501955 -0.064104155 0.059190474 0.20927167
-0.019370109 -0.06607752 0.043864686 -0.04574159
00000000: 103a 343d ecf4 3a3d 00f9 34be f83e cf3c
00000010: 7b1c 8c3c 879d 1fbe 245d 1abc b369 233d
00000020: cac8 813e 64a0 8ebd b90a 40bc 8d08 6f3e
00000030: 4058 5d3e a817 24be 8380 9e3d dcae 15bd
00000040: 2b69 bfbc 18dd 183e 73a6 0fbd 6f88 ecbc
00000050: 185d 92bb a6ea 0bbe d7bd debc 23a0 f3bc
00000060: e07f 9dbd be83 093c 14de 08bd 85d1 b9bd
00000070: 6b66 383d 0a49 83bd b671 723d 504b 563e
00000080: 10ae 9ebc a753 87bd 75ab 333d 895b 3bbd

b1.c1.1.running_mean f4 [36]
-0.42713642 -0.018492712 0.3116011 -0.30593717 0.28997725 0.28481707 0.008820371 -0.24262156
-0.42560455 -0.03243145 -0.2945827 -0.14796641 -0.013389099 0.49773285 -0.13996732 0.40224627
-0.08236557 0.22717118 0.021126326 -0.008709261 0.018850805 0.13853768 -0.38356194 -0.08322945
-0.052038092 -0.2574628 0.22342673 0.435857 -0.21713914 -0.16779856 -0.28319433 -0.17023583
0.14013188 -0.18607427 0.5448309 -0.43213922
00000000: a0b1 dabe 077e 97bc 2e8a 9f3e cca3 9cbe
00000010: e677 943e 8bd3 913e 5183 103c c971 78be
00000020: d7e8 d9be d7d6 04bd 8bd3 96be 8284 17be
00000030: f45d 5bbc d7d6 fe3e 9853 0fbe 39f3 cd3e
00000040: 48af a8bd 909f 683e 1e11 ad3c 4ab1 0ebc
00000050: 016d 9a3c d2dc 0d3e 3b62 c4be 3474 aabd
00000060: e525 55bd 2ad2 83be fac9 643e a628 df3e
00000070: b959 5ebe 63d3 2bbe d9fe 90be 4d52 2ebe
00000080: bb7e 0f3e 418a 3ebe 0a7a 0b3f 5a41 ddbe

b1.c1.1.running_var f4 [36]
0.0673467 0.020607868 0.081959866 0.021038994 0.03926822 0.07554728 0.026285835 0.023290081
0.013595013 0.04478389 0.029756159 0.0031038593 0.036968075 0.04375695 0.020220023 0.052175425
0.04809749 0.023002373 0.028158925 0.033983584 0.04038463 0.079152144 0.033552982 0.03811613
0.11428902 0.03008556 0.095347494 0.016775312 0.03774932 0.02902032 0.09709928 0.042233855
0.017522706 0.03978898 0.017169334 0.03900143
00000000: 11ed 893d d5d1 a83c 93da a73d f859 ac3c
00000010: b7d7 203d 88b8 9a3d 6455 d73c d7ca be3c
00000020: 9ebd 5e3c 506f 373d 30c3 f33c 1e6a 4b3b
00000030: d66b 173d 7d3a 333d 76a4 a53c e6b5 553d
00000040: e001 453d 796f bc3c 8cad e63c 5f32 0b3d
00000050: 5b6a 253d 851a a23d da6e 093d a91f 1c3d
00000060: 5d10 ea3d fe75 f63c 8c45 c33d 616c 893c
00000070: 089f 1a3d 06bc ed3c fddb c63d 68fd 2c3d
00000080: c78b 8f3c c5f9 223d b4a6 8c3c f7bf 1f3d

b1.c2.0.weight f4 [36, 108, 1, 1]
-0.038987514 0.13794439 0.114658184 0.057539873 -0.06676624 0.03882534 -0.15537004 -0.05558418
0.35977668 0.016019303 0.07973543 -0.1289497 -0.094285876 0.06393497 -0.0059227967 0.013123479
-0.14147323 0.051777866 0.12981522 -0.0004922567 -0.060243547 0.11598541 -0.18790713 -0.09876754
-0.16202456 0.21388187 0.27349472 0.046363972 -0.023993548 -0.14644317 -0.049135927 -0.006863551
-0.0010619444 0.044728935 0.023259949 -0.036331322 -0.020755127 0.20671065 0.21263789 -0.016598295
0.2132257 0.074925005 -0.090343945 -0.05119721 0.027076496 0.1282318 0.01814627 -0.038625613
0.08701422 -0.08368378 0.035992727 0.13986659 -0.04559964 0.0903477 0.08972539 -0.19223839
-0.031180626 0.285758 0.06541534 -0.013335683 0.14399728 0.101739034 0.101499364 0.061776124
0.024206959 -0.02176036 0.16811216 -0.049159802 -0.22169566 -0.2516344 -0.02667221 0.1942986
-0.06816295 0.02743468 -0.05062396 0.030058632 0.104018785 -0.0142802065 -0.035806622 -0.032175656
-0.1691152 -0.029491581 0.049279455 -0.22154579 -0.15991926 0.084211424 -0.024383323 0.044992786
0.07561447 0.033181522 -0.00847939 0.060382366 -0.032916386 -0.09568147 0.06710349 -0.038861968
0.017105035 0.07193543 0.02749664 -0.19305518 -0.12784879 -0.1496494 -0.0395873 0.0022800306
-0.06159794 -0.09899978 -0.08933294 -0.03705927 0.1446067 0.08105113 0.012550114 -0.13519394
-0.07615387 -0.092979714 -0.10771877 0.0942759 0.15855722 -0.0974768 -0.02095483 0.051696472
0.040166806 -0.05700918 -0.05339521 -0.113205165 0.061457977 -0.034818474 0.08798402 -0.03555351
0.01979541 0.13669258 -0.02796513 0.065316446 0.08464455 0.050377764 0.11062289 0.10577653
0.097480245 -0.07619988 -0.07085988 -0.08808584 0.13112469 -0.0021988887 -0.0859556 -0.04007051
-0.045967117 -0.057730086 -0.0028868923 0.12102079 -0.08428369 0.18045321 0.052666564 -0.028682387
0.16651694 -0.072823934 -0.1102877 -0.27308202 -0.13800937 -0.1365111 -0.032396182 -0.16915591
-0.048043232 -0.015398132 0.035899766 -0.23331635 -0.027300207 -0.14241208 -0.076927304 -0.14498232
-0.031115785 0.11505974 0.0529192 -0.0026516293 -0.14203694 -0.1375412 -0.16572945 -0.055396292
-0.09946169 -0.16081385 -0.08747285 0.052198242 -0.029429663 0.11418142 0.19737571 -0.06669824
0.040302448 0.16895477 -0.03723493 -0.20464128 -0.021470187 0.018851213 -0.03752003 0.015346998
0.039175794 0.11558597 0.046901144 0.22385052 -0.017821593 -0.15772323 0.16970436 0.040499564
0.011412044 0.12299769 0.049537312 -0.04580289 -0.0061215223 -0.093249805 -0.0005224479 0.122994766
0.02002743 -0.09129689 -0.0009823262 0.013947812 0.13898547 0.03296312 -0.01734809 0.035452906
0.06985616 -0.075303845 0.09266998 0.036279097 0.049199868 0.04323654 -0.18715338 0.051056072
-0.0425353 0.15599282 -0.04812454 -0.0065281736 -0.070472136 0.13779269 -0.09178211 0.011012713
0.051557653 -0.07757993 0.1161141 0.044941347 -0.016096547 0.051090207 -0.04666483 -0.059501577
0.09558142 0.14810874 0.15235618 -0.032960307 0.088463925 -0.15904012 -0.015629152 0.056237143
-0.03617431 0.050225906 0.06579356 0.086305045 -0.08143429 0.09761624 -0.026554843 -0.10322645
00000000: 5fb1 1fbd 4b41 0d3e e9d1 ea3d eeae 6b3d
00000010: bdbc 88bd 5207 1f3d 5319 1fbe 3dac 63bd
00000020: a634 b83e ea3a 833c 544c a33d 640b 04be
00000030: f418 c1bd 56f0 823d 0514 c2bb dc03 573c
00000040: 5cde 10be 0715 543d 48ee 043e ca0a 01ba
00000050: f0c1 76bd c289 ed3d ba6a 40be a346 cabd
00000060: c4e9 25be d903 5b3e 8007 8c3e 26e8 3d3d
00000070: 1e8e c4bc 33f5 15be c142 49bd a4e7 e0bb
00000080: f130 8bba b035 373d a68b be3c 27d0 14bd
00000090: a806 aabc f5ab 533e bfbd 593e 26f9 87bc
000000a0: d757 5a3e 4872 993d 3f06 b9bd 2ab4 51bd
000000b0: 87cf dd3c 324f 033e 7da7 943c e435 1ebd
000000c0: 8334 b23d 6762 abbd 1c6d 133d 3039 0f3e
000000d0: b0c6 3abd 3708 b93d f2c1 b73d 24da 44be
000000e0: 836e ffbc df4e 923e 7af8 853d e97d 5abc
000000f0: 0674 133e 8e5c d03d e6de cf3d f608 7d3d
00000100: ac4d c63c c842 b2bc 9825 2c3e ca5b 49bd
00000110: 3004 63be 39d6 80be ae7f dabc 36f6 463e
00000120: 0499 8bbd b2be e03c 125b 4fbd 853d f63c
00000130: cd07 d53d 87f7 69bc f7a9 12bd 9fca 03bd
00000140: 892c 2dbe 5498 f1bc 41d9 493d e6dc 62be
00000150: e0c1 23be 0a77 ac3d 89bf c7bc 5b4a 383d
00000160: c2db 9a3d 59e9 073d 24ed 0abc 8053 773d
00000170: 55d3 06bd a6f4 c3bd 8e6d 893d ba2d 1fbd
00000180: dc1f 8c3c e252 933d a240 e13c 42b0 45be
00000190: cbea 02be b13d 19be 4b26 22bd 916c 153b
000001a0: 1f4e 7cbd 66c0 cabd 30f4 b6bd 76cb 17bd
000001b0: c713 143e 23fe a53d fe9e 4d3c 4870 0abe
000001c0: 8ff6 9bbd 266c bebd a99b dcbd b913 c13d
000001d0: d35c 223e eba1 c7bd 77a9 abbc aebf 533d
000001e0: f385 243d 7582 69bd f0b4 5abd 1cd8 e7bd
000001f0: 5cbb 7b3d d19d 0ebd f730 b43d 8fa0 11bd
00000200: fc29 a23c 24f9 0b3e 2117 e5bc a1c4 853d
00000210: 1f5a ad3d ea58 4e3d 418e e23d 5ea1 d83d
00000220: b9a3 c73d af0e 9cbd fc1e 91bd 5966 b4bd
00000230: 8d45 063e 3b1b 10bb 7d09 b0bd fa20 24bd
00000240: 0448 3cbd 6276 6cbd 0432 3dbb bfd9 f73d
00000250: ed9c acbd bac8 383e e5b8 573d 53f7 eabc
00000260: 6b83 2a3e b724 95bd 85de e1bd 68d1 8bbe
00000270: 5452 0dbe 91c9 0bbe dcb1 04bd 3537 2dbe
00000280: fbc8 44bd 7248 7cbc a20b 133d 7bea 6ebe
00000290: afa4 dfbc 79d4 11be 108c 9dbd 3f76 14be
000002a0: 88e6 febc 71a4 eb3d cec1 583d f5c6 2dbb
000002b0: 2272 11be 9ad7 0cbe fbb4 29be 39e7 62bd
000002c0: 92b2 cbbd 63ac 24be f724 b3bd d3cd 553d
000002d0: 7a16 f1bc f3d7 e93d dc1c 4a3e 1699 88bd
000002e0: 2e14 253d 7b02 2d3e a783 18bd 7c8d 51be
000002f0: 3fe2 afbc dc6d 9a3c 9aae 19bd fa71 7b3c
00000300: cc76 203d 56b8 ec3d 6a1b 403d 1239 653e
00000310: 97fe 91bc 3382 21be fbc6 2d3e dfe2 253d
00000320: 95f9 3a3c 37e6 fb3d a3e7 4a3d d09b 3bbd
00000330: 0d97 c8bb c1f9 bebd e3f4 08ba aee4 fb3d
00000340: 9110 a43c ddf9 babd 66c1 80ba 5d85 643c
00000350: 3552 0e3e 5604 073d 951d 8ebc 1137 113d
00000360: bf10 8f3d e738 9abd c2c9 bd3d 6499 143d
00000370: cd85 493d cc18 313d 23a5 3fbe 2c20 513d
00000380: 7f39 2ebd 95bc 1f3e 3d1e 45bd 4aea d5bb
00000390: b253 90bd 8719 0d3e 42f8 bbbd ab6e 343c
000003a0: 1e2e 533d 3ae2 9ebd 3bcd ed3d 6b14 383d
000003b0: e8dc 83bc f743 513d 9f23 3fbd edb7 73bd
000003c0: 31c0 c33d d1a9 173e 4203 1c3e 6301 07bd
000003d0: 932c b53d 6adb 22be b508 80bc eb58 663d
000003e0: 832b 14bd aeb9 4d3d c6be 863d b3c0 b03d
000003f0: 05c7 a6bd 06eb c73d 8b89 d9bc 6468 d3bd

b1.c2.1.weight f4 [36]
0.78384393 1.0604022 0.93841445 1.0350863 0.99884444 0.91097105 0.9907227 0.9693484
0.9334532 0.88842905 0.7216031 0.9461773 0.90524334 0.8984774 0.99885243 1.1517066
1.0981574 1.0663358 0.9752158 0.9243891 0.85052115 0.8518357 0.88554305 0.9421645
0.97903067 0.85668224 1.0185225 0.97217166 0.84294885 0.89085746 0.9498228 1.0425134
0.8322713 0.85936487 0.9005998 0.8808858
00000000: ffa9 483f 42bb 873f ee3b 703f b57d 843f
00000010: 45b4 7f3f 6635 693f 01a0 7d3f 3727 783f
00000020: caf6 6e3f 1670 633f fbba 383f ad38 723f
00000030: 07be 673f 9d02 663f cbb4 7f3f 1f6b 933f
00000040: 6c90 8c3f b17d 883f bea7 793f c4a4 6c3f
00000050: c1bb 593f e811 5a3f f3b2 623f b131 713f
00000060: c1a1 7a3f 874f 5b3f f25e 823f 3ee0 783f
00000070: 7fcb 573f 3c0f 643f 9627 733f 1471 853f
00000080: bb0f 553f 56ff 5b3f b58d 663f bb81 613f

b1.c2.1.bias f4 [36]
0.102554835 -0.09716259 -0.09746556 0.09764459 0.09717829 0.034226786 -0.025618471 0.04361431
-0.18980028 -0.070692256 -0.037502076 -0.28092623 -0.024696443 -0.02702638 -0.047289718 -0.13947271
0.25498313 0.10875312 -0.041156225 -0.029277507 -0.16631688 -0.107571244 -0.14256305 -0.010446892
-0.073311485 0.07055255 -0.18360828 -0.089217275 -0.10748651 -0.047367502 -0.0655938 -0.0353855
-0.03061859 -0.24945842 -0.13272639 -0.100216016
00000000: 4508 d23d 2efd c6bd 069c c7bd e3f9 c73d
00000010: 6905 c73d 6331 0c3d d4dd d1bc eba4 323d
00000020: 015b 42be 1ac7 90bd c79b 19bd 90d5 8fbe
00000030: 3250 cabc 6d66 ddbc ddb2 41bd efd1 0ebe
00000040: 268d 823e f5b9 de3d 6e93 28bd 62d7 efbc
00000050: f94e 2abe 504e dcbd 0cfc 11be 7129 2bbc
00000060: 5524 96bd db7d 903d cf03 3cbe 8cb7 b6bd
00000070: e321 dcbd 6d04 42bd 0b56 86bd 63f0 10bd
00000080: d6d3 fabc 0772 7fbe 6de9 07be 0e3e cdbd

b1.c2.1.running_mean f4 [36]
-0.18649131 0.08910231 -0.21481465 0.4361034 -0.44531405 0.61509085 0.029339312 -0.14282711
0.14350763 -0.4846488 -0.16201234 -0.3565508 -0.039516557 0.078707695 -0.47365293 -0.14774401
0.34243667 -0.46754995 -0.25888878 0.054764207 -0.44340152 0.086189404 0.056939226 -0.06673714
-0.029275348 0.40828902 -0.27275062 -0.12923338 -0.4355458 0.51311374 -0.044876456 -0.05296939
0.2594082 -0.5031219 -0.3293015 0.08501059
00000000: 94f7 3ebe 467b b63d 5ff8 5bbe f248 df3e
00000010: 3400 e4be 9876 1d3f ff58 f03c 4541 12be
00000020: aaf3 123e e323 f8be 90e6 25be d48d b6be
00000030: 1ddc 21bd 8031 a13d a382 f2be 354a 17be
00000040: dc53 af3e b562 efbe 128d 84be 6f50 603d
00000050: 8605 e3be 1284 b03d 1b39 693d 7bad 88bd
00000060: dbd2 efbc 420b d13e f8a5 8bbe c155 04be
00000070: dcff debe 6c5b 033f 60d0 37bd 6ef6 58bd
00000080: 27d1 843e 99cc 00bf 359a a8be 081a ae3d

b1.c2.1.running_var f4 [36]
0.12984614 0.081629165 0.1080091 0.18969493 0.14321299 0.09186817 0.116291896 0.21017146
0.16847706 0.27093384 0.11970459 0.091288686 0.14499006 0.13018833 0.16625534 0.106496036
0.10782948 0.1138924 0.59659564 0.10872216 0.074788526 0.0958286 0.24576554 0.24075414
0.17975532 0.08772203 0.074794084 0.11392573 0.13235381 0.20118363 0.101375185 0.10871647
0.09754731 0.1558704 0.0855843 0.07863088
00000000: 63f6 043e 312d a73d e033 dd3d 633f 423e
00000010: 6da6 123e 6125 bc3d 722a ee3d 3037 573e
00000020: 4085 2c3e d7b7 8a3e ae27 f53d 90f5 ba3d
00000030: 4678 143e 1750 053e d73e 2a3e 981a da3d
00000040: b4d5 dc3d 6b40 e93d 7eba 183f b9a9 de3d
00000050: ba2a 993d c941 c43d f6a9 7b3e 4188 763e
00000060: c711 383e 9ca7 b33d a42d 993d e551 e93d
00000070: c287 073e 1503 4e3e cb9d cf3d bea6 de3d
00000080: e2c6 c73d 7d9c 1f3e d246 af3d 3a09 a13d
