benchmark/classsr/experiments/pre_trained_models/ClassSR_FSRCNN.pth (torch_old, 464963 bytes, 60 tensors)

classifier.lastOut.weight f4 [3, 32]
0.024675943 -0.44818285 -0.9363397 1.2271216 0.072139554 -0.5881142 -0.61480385 0.5571341
0.39097875 -1.2599077 0.51224154 -0.14731577 0.48051453 -0.2271653 0.69653153 0.56459814
-0.14803 0.31645992 -0.14210336 0.13578911 -0.37986106 -0.261798 -2.2192202 -0.9489459
-0.018135339 -0.28538442 -0.016366482 -0.9659079 -0.5775241 0.73442876 0.4962602 0.17132977
1.0489261 -0.10824551 0.5937431 -0.9569584 1.0768741 -0.20634308 0.90677047 0.22013219
0.43951225 0.8324413 0.14214966 -1.3754392 0.20047495 -0.45528555 0.22402054 0.27262688
-1.1836284 0.2638164 -1.2956846 1.3905668 -0.40356517 0.97478455 0.82891613 0.28096467
0.8082908 0.9841588 1.2279335 0.6839389 -0.31545177 -1.1417702 0.16658092 -0.98102015
0.087626375 0.5975368 0.32375628 -0.21967141 -0.2201314 0.680938 0.32800716 -0.46748418
-0.41591993 0.19150166 -0.6198984 -0.08256754 -0.59367514 0.24865231 -0.6661966 -0.49937442
-0.15962316 -0.3402826 0.22351456 0.0016952261 0.47007522 -0.0010194987 0.06788474 0.5014912
-0.72930914 -0.004824795 -0.071252234 0.42365226 0.5153547 -0.1511305 -0.46894473 -0.019272843
00000000: 3425 ca3c 3978 e5be f5b3 6fbf 5212 9d3f
00000010: e7bd 933d a78e 16bf c963 1dbf 57a0 0e3f
00000020: 5e2e c83e a844 a1bf 4322 033f f2d9 16be
00000030: 0006 f63e 059e 68be e44f 323f 8189 103f
00000040: 2d95 17be 0907 a23e 8b83 11be 4d0c 0b3e
00000050: 267d c2be 630a 86be b407 0ec0 1eee 72bf
00000060: 9090 94bc e81d 92be 0013 86bc bd45 77bf
00000070: 9fd8 13bf 8603 3c3f d115 fe3e 1271 2f3e
00000080: 3643 863f d2af ddbd 8cff 173f 3afb 74bf
00000090: 03d7 893f 9a4b 53be 1c22 683f 556a 613e
000000a0: c007 e13e df1a 553f ae8f 113e 640e b0bf
000000b0: 4e49 4d3e 301b e9be a465 653e c095 8b3e
000000c0: 2381 97bf f112 873e fed8 a5bf 18fe b13f
000000d0: 18a0 cebe 7b8b 793f d933 543f 9ada 8f3e
000000e0: 25ec 4e3f d5f1 7b3f ed2c 9d3f 9f16 2f3f
000000f0: e582 a1be 8725 92bf 3094 2a3e 2324 7bbf
00000100: 7575 b33d 2cf8 183f 62c3 a53e 8bf1 60be
00000110: 206a 61be f451 2e3f 8ef0 a73e 165a efbe
00000120: 75f3 d4be 0319 443e a9b1 1ebf 2c19 a9bd
00000130: 18fb 17bf b69e 7e3e dc8b 2abf 01ae ffbe
00000140: 4174 23be 8539 aebe 00e1 643e 5932 de3a
00000150: b3ad f03e b3a0 85ba 2807 8b3d ba61 003f
00000160: 01b4 3abf 5019 9ebb b1ec 91bd f3e8 d83e
00000170: 49ee 033f f4c1 1abe 8619 f0be 15e2 9dbc

classifier.lastOut.bias f4 [3]
0.013347349 0.16901657 -0.43347275
00000000: d7ae 5a3c ae12 2d3e 24f0 ddbe

classifier.CondNet.0.weight f4 [128, 3, 4, 4]
0.012101558 0.0014976969 0.025317118 -0.0118606975 -0.034589864 0.021701535 -0.009233049 -0.04296868
0.03496401 0.15323628 0.091932066 -0.015524636 -0.09295557 -0.030713152 -0.060980774 -0.12698059
-0.034924544 -0.05368433 -0.04392547 -0.07043354 -0.05018131 0.0019055533 0.0019227521 -0.048833802
-0.0082389 0.107368015 0.10511367 0.013672751 -0.17828357 -0.07093044 -0.10608856 -0.13718992
0.029072076 0.045906138 0.062091354 0.054856446 -0.013610388 0.0288968 0.06335409 0.024748819
-0.002370528 0.18682408 0.18909958 0.027793469 -0.09931638 -0.034950815 -0.029367521 -0.085369214
-0.085162126 -0.03484292 -0.033226494 -0.10088494 -0.024272721 0.09526542 0.05893697 -0.08973378
0.059909597 0.22999702 0.18827805 0.028527632 -0.105189964 -0.0034860545 0.029870432 -0.057351213
-0.120723546 -0.07307625 -0.1001823 -0.11875186 -0.07225039 0.008766431 -0.05430299 -0.18591587
0.016481483 0.25635248 0.16265567 -0.056584075 -0.15927565 -0.024163788 -0.02683011 -0.16227134
-0.012722098 0.047208957 0.05292911 -0.010051711 -0.009612381 0.08923703 0.06072115 -0.039041933
0.06451699 0.26473826 0.18797101 0.010920981 -0.12190881 0.03553236 0.02747353 -0.10240453
0.09911917 0.07277098 0.029820494 0.07818374 0.0018373604 -0.0855804 -0.02933458 0.10753901
-0.13472597 -0.39672562 -0.2860206 0.023966357 0.09172794 -0.0779331 -0.03432603 0.17764887
0.20016432 0.10626027 0.11673355 0.13468333 0.09386267 -0.009554913 0.022608483 0.18955703
-0.042425692 -0.31111622 -0.19926904 0.1467361 0.15262459 0.008171958 0.029025184 0.25125462
0.03221317 -0.019674173 0.01890796 0.0032863815 0.058379818 -0.038436636 -0.040121656 0.08216931
-0.08504076 -0.3564543 -0.23025797 -0.00219308 0.12902729 -0.04030942 0.0033548274 0.08244538
0.07662211 -0.01984641 0.036086313 0.02738728 0.12090031 -0.031964675 -0.017417964 0.03209556
0.073009804 -0.14503641 -0.12984842 0.02534763 0.15649073 0.042770006 0.028567947 0.0720465
-0.04975238 -0.08004919 -0.007539305 -0.048863668 -0.0044875154 -0.06720608 -0.06439493 0.046012618
-0.013635592 -0.22391166 -0.17377485 0.0101760235 0.1207507 -0.037422873 -0.036337227 0.04221229
-0.046323426 -0.0057468754 0.015910309 0.015509814 0.065216005 -0.009755651 0.010115984 0.07995668
0.03603574 -0.13987243 -0.08769537 0.08470844 0.096206926 0.019496622 0.017671159 0.08157756
-0.088107444 -0.043338165 -0.0856689 -0.10265 -0.0880147 0.07568825 0.04623819 -0.15300848
0.040989626 0.34649682 0.26048815 -0.07144472 -0.1893736 0.03993915 0.018344624 -0.17585933
-0.102008455 -0.01851591 -0.041794065 -0.06387519 -0.007902374 0.11624122 0.04286012 -0.11758433
0.0839713 0.42054644 0.2967959 0.027282475 -0.13204049 0.10022983 0.031097947 -0.15483548
-0.09450004 -0.018024804 -0.032762755 -0.09043916 -0.107384875 0.09794099 0.013920028 -0.12237438
0.00086221553 0.30304393 0.21392079 -0.09720568 -0.21856378 -0.025854347 -0.0250162 -0.1824221
-0.15404049 -0.03128036 -0.052125134 -0.05060618 -0.069699645 0.07068177 0.035709064 -0.08822561
0.030532492 0.40897048 0.27410418 -0.044380877 -0.18239005 0.05386763 0.0056730513 -0.18608461
00000000: 9d45 463c 5e4e c43a d865 cf3c 5f53 42bc
00000010: 1aae 0dbd 6bc7 b13c 3746 17bc edff 2fbd
00000020: 6c36 0f3d f9e9 1c3e e146 bc3d 0b5b 7ebc
00000030: 7d5f bebd 269a fbbc fac6 79bd 3307 02be
00000040: 0a0d 0fbd 1ae4 5bbd 32eb 33bd 763f 90bd
00000050: eb8a 4dbd c2c3 f93a db04 fc3a f405 48bd
00000060: 74fc 06bc c3e3 db3d d645 d73d ad03 603c
00000070: f88f 36be fb43 91bd f544 d9bd 847b 0cbe
00000080: 9028 ee3c 1308 3c3d 8153 7e3d 27b1 603d
00000090: 1bfe 5ebc fbb8 ec3c cabf 813d 09be ca3c
000000a0: dc5a 1bbb d04e 3f3e 52a3 413e 21af e33c
000000b0: 6366 cbbd 9628 0fbd 2894 f0bc 0ed6 aebd
000000c0: 7b69 aebd 73b7 0ebd 8118 08bd c39c cebd
000000d0: 96d7 c6bc 841a c33d e467 713d 58c6 b7bd
000000e0: c463 753d 5784 6b3e f6cb 403e c8b2 e93c
000000f0: d66d d7bd 4a76 64bb d6b2 f43c 1be9 6abd
00000100: e83d f7bd 00a9 95bd 612c cdbd 2d34 f3bd
00000110: 03f8 93bd 14a1 0f3c d06c 5ebd bb60 3ebe
00000120: 2d04 873c a240 833e 358f 263e b4c4 67bd
00000130: 2819 23be 23f3 c5bc d2ca dbbc 752a 26be
00000140: 5970 50bc 2e5e 413d 32cc 583d efaf 24bc
00000150: 407d 1dbc e7c1 b63d beb6 783d 6fea 1fbd
00000160: 7c21 843d c68b 873e 797b 403e eaed 323c
00000170: 54ab f9bd 618a 113d 2b10 e13c 77b9 d1bd
00000180: fefe ca3d f408 953d 1c4a f43c cc1e a03d
00000190: 96d3 f03a c744 afbd 134f f0bc 6a3d dc3d
000001a0: 9bf5 09be 9f1f cbbe 4b71 92be 1855 c43c
000001b0: dcdb bb3d 649b 9fbd 7499 0cbd 96e9 353e
000001c0: e0f7 4c3e fc9e d93d 0012 ef3d 6dea 093e
000001d0: 123b c03d 368c 1cbc 6d35 b93c 3d1b 423e
000001e0: 90c6 2dbd a04a 9fbe 2f0d 4cbe fd41 163e
000001f0: 9f49 1c3e ade3 053c 39c6 ed3c 72a4 803e
00000200: f5f1 033d bb2b a1bc dee4 9a3c 5560 573b
00000210: ad1f 6f3d bc6f 1dbd 9b56 24bd 6248 a83d
00000220: da29 aebd 2e81 b6be bfc8 6bbe c7b9 0fbb
00000230: bb1f 043e 7e1b 25bd aadc 5b3b 20d9 a83d
00000240: 0eec 9c3d f094 a2bc 3ecf 133d 4a5b e03c
00000250: 959a f73d 64ed 02bd 1eb0 8ebc a276 033d
00000260: 2a86 953d 6d84 14be fcf6 04be d5a5 cf3c
00000270: 1b3f 203e 9a2f 2f3d 5407 ea3c 1e8d 933d
00000280: 27c9 4bbd d4f0 a3bd 460c f7bb 4525 48bd
00000290: 020c 93bb 57a3 89bd 7de1 83bd ba77 3c3d
000002a0: d167 5fbc 1949 65be 09f2 31be 56b9 263c
000002b0: 254c f73d ba48 19bd 58d6 14bd cbe6 2c3d
000002c0: a2bd 3dbd 4950 bcbb 5656 823c e01c 7e3c
000002d0: f88f 853d 2ad6 1fbc 83bd 253c 54c0 a33d
000002e0: 369a 133d b83a 0fbe a199 b3bd 9e7b ad3d
000002f0: 2308 c53d 61b7 9f3c 1bc3 903c 2312 a73d
00000300: ad71 b4bd 5c83 31bd 2d73 afbd 2a3a d2bd
00000310: 0d41 b4bd 7102 9b3d 4264 3d3d 41ae 1cbe
00000320: bde4 273d 0868 b13e b45e 853e 9c51 92bd
00000330: 27eb 41be 3c97 233d 7747 963c 7814 34be
00000340: cfe9 d0bd adae 97bc 4130 2bbd ffd0 82bd
00000350: f578 01bc e00f ee3d 188e 2f3d 0ed0 f0bd
00000360: 25f9 ab3d dd51 d73e a2f5 973e 7f7f df3c
00000370: 9f35 07be 4c45 cd3d 1fc1 fe3c 318d 1ebe
00000380: 3d89 c1bd c1a8 93bc 3d32 06bd 2b38 b9bd
00000390: 9aec dbbd 4995 c83d d410 643c 6b9f fabd
000003a0: 4e06 623a 9328 9b3e 0d0e 5b3e c613 c7bd
000003b0: 2fcf 5fbe 7fcc d3bc c6ee ccbc dccc 3abe
000003c0: cabc 1dbe d61f 00bd 2a81 55bd 6d48 4fbd
000003d0: b0be 8ebd 9bc1 903d ab43 123d a1af b4bd
000003e0: 471f fa3c 9464 d13e 6257 8c3e b9c8 35bd
000003f0: 75c4 3abe 4ea4 5c3d 01e5 b93b f78c 3ebe

classifier.CondNet.0.bias f4 [128]
-0.022002894 -0.026919017 -0.032280162 0.0064784745 0.03127666 0.09134212 0.104402415 -0.05725911
0.0100129265 -0.05154335 -0.0045544556 0.059302803 -0.025463024 -0.14855103 -0.014824053 -0.00010152656
-0.08957815 0.0028152114 -0.113587484 0.07163729 0.04197716 0.05905382 0.007653376 -0.022400882
-0.118319385 0.02283109 -0.040354706 0.057342708 0.055920642 0.055150572 -0.17885609 -0.029032726
-0.0011499214 0.04628296 0.02387433 0.05006309 0.09682018 0.02971669 0.028126523 0.028562402
0.04336915 0.019565545 -0.054713696 -0.12944935 -0.10880844 0.08135728 -0.038831186 0.103327274
0.0026357553 0.02267556 -0.011242566 0.044205323 -0.06751856 -0.17121337 -0.054328777 -0.116149835
0.12723063 0.0026554842 0.017391853 0.024561958 0.012141212 0.10021708 0.015220701 0.019414594
0.08177609 0.0021775546 0.0060986956 0.038417228 0.021645155 0.03870736 0.04401281 0.01628416
0.07218979 0.027443819 0.025495961 -0.12062255 -0.018784529 -0.046287566 0.03998023 0.02096243
0.11440181 -0.011883793 0.094740555 0.07627639 0.05491701 -0.04257626 0.082463115 -0.027495481
0.026591469 -0.08749461 -0.063697785 0.016359977 0.011479961 -0.1420302 0.05803932 0.025217928
0.114734024 -0.03055613 0.1030133 -0.34297913 -0.08721147 0.010116467 -0.080150716 -0.015701579
-0.03599544 -0.060275383 -0.097281076 -0.0002603212 0.06574346 -0.094334155 0.062232982 0.033625707
0.11901347 -0.0029145605 0.030052448 0.027811427 -0.06353372 0.018617958 -0.017227203 -0.18747053
0.009657415 0.030289859 -0.040418133 0.066772394 0.019354396 -0.07419927 -0.03519698 -0.028797746
00000000: 6a3f b4bc 4585 dcbc 3438 04bd 6249 d43b
00000010: f41b 003d 9411 bb3d efd0 d53d 8788 6abd
00000020: 420d 243c 1f1f 53bd 8b3d 95bb 7fe7 723d
00000030: d597 d0bc c31d 18be 96e0 72bc a8ea d4b8
00000040: c074 b7bd 697f 383b 8ea0 e8bd 92b6 923d
00000050: 3ef0 2b3d 6be2 713d 2cc9 fa3b 0e82 b7bc
00000060: 6f51 f2bd 4408 bb3c fa4a 25bd 30e0 6a3d
00000070: 0b0d 653d 91e5 613d 0d26 37be 0ad6 edbc
00000080: f6b8 96ba 3393 3d3d 1994 c33c f40e 4d3d
00000090: a949 c63d 6a70 f33c 9869 e63c b3fb e93c
000000a0: daa3 313d ec47 a03c 781b 60bd 5f8e 04be
000000b0: f6d6 debd a59e a63d 730d 1fbd 409d d33d
000000c0: a3bc 2c3b 19c2 b93c bd32 38bc a410 353d
000000d0: 2c47 8abd 8f52 2fbe da87 5ebd f7df edbd
000000e0: bf48 023e a207 2e3b 5c79 8e3c 2936 c93c
000000f0: efeb 463c 9d3e cd3d 3f60 793c 5b0b 9f3c
00000100: 397a a73d 4eb5 0e3b 91d7 c73b 625b 1d3d
00000110: 2e51 b13c 9c8b 1e3d c746 343d 5c66 853c
00000120: 3ed8 933d dcd1 e03c e8dc d03c f508 f7bd
00000130: 03e2 99bc 0898 3dbd 4fc2 233d 67b9 ab3c
00000140: 7f4b ea3d 3eb4 42bc 5607 c23d cc36 9c3d
00000150: a9f0 603d 7264 2ebd 6ce2 a83d 343e e1bc
00000160: 5ad6 d93c 6030 b3bd fc73 82bd 5c05 863c
00000170: 7216 3c3c 5d70 11be a3ba 6d3d d495 ce3c
00000180: acf9 ea3d d950 fabc a3f8 d23d f69a afbe
00000190: ed9b b2bd 8abf 253c 0f26 a4bd 99a0 80bc
000001a0: f46f 13bd 52e3 76bd 4d3b c7bd b87b 88b9
000001b0: 82a4 863d 4432 c1bd 03e8 7e3d 1cbb 093d
000001c0: 56bd f33d 3602 3fbb 8d30 f63c cad4 e33c
000001d0: f81d 82bd b084 983c 1020 8dbc 46f8 3fbe
000001e0: 223a 1e3c 7022 f83c 7c8d 25bd f7bf 883d
000001f0: 1c8d 9e3c c9f5 97bd b52a 10bd 40e9 ebbc

classifier.CondNet.2.weight f4 [128, 128, 1, 1]
-0.05651524 -0.19309902 0.20523842 0.13632724 -0.3382222 -0.27093825 0.109561086 0.13625395
0.12060786 0.19737855 0.16943479 -0.3786077 0.182999 0.21566498 0.114717916 0.12115865
0.20209873 0.105400376 0.095382124 0.03810249 -0.39614242 -0.27527374 0.04679121 -0.02865203
-0.032360654 0.06560946 0.17835467 0.11188842 0.13706546 0.13417608 0.099460855 0.17774723
-0.16701744 -0.33275184 -0.2931755 0.034068406 0.20216376 0.037183758 -0.34020412 0.0673799
0.112189956 0.08289552 0.16744891 0.124682814 0.24512073 -0.3930597 0.14158832 -0.29713985
0.03484031 -0.17819932 0.091729864 -0.079218134 0.11765051 0.18354444 0.042649098 -0.022962878
-0.32529446 0.026333736 0.08545016 -0.1448043 0.057677973 -0.22050741 0.07848997 -0.1929298
0.18067023 0.05913144 -0.33599216 -0.12878397 -0.045407027 -0.24547687 -0.0052480227 -0.251788
0.040142145 0.048707344 0.06602359 0.17642042 -0.27002645 0.16735743 0.08920395 0.11645966
0.15950161 0.086212836 0.15115196 -0.3425663 -0.4063032 0.26494443 -0.2549406 -0.12993668
-0.42470607 -0.004723513 0.23132947 -0.30847174 0.101098515 0.13790539 -0.33508462 0.025039503
0.15910418 -0.27998945 0.21000837 0.2391264 0.19476362 0.10066519 0.2797612 0.09580099
0.08506757 0.06285466 -0.09534143 0.15948336 -0.2838602 -0.0810059 0.074226916 0.05097011
0.1971106 0.07173886 0.045666136 0.08367645 0.11131951 -0.066921376 0.077151716 0.35771915
0.18261126 0.04333048 0.1408079 0.09337232 0.06917699 0.16489924 -0.09505509 -0.07140423
-0.14236575 -0.15351906 -0.011119299 -0.16487527 -0.07914376 0.044090394 -0.019588701 -0.018915685
0.02743711 -0.031298514 -0.05444734 -0.03175352 -0.11130187 -0.12988903 -0.12888199 -0.17653693
-0.10561715 -0.10355027 -0.51641655 0.15568815 -0.050232057 -0.029625537 0.0834329 0.19531187
0.038850907 -0.06766922 -0.069769315 0.0707373 0.017729076 -0.024915831 -0.5289583 0.015637603
-0.12846379 -0.038761597 -0.14806564 0.08217925 -0.049515165 0.064285256 -0.12292252 0.053146202
0.017759489 0.052998457 -0.10276719 -0.14637451 -0.16772676 0.02443592 -0.5217788 0.03206535
0.102954715 -0.0058463276 -0.07794346 -0.3465379 0.0042423815 -0.1260833 -0.6614608 -0.7733861
0.023013027 0.0856435 -0.09147837 -0.10693754 0.0752623 0.011999933 0.10307898 -0.18298602
-0.0049402337 0.03858583 -0.10066511 0.035781704 -0.015098232 -0.017730588 0.05500631 -0.12961526
0.19864334 0.050685428 0.020099916 -0.123460636 -0.5320603 -0.020986294 0.03594702 -0.076884024
-0.016994424 -0.062414985 -0.057792384 -0.020454157 -0.0080296 -0.15845646 -0.12206152 -0.042693328
-0.07417491 -0.4247728 -0.09778734 -0.13804503 -0.12336783 -0.12066946 -0.0071968706 0.09373521
-0.019491844 -0.83022535 -0.107287124 -0.1855474 -0.06548693 0.08923304 -0.095737636 -0.13513038
-0.1077839 -0.064927414 0.010420855 -0.07225704 -0.0202042 -0.6494149 0.12599361 -0.091374256
-0.08981736 -0.08466059 0.08055452 -0.024687974 -0.023047455 0.05539761 -0.121745154 -0.18125425
-0.11930748 0.04828916 -0.17432974 0.03564379 -0.01280467 -0.006025818 0.10030526 -0.046977505
00000000: 867c 67bd c0bb 45be 052a 523e 5e99 0b3e
00000010: 762b adbe 6bb8 8abe 9061 e03d 2886 0b3e
00000020: 4101 f73d 9a1d 4a3e 5080 2d3e ded8 c1be
00000030: 1764 3b3e 48d7 5c3e 3af1 ea3d 0722 f83d
00000040: f8f2 4e3e 27dc d73d b457 c33d 5b11 1c3d
00000050: 2ed3 cabe aef0 8cbe 24a8 3f3d a9b7 eabc
00000060: 9b8c 04bd 415e 863d 9ba2 363e c225 e53d
00000070: e35a 0c3e 7465 093e 22b2 cb3d 5f03 363e
00000080: 9f06 2bbe 735e aabe 191b 96be 508b 0b3d
00000090: 0404 4f3e ff4d 183d 3c2f aebe 79fe 893d
000000a0: d9c3 e53d 20c5 a93d ba77 2b3e b459 ff3d
000000b0: ee00 7b3e 1f3f c9be 87fc 103e b722 98be
000000c0: b7b4 0e3d e279 36be dedc bb3d 1e3d a2bd
000000d0: c0f2 f03d 13f3 3b3e d2b0 2e3d a51c bcbc
000000e0: ff8c a6be d9b9 d73c 7e00 af3d 9447 14be
000000f0: bd3f 6c3d b2cc 61be 59bf a03d 648f 45be
00000100: 9e01 393e cf33 723d 2a07 acbe f2df 03be
00000110: b8fc 39bd 4a5e 7bbe 9bf7 abbb 5bea 80be
00000120: 176c 243d 5a81 473d 6037 873d 8ea7 343e
00000130: e840 8abe bf5f 2b3e 8fb0 b63d 6782 ee3d
00000140: 6454 233e 5b90 b03d 94c7 1a3e da64 afbe
00000150: f906 d0be cca6 873e 9387 82be 1f0e 05be
00000160: 1373 d9be b3c7 9abb a2e1 6c3e 02f0 9dbe
00000170: bd0c cf3d 1237 0d3e 3690 abbe a51f cd3c
00000180: 35ec 223e c75a 8fbe 6f0c 573e 8ddd 743e
00000190: 1d70 473e 8d29 ce3d dc3c 8f3e 4f33 c43d
000001a0: e837 ae3d f2b9 803d 5e42 c3bd 9b4f 233e
000001b0: 2056 91be 6ce6 a5bd 4804 983d 09c6 503d
000001c0: 5cd7 493e d3eb 923d 6a0c 3b3d 8f5e ab3d
000001d0: 7cfb e33d 130e 89bd b801 9e3d f726 b73e
000001e0: 72fe 3a3e 4d7b 313d f22f 103e fd39 bf3d
000001f0: aaac 8d3d 59db 283e 3eac c2bd 623c 92bd
00000200: 54c8 11be 1a34 1dbe b82d 36bc 10d5 28be
00000210: 2016 a2bd 2198 343d 7c78 a0bc 11f5 9abc
00000220: cac3 e03c df32 00bd 2d04 5fbd fb0f 02bd
00000230: 3cf2 e3bd a101 05be a4f9 03be 19c6 34be
00000240: ce4d d8bd 2a12 d4bd e033 04bf b76c 1f3e
00000250: 21c0 4dbd 41b1 f2bc dede aa3d d6ff 473e
00000260: 2122 1f3d 2996 8abd 37e3 8ebd b8de 903d
00000270: 913c 913c 491c ccbc d069 07bf 6e1a 803c
00000280: 038c 03be 7bc4 1ebd 859e 17be 984d a83d
00000290: 6ad0 4abd fda7 833d cdbe fbbd d5af 593d
000002a0: 597c 913c e914 593d 9b77 d2bd 33e3 15be
000002b0: 90c0 2bbe d72d c83c 4c93 05bf f556 033d
000002c0: ecd9 d23d 8d92 bfbb d2a0 9fbd 6a6d b1be
000002d0: ad03 8b3b fb1b 01be 7f55 29bf a2fc 45bf
000002e0: d185 bc3c dc65 af3d 0359 bbbd 1202 dbbd
000002f0: 1f23 9a3d 5e9b 443c 131b d33d b060 3bbe
00000300: afe1 a1bb 2d0c 1e3d 8229 cebd d68f 123d
00000310: 935e 77bc bd3f 91bc 4c4e 613d ddb9 04be
00000320: 2969 4b3e 869b 4f3d 94a8 a43c eed8 fcbd
00000330: 1b35 08bf 73eb abbc 2f3d 133d 5f75 9dbd
00000340: e437 8bbc dba6 7fbd b5b7 6cbd 7a8f a7bc
00000350: 958e 03bc 6942 22be 64fb f9bd 33df 2ebd
00000360: 04e9 97bd d27b d9be bb44 c8bd ad5b 0dbe
00000370: 46a8 fcbd 8d21 f7bd bad3 ebbb 3ff8 bf3d
00000380: 5cad 9fbc a689 54bf 5ab9 dbbd 2300 3ebe
00000390: 031e 86bd d0bf b63d 1812 c4bd 9e5f 0abe
000003a0: cebd dcbd aaf8 84bd 3cbc 2a3c 80fb 93bd
000003b0: 4783 a5bc 0e40 26bf 7804 013e 6d22 bbbd
000003c0: 2af2 b7bd 8862 adbd c5f9 a43d 6f3e cabc
000003d0: 04ce bcbc 9be8 623d 8655 f9bd b79a 39be
000003e0: 7b57 f4bd dbca 453d 7f83 32be 39ff 113d
000003f0: aeca 51bc 3a74 c5bb d86c cd3d 7c6b 40bd

classifier.CondNet.2.bias f4 [128]
-0.28197598 0.1052071 -0.36233178 -0.06932307 0.0073120403 -0.24990156 -0.30237192 0.03995549
-0.047046177 -0.0015801579 -0.029837355 -0.055637863 0.03709588 -0.27321646 -0.25682613 -0.023476519
-0.06490329 -0.019747738 -0.04448563 -0.045580924 -0.1043424 -0.03601962 -0.053793464 -0.12697068
-0.04714506 -0.034850456 -0.02199037 -0.022536693 -0.07365033 0.010906351 -0.066505454 -0.036117002
-0.020623038 -0.005290679 -0.033173922 -0.025490193 0.044243935 0.030223684 -0.085437335 -0.05023852
-0.2719609 -0.048499197 0.040579878 -0.3449172 -0.042332586 -0.27593842 -0.039067183 -0.09582153
-0.007604728 -0.01726332 -0.059119288 -0.0345002 -0.071762204 -0.07361706 -0.07478096 -0.0023014727
-0.047789637 0.015757075 -0.00750137 0.03850865 -0.07695284 -0.01621746 -0.03185011 -0.07272296
-0.045221478 -0.064335704 -0.011056837 -0.068560325 -0.021623472 -0.017209686 0.036715586 -0.031047476
-0.05961142 -0.024345575 0.0042564194 -0.10985757 -0.24135391 -0.0388278 -0.0711765 -0.07082288
-0.052494977 -0.053527035 -0.06647436 -0.061898023 -0.37969702 -0.049013425 -0.2599019 -0.06343816
-0.06258592 -0.21392739 -0.03943213 -0.05712877 -0.04302802 -0.018486898 -0.05293327 -0.05474616
-0.0641445 0.03589734 -0.09044662 -0.09830363 -0.07583431 -0.03136089 -0.08846538 -0.05755994
-0.060283516 -0.011042573 -0.07331232 -0.06947236 -0.008291211 -0.26918846 -0.06744399 -0.032810304
-0.020400932 -0.08196586 -0.055473365 -0.06789825 0.025991121 -0.07070175 -0.07124224 -0.020112999
0.011753372 -0.113724284 -0.23983097 -0.10034664 0.068924785 -0.032995477 -0.07251002 -0.2486246
00000000: 285f 90be d276 d73d 8d83 b9be 41f9 8dbd
00000010: d799 ef3b 32e6 7fbe 7ed0 9abe 5ea8 233d
00000020: 7eb3 40bd 4d1d cfba 786d f4bc 87e4 63bd
00000030: d9f1 173d 07e3 8bbe b77e 83be d451 c0bc
00000040: 04ec 84bd 02c6 a1bc 9036 36bd 10b3 3abd
00000050: 78b1 d5bd 4f89 13bd 8956 5cbd 9a04 02be
00000060: 2e1b 41bd 5abf 0ebd 2625 b4bc df9e b8bc
00000070: fcd5 96bd 8db0 323c 0334 88bd 6cef 13bd
00000080: a5f1 a8bc 6f5d adbb 61e1 07bd cfd0 d0bc
00000090: 2139 353d a997 f73c c5f9 aebd e8c6 4dbd
000000a0: 763e 8bbe 18a7 46bd 1637 263d fd98 b0be
000000b0: ef64 2dbd cd47 8dbe e904 20bd 143e c4bd
000000c0: 1531 f9bb ce6b 8dbc 1127 72bd 1550 0dbd
000000d0: 10f8 92bd 8bc4 96bd c326 99bd 4ed4 16bb
000000e0: 11bf 43bd fb14 813c 0dce f5bb 3fbb 1d3d
000000f0: 7399 9dbd 7bda 84bc 4375 02bd c6ef 94bd
00000100: 283a 39bd 70c2 83bd bc27 35bc 5b69 8cbd
00000110: b523 b1bc 54fb 8cbc 1563 163d 4757 febc
00000120: 1b2b 74bd 5f70 c7bc 6f79 8b3b 01fd e0bd
00000130: 7b25 77be e609 1fbd fcc4 91bd 960b 91bd
00000140: f904 57bd 2a3f 5bbd b623 88bd c888 7dbd
00000150: a667 c2be 4dc2 48bd dd11 85be deeb 81bd
00000160: 0c2d 80bd c80f 5bbe 9683 21bd dbff 69bd
00000170: 263e 30bd d671 97bc 8ed0 58bd 823d 60bd
00000180: 315e 83bd 1709 133d 143c b9bd 6a53 c9bd
00000190: 054f 9bbd 4774 00bd 562d b5bd f9c3 6bbd
000001a0: d9eb 76bd e8eb 34bc c524 96bd 8647 8ebd
000001b0: dcd7 07bc 12d3 89be 1320 8abd 1964 06bd
000001c0: db1f a7bc b8dd a7bd 0a38 63bd 3d0e 8bbd
000001d0: 55eb d43c 14cc 90bd 74e7 91bd 04c4 a4bc
000001e0: 3791 403c 47e8 e8bd 4096 75be 8a82 cdbd
000001f0: 7028 8d3d 4426 07bd 2280 94bd 7297 7ebe

classifier.CondNet.4.weight f4 [128, 128, 1, 1]
-0.28991103 -0.023885699 -0.13906567 0.117637314 0.107325025 0.4368101 0.3658837 -0.038932282
0.056833457 0.09017227 0.098579146 0.08791549 0.1057613 -0.33298564 -0.1559043 -0.057456788
0.0876881 0.10612188 0.10931712 0.11672877 0.05455925 0.09490477 0.10071003 -0.0054042726
0.087606356 0.094039544 0.09686342 0.11000318 -0.117571756 0.046429407 0.25753212 0.08420229
0.08252592 0.084391445 0.00050274533 0.10073993 0.0634002 -0.006614063 0.058222048 0.09573812
-0.23988229 0.04091813 0.015218011 -0.23385671 0.0840567 -0.3006943 0.015424545 0.094427034
-0.041068416 0.13062233 -0.14330713 0.084289506 0.08218488 0.033329 0.06796466 0.08377352
0.08103684 0.014085846 0.07759822 0.105509885 0.11003602 0.12122527 0.08844577 0.057490338
0.098993406 0.101253584 0.014368971 0.0717962 0.10808266 0.09604182 0.11483855 0.10095969
0.43144634 -0.031130224 0.07644732 0.08723119 -0.38528323 0.1025361 0.07942593 -0.1352906
0.100517035 0.08237505 0.106762856 -0.12410871 -0.098658755 0.087255344 -0.3058057 0.098104596
-0.09409638 0.0177793 -0.09609143 0.05309638 0.0837659 0.044924576 0.049153205 0.10342077
-0.16665421 0.09610356 0.14605364 0.120923534 0.10655173 0.10082129 0.08601016 0.09668281
0.087126724 0.07169873 0.10955701 0.08254346 0.09131938 -0.29390615 0.11375729 0.11171406
-0.020492284 0.074932784 0.0889002 0.019004455 0.10157587 -0.034242112 0.046951715 0.08211336
0.04546454 -0.036354017 0.39671037 0.08127037 -0.00150944 -0.0617264 0.111027665 -0.30573305
-0.059347518 -0.07615122 -0.17449309 0.066260986 -0.016399313 -0.5931787 -0.6708974 -0.00870398
-0.04802189 0.077497445 0.05650033 0.084113315 -0.08344442 -0.07479343 -0.009430415 -0.024654875
0.08519991 0.053858213 0.078166306 0.1147272 0.017295854 0.080114625 0.05174372 0.040619083
0.10382599 0.10845796 0.11574236 0.10078434 -0.015279862 -0.05397933 0.043766532 0.07639771
0.09755339 0.07924089 0.0062292833 0.09680947 -0.10865219 -0.0037707412 -0.03598624 0.09812327
-0.1347346 -0.029930178 -0.0054217055 -0.22339831 0.11416654 -0.04199002 -0.031754415 0.017445603
-0.012580775 -0.037000593 -0.007158579 0.09602489 0.11075567 0.0369831 0.09352978 0.09753071
0.10656605 -0.029691646 0.07883977 0.04858989 -0.084579214 0.11141401 0.11258828 0.0689798
0.10667061 0.105157994 -0.06683857 0.07334872 0.08980403 0.08089557 -0.021824293 0.09104024
-0.02832239 -0.013204395 0.07749194 0.027897997 -0.19056797 0.07188832 0.09112566 -0.050037
0.08761498 0.08129784 0.11149407 -0.042363957 -0.1446897 0.10711547 -0.06778263 0.05650007
0.0009804653 -0.11899337 -0.023825131 0.056631282 0.092653334 -0.055809725 0.058180217 0.08565662
-0.002035378 -0.014593336 0.028500644 -0.041473813 0.103851005 -0.006113361 0.07008319 0.07270534
0.07189449 0.08657895 0.08047248 0.0789609 0.121935435 -0.06571721 0.08261322 0.05145505
-0.11112284 0.066975676 0.055963047 -0.06274686 0.101702556 0.002705706 -0.089819245 0.1025576
-0.013009684 -0.14279099 -0.5399832 -0.118266605 -0.021951243 0.01261607 0.110261045 -0.12418688
00000000: 386f 94be f1ab c3bc 3b67 0ebe d5eb f03d
00000010: 39cd db3d 93a5 df3e 1c55 bb3e 7577 1fbd
00000020: 33ca 683d 3dac b83d dde3 c93d 090d b43d
00000030: 6199 d83d 187d aabe 60a5 1fbe cf57 6bbd
00000040: d295 b33d 6e56 d93d a7e1 df3d 7e0f ef3d
00000050: 8579 5f3d 6f5d c23d 0f41 ce3d 5316 b1bb
00000060: f66a b33d ce97 c03d 5460 c63d 5949 e13d
00000070: 76c9 f0bd c32c 3e3d 40db 833e 4072 ac3d
00000080: 5903 a93d 6cd5 ac3d abca 033a bd50 ce3d
00000090: f7d7 813d c8ba d8bb 3e7a 6e3d 5912 c43d
000000a0: b4a3 75be c599 273d f754 793c 2278 6fbe
000000b0: eb25 ac3d 9af4 99be 3bb7 7c3c f662 c13d
000000c0: 5b37 28bd dcc1 053e 1bbf 12be fa9f ac3d
000000d0: 8c50 a83d fd83 083d 0e31 8b3d 7491 ab3d
000000e0: a5f6 a53d 52c8 663c d1eb 9e3d 9115 d83d
000000f0: 915a e13d f444 f83d 0e23 b53d fd7a 6b3d
00000100: 0ebd ca3d 0a5e cf3d d56b 6b3c e309 933d
00000110: 715a dd3d 93b1 c43d 7930 eb3d f4c3 ce3d
00000120: 89e6 dc3e d004 ffbc 6a90 9c3d 44a6 b23d
00000130: d843 c5be 72fe d13d 10aa a23d 9e89 0abe
00000140: e0db cd3d 40b4 a83d 7ca6 da3d b52c febd
00000150: 9a0d cabd eeb2 b23d 9192 9cbe 10eb c83d
00000160: 9ab5 c0bd e5a5 913c 95cb c4bd 977b 593d
00000170: 758d ab3d d502 383d df54 493d 45ce d33d
00000180: 67a7 2abe f1d1 c43d 168f 153e c2a6 f73d
00000190: cb37 da3d 647b ce3d 1826 b03d a301 c63d
000001a0: 7f6f b23d c9d6 923d 6d5f e03d 8c0c a93d
000001b0: a805 bb3d de7a 96be 95f9 e83d 57ca e43d
000001c0: 6fdf a7bc 5c76 993d 4f11 b63d 3baf 9b3c
000001d0: 0207 d03d 7541 0cbd 7150 403d 0d2b a83d
000001e0: 0739 3a3d f3e7 14bd 9f1d cb3e 1471 a63d
000001f0: 67d8 c5ba d2d4 7cbd 7962 e33d 0b89 9cbe
00000200: 6216 73bd 2cf5 9bbd 51ae 32be d7b3 873d
00000210: da57 86bc 8fda 17bf efbf 2bbf 239b 0ebc
00000220: 9ab2 44bd fbb6 9e3d e46c 673d 9a43 ac3d
00000230: e8e4 aabd 4c2d 99bd 0782 1abc 05f9 c9bc
00000240: 4a7d ae3d 6e9a 5c3d a815 a03d 18f6 ea3d
00000250: 09b0 8d3c 2313 a43d 39f1 533d 3260 263d
00000260: b8a2 d43d 351f de3d 550a ed3d 0568 ce3d
00000270: 6358 7abc 6e19 5dbd 8944 333d 6776 9c3d
00000280: 12ca c73d 0c49 a23d 041f cc3b 0b44 c63d
00000290: 0a85 debd 8a1e 77bb 4f66 13bd daf4 c83d
000002a0: def7 09be 2230 f5bc 90a8 b1bb 87c2 64be
000002b0: 26d0 e93d bafd 2bbd eb10 02bd 15ea 8e3c
000002c0: 981f 4ebc ef8d 17bd 8392 eabb b3a8 c43d
000002d0: ded3 e23d 977b 173d 8b8c bf3d 2ebe c73d
000002e0: 4d3f da3d e53b f3bc bf76 a13d 3106 473d
000002f0: de37 adbd 072d e43d af94 e63d 4845 8d3d
00000300: 1f76 da3d 135d d73d a9e2 88bd db37 963d
00000310: 2deb b73d 94ac a53d dcc8 b2bc 4e73 ba3d
00000320: 5b04 e8bc 3f57 58bc 18b4 9e3d 578a e43c
00000330: 4024 43be 2f3a 933d 17a0 ba3d 99f3 4cbd
00000340: 7c6f b33d 7b7f a63d 0157 e43d d485 2dbd
00000350: 8929 14be 5b5f db3d 9fd1 8abd 9e6c 673d
00000360: f582 803a ccb2 f3bd ec2c c3bc 34f6 673d
00000370: 08c1 bd3d bd98 64bd 614e 6e3d bd6c af3d
00000380: fa63 05bb e318 6fbc 2f7a e93c 72e0 29bd
00000390: d6af d43d 9752 c8bb c787 8f3d 8ae6 943d
000003a0: 6b3d 933d 4e50 b13d c1ce a43d 41b6 a13d
000003b0: 49b9 f93d bf96 86bd 1f31 a93d 88c2 523d
000003c0: 5f94 e3bd 8b2a 893d 8239 653d 6d81 80bd
000003d0: 6e49 d03d 3752 313b 27f3 b7bd b809 d23d
000003e0: 9226 55bc cd37 12be 573c 0abf c335 f2bd
000003f0: 18d3 b3bc a2b3 4e3c 8bd0 e13d b155 febd

classifier.CondNet.4.bias f4 [128]
-0.034328658 0.22182642 0.33093867 0.27772218 -0.1376017 0.3065264 -0.109223165 0.3050781
0.3225116 0.26965716 0.2823312 -0.10675673 -0.11353695 0.27651483 -0.10830305 0.32420447
-0.11752471 -0.115387976 -0.115812935 -0.10959421 0.32287455 -0.11442611 -0.12034805 0.26924634
-0.11770786 0.27768272 0.2777467 -0.1177773 0.2929237 -0.1267056 -0.12195935 -0.12241746
-0.13822567 0.28612283 -0.1524737 -0.11064722 -0.15197982 -0.11376353 -0.120625675 -0.10735536
0.27948597 0.38461012 -0.11605503 0.27849782 -0.10834647 -0.10739436 -0.11415599 0.3201315
-0.0615893 0.30620357 -0.12331509 -0.11820085 0.28128463 0.28114572 0.30555633 -0.1762906
0.26808012 -0.12239469 -0.11529602 -0.11478138 -0.17328238 0.25303447 -0.11532024 0.24712731
-0.118951574 0.3269059 -0.1151527 0.18010429 -0.11294394 0.29363242 -0.122945 0.2705601
-0.10566117 0.2933157 0.33502546 -0.12308622 -0.17860097 -0.104158185 -0.124435686 -0.115016274
0.3055499 -0.1723387 -0.1124922 0.2940366 0.08523927 0.28642678 0.34108514 0.2742007
-0.11680367 0.33393568 0.33464536 0.31132588 -0.10658202 -0.16736454 0.25391632 0.3067896
0.30776125 -0.12159608 -0.11180134 -0.104726136 0.33823803 0.30894408 0.19839758 -0.1068486
0.30045736 -0.19846241 -0.12192716 -0.11746109 0.3381977 0.28105214 -0.11183116 0.2830065
-0.11669812 0.3848488 0.28110707 0.30042353 0.32095957 -0.11947051 0.29018494 0.22367992
-0.10697368 0.31304953 0.18291195 -0.12324069 0.33277622 0.3278952 0.2932398 0.320936
00000000: 359c 0cbd 7726 633e cb70 a93e 9a31 8e3e
00000010: 76e7 0cbe 07f1 9c3e 65b0 dfbd 3233 9c3e
00000020: 3e20 a53e 8110 8a3e b78d 903e 46a3 dabd
00000030: 0f86 e8bd 5a93 8d3e fdcd ddbd 21fe a53e
00000040: ccb0 f0bd 8850 ecbd 552f edbd ee72 e0bd
00000050: d04f a53e 3d58 eabd 0a79 f6bd a8da 893e
00000060: d210 f1bd 6e2c 8e3e d134 8e3e 3a35 f1bd
00000070: 18fa 953e 1dbf 01be d3c5 f9bd 01b6 fabd
00000080: 088b 0dbe b17e 923e 1122 1cbe 029b e2bd
00000090: 99a0 1bbe dbfc e8bd 980a f7bd 21dd dbbd
000000a0: c918 8f3e 9eeb c43e 42ae edbd 4497 8e3e
000000b0: c1e4 ddbd 93f1 dbbd 9eca e9bd 47e8 a33e
000000c0: 1045 7cbd b7c6 9c3e 9f8c fcbd 4a13 f2bd
000000d0: 8a04 903e 55f2 8f3e e171 9c3e 8685 34be
000000e0: cc41 893e 11aa fabd 5220 ecbd 8012 ebbd
000000f0: f070 31be bc8d 813e 052d ecbd f10e 7d3e
00000100: e29c f3bd 3660 a73e 2ed5 ebbd 426d 383e
00000110: 274f e7bd fd56 963e 97ca fbbd da86 8a3e
00000120: e264 d8bd 7a2d 963e 7588 ab3e a114 fcbd
00000130: 2ce3 36be e350 d5bd 23d8 febd a78d ebbd
00000140: 0971 9c3e 8e79 30be 5062 e6bd f78b 963e
00000150: ed91 ae3d 88a6 923e b6a2 ae3e 0964 8c3e
00000160: c336 efbd 9ef9 aa3e a356 ab3e 1b66 9f3e
00000170: ad47 dabd 9c61 2bbe 5201 823e 8713 9d3e
00000180: e292 9d3e 5e07 f9bd 1af8 e4bd a87a d6bd
00000190: 892d ad3e eb2d 9e3e bc28 4b3e 70d3 dabd
000001a0: 8cd5 993e bb39 4bbe f2b4 f9bd 718f f0bd
000001b0: 4028 ad3e 11e6 8f3e bc07 e5bd 3ae6 903e
000001c0: 6dff eebd e70a c53e 44ed 8f3e 1dd1 993e
000001d0: d054 a43e f4ac f4bd 1f93 943e 590c 653e
000001e0: 0415 dbbd 0748 a03e 454d 3b3e 9d65 fcbd
000001f0: a561 aa3e e1e1 a73e 8723 963e b951 a43e

classifier.CondNet.6.weight f4 [128, 128, 1, 1]
-0.0046591344 -0.07822453 -0.011706479 -0.08850836 -0.0686872 0.0043431525 0.13589245 -0.007357262
-0.0063656294 -0.0057502603 0.021097345 0.1689626 0.0076354966 0.022574518 0.12751643 -0.0087549025
0.15284415 0.09148683 0.09451263 0.028537875 -0.04592329 0.1807388 0.09389247 0.009265763
0.17945223 0.0133753065 0.013380314 0.11525486 -0.057924688 0.16922235 0.10220751 0.026688313
-0.07321427 0.038384944 0.12076671 0.16890173 0.10737473 0.023706803 0.07692488 0.02933204
0.009382905 -0.002238544 0.04974813 -0.07953491 0.058067735 0.0059243953 0.09050674 -0.016899291
0.02119596 -0.022290373 0.122569464 0.026768856 -0.013677209 0.0072204587 -0.097294375 0.103677705
0.044332296 0.08347178 0.029697534 0.11679426 0.12781514 -0.11563963 -0.09253691 0.0017675898
0.13827786 0.03472855 0.029086085 -0.08804141 0.023182543 0.024241475 0.16660307 0.02224111
0.05992028 0.01210069 0.012957733 -0.056077637 -0.029523965 -0.23316208 0.040601216 0.02573515
-0.02466031 0.11142153 -0.07407129 -0.062988 -0.17722963 -0.006618087 -0.025024576 -0.044615515
0.0012455605 -0.0033555382 -0.0049827057 0.05158941 0.14983055 -0.084201634 -0.072253995 0.012755541
0.017617417 0.20606436 0.1028233 0.17257221 -0.0225723 -0.0555893 0.010182796 0.07145429
-0.022560412 0.042858277 0.02515291 0.059770547 0.004242919 -0.006458583 0.025378168 -0.023165397
0.07750564 0.01986814 -0.050777372 0.014423528 -0.015180741 0.12226994 -0.005001519 -0.017635854
0.0045225443 0.00910144 0.016411329 0.13425411 0.008126264 0.010818121 0.01476753 -0.0041950713
0.33042037 -0.43924153 -0.2290343 -0.47347525 0.2581734 -0.21833931 -0.026711596 -0.24049729
-0.25932834 -0.25534013 -0.20404425 -0.04857926 1.4891785e-05 -0.22637448 -0.032768615 -0.25172922
-0.04073699 -0.026124043 -0.023955047 -0.048374776 0.033837423 -0.05096959 -0.05912521 -0.2016185
-0.03833709 -0.22642416 -0.21069087 0.0009742211 -0.5839679 -0.044952236 -0.07071451 -0.0038735429
0.24382408 -0.21026692 0.28179735 -0.01909653 0.2673234 -0.0460318 -0.014479471 -0.00821295
-0.23183037 -0.17715736 -0.07588793 -0.49476376 -0.039018188 -0.036669686 -0.06228221 -0.24927239
0.3468588 -0.21707985 -0.029468985 -0.021162946 -0.21973918 -0.23357171 -0.44564083 0.32213473
-0.23354143 -0.058359094 -0.0353573 -0.006822699 0.32503396 -0.4480811 0.22230704 -0.24313016
-0.026113978 -0.22287658 -0.040974293 -0.321881 -0.017333146 -0.23650756 -0.02370768 -0.2043884
-0.03359415 -0.22875434 -0.21594474 0.24765232 0.33572534 -0.032167755 -0.0064251632 0.0038240855
-0.23163052 0.32297158 0.20577432 -0.49358645 -0.26365763 -0.22293778 -0.23317818 -0.5587305
-0.015061409 -0.22859222 -0.2360111 -0.22955026 -0.022549257 0.2936336 -0.50967175 -0.2260668
-0.20610844 -0.008417091 -0.022426462 -0.017531862 -0.039736427 -0.5561373 -0.19647463 -0.03449698
0.051396694 0.2538159 -0.0018493857 -0.041997824 -0.22140968 -0.24049617 -0.026839187 -0.22229585
-0.049044885 -0.14087462 -0.5652682 -0.21314022 0.010044441 -0.011269013 -0.22228637 -0.22261895
-0.023054443 -0.22659871 -0.16640615 -0.036062207 -0.24693973 -0.23233171 -0.1907176 -0.2359002
00000000: a7ab 98bb 2f34 a0bd 88cc 3fbc df43 b5bd
00000010: e0ab 8cbd 0151 8e3b 6427 0b3e 3015 f1bb
00000020: c596 d0bb ae6c bcbb 57d4 ac3c 8804 2d3e
00000030: 3033 fa3b 32ee b83c ab93 023e b970 0fbc
00000040: 2d83 1c3e 725d bb3d d68f c13d 43c8 e93c
00000050: 0f1a 3cbd 9813 393e b24a c03d 6dcf 173c
00000060: 53c2 373e 1a24 5b3c 1b39 5b3c bd0a ec3d
00000070: 7042 6dbd a048 2d3e 2c52 d13d 73a1 da3c
00000080: 5df1 95bd 8839 1d3d 8954 f73d 93f4 2c3e
00000090: 48e7 db3d c534 c23c cb8a 9d3d bf49 f03c
000000a0: c2ba 193c 89b4 12bb b2c4 4b3d 33e3 a2bd
000000b0: 6fd8 6d3d 6e21 c23b 995b b93d 6270 8abc
000000c0: 26a3 ad3c 4d9a b6bc b305 fb3d 5c4a db3c
000000d0: 5f16 60bc 9999 ec3b 4642 c7bd fa54 d43d
000000e0: c895 353d 41f3 aa3d 3e48 f33c d431 ef3d
000000f0: f9e1 023e 78d4 ecbd fe83 bdbd 79ae e73a
00000100: b698 0d3e 863f 0e3d f145 ee3c 0e4f b4bd
00000110: 51e9 bd3c 0f96 c63c ff99 2a3e fd32 b63c
00000120: f86e 753d f941 463c ac4c 543c aab1 65bd
00000130: 3edc f1bc 0ac2 6ebe 764d 263d 85d2 d23c
00000140: 6b04 cabc f930 e43d b0b2 97bd daff 80bd
00000150: af7b 35be 8adc d8bb 5700 cdbc c2be 36bd
00000160: 1342 a33a 97e8 5bbb f745 a3bb 6b4f 533d
00000170: 2e6d 193e e871 acbd e7f9 93bd 9efc 503c
00000180: 6752 903c 8902 533e 0695 d23d c5b6 303e
00000190: 8be9 b8bc 9bb1 63bd bed5 263c a056 923d
000001a0: 9dd0 b8bc 298c 2f3d 7a0d ce3c f6d1 743d
000001b0: 2f08 8b3b 85a2 d3bb e0e5 cf3c 5cc5 bdbc
000001c0: 47bb 9e3d 82c2 a23c effb 4fbd a950 6c3c
000001d0: a5b8 78bc aa68 fa3d c8e3 a3bb 1179 90bc
000001e0: da31 943b 351e 153c 0d71 863c e979 093e
000001f0: 0624 053c 7d3e 313c 83f3 713c cf76 89bb
00000200: dc2c a93e 44e4 e0be f887 6abe 596b f2be
00000210: 4e2f 843e 5794 5fbe 47d2 dabc ec44 76be
00000220: afc6 84be f1bb 82be faf0 50be 0cfb 46bd
00000230: bbd7 7937 b6ce 67be 6238 06bd a7e2 80be
00000240: d4db 26bd 1702 d6bc 603d c4bc a124 46bd
00000250: 1c99 0a3d 7dc5 50bd 472d 72bd 1475 4ebe
00000260: 5a07 1dbd bcdb 67be 59bf 57be df62 7f3a
00000270: ec7e 15bf d61f 38bd c5d2 90bd 44db 7dbb
00000280: 05ad 793e 3650 57be be47 903e 5370 9cbc
00000290: 9dde 883e d78b 3cbd 4e3b 6dbc 9c8f 06bc
000002a0: f164 6dbe bd68 35be 226b 9bbd ad51 fdbe
000002b0: 89d1 1fbd f432 16bd a11b 7fbd 4341 7fbe
000002c0: 7a97 b13e 2e4a 5ebe f168 f1bc ea5d adbc
000002d0: 4f03 61be 6c2d 6fbe 092b e4be d8ee a43e
000002e0: 7c25 6fbe f209 6fbd d1d2 10bd f390 dfbb
000002f0: da6a a63e e36a e5be 75a4 633e 1df7 78be
00000300: fbec d5bc c239 64be a9d4 27bd 96cd a4be
00000310: 3efe 8dbc 0a2f 72be 9c36 c2bc 314b 51be
00000320: 059a 09bd 943e 6abe 9e20 5dbe 9298 7d3e
00000330: 31e4 ab3e 56c2 03bd 2d8a d2bb 829d 7a3b
00000340: 8d30 6dbe 885c a53e 81b6 523e 5db7 fcbe
00000350: 22fe 86be cd49 64be 43c6 6ebe f608 0fbf
00000360: 21c4 76bc 1414 6abe e5ac 71be 390f 6bbe
00000370: 38b9 b8bc 2557 963e d979 02bf 0e7e 67be
00000380: 170e 53be d7e7 09bc b3b7 b7bc fb9e 8fbc
00000390: aac2 22bd 045f 0ebf a530 49be b54c 0dbd
000003a0: 5785 523d 28f4 813e 1667 f2ba e905 2cbd
000003b0: 38b9 62be a144 76be dbdd dbbc 86a1 63be
000003c0: 4ae3 48bd 7041 10be 6bb5 10bf 6e41 5abe
000003d0: 7091 243c aba1 38bc 0a9f 63be 39f6 63be
000003e0: acdc bcbc 7e09 68be 6066 2abe f7b5 13bd
000003f0: c5dd 7cbe 5de8 6dbe 794b 43be d28f 71be

classifier.CondNet.6.bias f4 [128]
-0.08684984 -0.0356088 -0.07184387 0.004196129 -0.026871908 -0.053043224 -0.008528763 0.025483033
-0.051519036 0.0030560594 -0.07588025 -0.058979157 -0.24140352 -0.036178216 -0.068711735 -0.023779336
-0.05161554 -0.062971205 -0.24314691 0.43263653 0.013169071 -0.08394835 -0.06157927 -0.25289598
0.053558383 -0.05519953 -0.0537247 0.4232926 -0.058345772 0.102253765 -0.05860842 -0.015503045
-0.023032492 -0.002157173 -0.04204465 -0.025795085 0.0062323045 -0.058302198 -0.058751993 -0.2413766
0.026763309 -0.07184343 -0.09135742 -0.0742634 -0.052500367 -0.079849675 -0.09372724 -0.24417129
-0.092337474 -0.24170159 1.814196e-05 -0.061721597 0.00663476 -0.061227024 -0.06846153 0.013982881
0.38699874 0.39855397 -0.04303329 -0.058200732 -0.003206312 -0.25693598 -0.051476877 0.013172163
-0.07605402 -0.03547901 -0.06557617 -0.08592417 -0.07010649 -0.095485024 -0.047752686 -0.047287814
-0.004733486 0.12841493 0.15520513 0.013215115 0.08314202 0.009656142 -0.08476081 -0.09050949
-0.043394268 0.06437174 -0.024407495 -0.077727236 -0.23093544 -0.076823205 -0.07810653 -0.02993472
0.025943568 -0.04086533 0.42506337 -0.058674514 -0.24488966 0.0140484255 0.024472883 0.012018001
-0.08212233 0.38782278 -0.0075327833 -0.07928385 -0.24466993 -0.08723365 0.00089607155 0.08580828
-0.05900058 -0.03534276 0.4220229 0.009765259 -0.10356944 -0.02632706 0.42260656 -0.0533881
-0.24276106 -0.050301608 -0.09579978 0.41778892 -0.069267906 -0.065523565 0.031055842 -0.24091831
-0.06981196 -0.24790981 0.40353996 -0.067185774 -0.07600415 0.046359748 -0.0013932561 -0.24557821
00000000: 54de b1bd 88da 11bd e122 93bd ae7f 893b
00000010: 7a22 dcbc da43 59bd 3abc 0bbc cbc1 d03c
00000020: a005 53bd 2b48 483b 1b67 9bbd 2194 71bd
00000030: 7c32 77be 9c2f 14bd bdb8 8cbd e2cc c2bc
00000040: d16a 53bd 0cf7 80bd 81fb 78be 8982 dd3e
00000050: 16c3 573c 1ded abbd 8b3a 7cbd 957b 81be
00000060: 0960 5b3d e718 62bd 6e0e 5cbd cfb9 d83e
00000070: fafb 6ebd 6c6a d13d 620f 70bd 7c00 7ebc
00000080: a3ae bcbc 5b5f 0dbb 0337 2cbd 3750 d3bc
00000090: 5c38 cc3b 49ce 6ebd eea5 70bd 6d2b 77be
000000a0: ba3e db3c a622 93bd 9919 bbbd 6917 98bd
000000b0: a00a 57bd 3a88 a3bd 11f4 bfbd 0a08 7abe
000000c0: 6e1b bdbd 9f80 77be 902f 9837 c9cf 7cbd
000000d0: 6768 d93b 30c9 7abd 8f35 8cbd 7418 653c
000000e0: b324 c63e 440f cc3e ad43 30bd e463 6ebd
000000f0: fd20 52bb 1d8d 83be 6bd9 52bd 0ed0 573c
00000100: 36c2 9bbd 7052 11bd cd4c 86bd 03f9 afbd
00000110: fe93 8fbd a78d c3bd 5298 43bd deb0 41bd
00000120: 5c1b 9bbb 347f 033e 18ee 1e3e 3684 583c
00000130: 5d46 aa3d cc34 1e3c 1397 adbd 0a5d b9bd
00000140: 30be 31bd 55d5 833d 3af2 c7bc 752f 9fbd
00000150: 577a 6cbe 7c55 9dbd 51f6 9fbd a839 f5bc
00000160: 9b87 d43c 6762 27bd e8a1 d93e b054 70bd
00000170: 5bc4 7abe 5e2b 663c 5b7b c83c 26e7 443c
00000180: c12f a8bd b590 c63e 91d5 f6bb 925f a2bd
00000190: c18a 7abe 8ea7 b2bd 58e6 6a3a 40bc af3d
000001a0: 98aa 71bd 92c3 10bd 6313 d83e 77fe 1f3c
000001b0: 371c d4bd d9ab d7bc e35f d83e 7bad 5abd
000001c0: 5b96 78be 0f09 4ebd ad32 c4bd 6ee8 d53e
000001d0: 55dc 8dbd 3831 86bd d268 fe3c 4ab3 76be
000001e0: 93f9 8ebd 12dc 7dbe ca9c ce3e b298 89bd
000001f0: 10a8 9bbd b8e3 3d3d eb9d b6ba db78 7bbe

classifier.CondNet.8.weight f4 [32, 128, 1, 1]
0.05807111 0.07897823 0.07569142 0.09568796 0.08175518 0.05643556 0.10911786 0.08100111
0.108252764 0.10695944 0.05260449 0.047221437 -0.14450972 0.106068626 0.08556119 0.09305892
0.10497463 0.0314805 -0.13831265 0.1040819 0.10156848 0.06804437 0.09696567 -0.12578146
0.19604598 0.05557471 0.044166308 0.08323664 0.046082165 0.14447917 0.091689244 -0.004719857
0.11276169 0.09274448 0.059197754 0.113891885 0.116910756 0.046595786 0.05823707 -0.13457456
0.07675404 0.086719766 0.08223043 0.09009452 0.09567359 0.019013567 0.10783283 -0.12842269
0.032772463 -0.13723288 0.014246998 0.03668978 0.1214881 0.024503296 0.10234678 0.10769229
0.148933 0.11991896 0.051405672 0.107182294 0.13446175 -0.12143564 0.041290548 0.13534251
0.014951757 0.06546341 0.06206899 0.09910478 0.035540685 -0.006363029 0.070127904 0.10551527
0.122315206 0.24590242 0.20704065 0.08116392 0.15852384 0.11683633 0.018668775 0.08737299
0.08754757 0.13121782 0.10328807 0.010090796 -0.089121416 0.11041251 0.02654045 0.073071025
0.11043463 0.09542248 0.08272969 0.03470336 -0.13620639 0.06618184 0.063858114 0.12388074
0.024289237 0.15847622 0.08429068 0.032489896 -0.12742157 0.03322261 0.12639104 0.11619883
0.087806046 0.062200695 0.09599235 0.069633305 0.028133206 0.050920796 0.11213691 0.052897677
-0.11799017 0.05198277 0.07439421 0.119191445 0.02586476 0.030084657 0.086991385 -0.12889802
0.03723392 -0.13888572 0.15110263 0.04132471 0.035384655 0.14251247 0.11624181 -0.1334781
0.030230908 0.28545564 0.03570489 0.02392616 0.058849126 0.27536783 0.025795707 0.24283335
0.03963722 0.037907448 0.2683981 0.26494065 0.3032368 0.035960127 0.06186044 0.064247005
0.059948284 0.2724706 0.29208314 -0.34305045 0.25795817 0.058287308 0.0310008 0.2939916
0.036525365 0.26717758 0.29610258 -0.32791728 0.27848047 -0.043332465 0.04130585 0.043346997
0.047233213 0.04000332 0.2621185 0.047149498 0.036135893 0.2702979 0.2770237 0.28437105
0.26443577 0.07412879 0.058006633 0.0439424 0.04185379 0.28101832 0.034948736 0.2830572
0.29087642 0.2879781 0.02025419 0.2579763 0.049260434 0.27565852 0.04471139 0.26217365
-0.24206285 -0.2779615 0.27785832 0.06971171 0.017134173 0.2978387 0.284238 0.015257477
0.25791228 0.27774405 0.2988797 0.078845076 0.2799526 0.2761746 0.047607005 0.026644371
0.0229247 -0.026423436 -0.036648814 0.26436767 -0.017672494 0.044507105 0.26670313 0.06531083
0.049222708 -0.020692118 0.043019347 0.2953674 0.09269656 0.07304648 0.26680124 0.29748076
-0.0032219451 0.049291153 -0.31105608 0.26210815 0.30270362 0.2723199 0.2740974 0.039899558
0.2890305 -0.2562175 0.27010062 0.2778812 0.2604946 0.2535929 0.0060880976 -0.006723552
0.021327065 0.27608842 -0.31302205 0.27050513 0.2736686 0.2749756 -0.305511 0.27897656
0.29183564 0.2832918 0.07569362 -0.31267098 0.26915717 0.27718452 0.26740515 0.29822958
0.26239547 0.27966163 -0.29650998 0.2705851 0.263971 -0.007830686 0.03655059 0.2788088
00000000: f9db 6d3d 57bf a13d 1a04 9b3d 0df8 c33d
00000010: 436f a73d f928 673d 2f79 df3d e9e3 a53d
00000020: a0b3 dd3d 8d0d db3d ce77 573d 446b 413d
00000030: 5bfa 13be 823a d93d b53a af3d ad95 be3d
00000040: f0fc d63d b2f1 003d d5a1 0dbe e428 d53d
00000050: 2303 d03d d95a 8b3d f095 c63d dbcc 00be
00000060: 47c0 483e 4fa2 633d bbe7 343d f977 aa3d
00000070: a7c0 3c3d 59f2 133e 92c7 bb3d 08a9 9abb
00000080: 9aef e63d d1f0 bd3d 5879 723d 2640 e93d
00000090: e86e ef3d 39db 3e3d fe89 6e3d eacd 09be
000000a0: 3931 9d3d 229a b13d 6d68 a83d 7a83 b83d
000000b0: 84f0 c33d 57c2 9b3c 75d7 dc3d 3d81 03be
000000c0: 6b3c 063d c786 0cbe 3e6c 693c 0648 163d
000000d0: c1ce f83d 23bb c83c 309b d13d c68d dc3d
000000e0: e481 183e 1298 f53d c18e 523d 6482 db3d
000000f0: 57b0 093e 40b3 f8bd 4720 293d 3a97 0a3e
00000100: 37f8 743c ae11 863d 0e3c 7e3d 72f7 ca3d
00000110: 1c93 113d f580 d0bb 389f 8f3d 6418 d83d
00000120: 6580 fa3d d8cd 7b3e 7702 543e 4539 a63d
00000130: 1354 223e e347 ef3d 42ef 983c 9cf0 b23d
00000140: 244c b33d f75d 063e b288 d33d de53 253c
00000150: 4a85 b6bd f41f e23d 5c6b d93c 43a6 953d
00000160: 8d2b e23d dc6c c33d 2f6e a93d 1c25 0e3d
00000170: b079 0bbe 588a 873d 0bc8 823d 2fb5 fd3d
00000180: 39fa c63c 9747 223e 98a0 ac3d 2014 053d
00000190: cd7a 02be 6e14 083d a76c 013e a7f9 ed3d
000001a0: a8d3 b33d 28c6 7e3d a397 c43d e89b 8e3d
000001b0: 9c77 e63c 5392 503d 09a8 e53d 3cab 583d
000001c0: d5a4 f1bd e3eb 543d fe5b 983d a51a f43d
000001d0: 55e2 d33c 1974 f63c 8a28 b23d d8fd 03be
000001e0: 9882 183d 0f38 0ebe a6ba 1a3e 1944 293d
000001f0: 80ef 103d caee 113e 3010 ee3d 7cae 08be
00000200: cfa6 f73c 3e27 923e 4a3f 123d cb00 c43c
00000210: c80b 713d 03fd 8c3e 8551 d33c 4ea9 783e
00000220: a35a 223d d744 1b3d 7a6b 893e 4da6 873e
00000230: db41 9b3e ed4a 133d 5f61 7d3d ef93 833d
00000240: 558c 753d 4481 8b3e ec8b 953e 4fa4 afbe
00000250: 1813 843e acbe 6e3d 64f5 fd3c 1186 963e
00000260: 9f9b 153d 80cb 883e c29a 973e c6e4 a7be
00000270: fe94 8e3e 627d 31bd 5330 293d 9f8c 313d
00000280: 9d77 413d 85da 233d 6534 863e d51f 413d
00000290: 3b03 143d 7d64 8a3e 0dd6 8d3e 1599 913e
000002a0: 2064 873e d6d0 973d 5d98 6d3d f2fc 333d
000002b0: e16e 2b3d a2e1 8f3e 6826 0f3d e0ec 903e
000002c0: c1ed 943e de71 933e 1dec a53c 7815 843e
000002d0: 4fc5 493d 1d23 8d3e 4a23 373d a03b 863e
000002e0: 53df 77be f850 8ebe 7243 8e3e 03c5 8e3d
000002f0: f75c 8c3c 507e 983e a587 913e 7ffa 793c
00000300: 140d 843e 7834 8e3e c306 993e 8779 a13d
00000310: f255 8f3e c266 8d3e 90ff 423d 4c45 da3c
00000320: 95cc bb3c f675 d8bc 111d 16bd 335b 873e
00000330: e8c5 90bc 154d 363d 508d 883e afc1 853d
00000340: c09d 493d 8482 a9bc 0e35 303d 653a 973e
00000350: b2d7 bd3d 6599 953d 2c9a 883e 664f 983e
00000360: 4527 53bb 85e5 493d be42 9fbe 0a33 863e
00000370: f8fb 9a3e 846d 8b3e 7f56 8c3e b86d 233d
00000380: cefb 933e f12e 83be a14a 8a3e 7246 8e3e
00000390: 8c5f 853e eed6 813e aa7e c73b 3e51 dcbb
000003a0: 19b6 ae3c 765b 8d3e 6d44 a0be a67f 8a3e
000003b0: 4a1e 8c3e 9ac9 8c3e f06b 9cbe 04d6 8e3e
000003c0: 7b6b 953e 9f0b 913e 4205 9b3d 6916 a0be
000003d0: f8ce 893e 21eb 8d3e 54e9 883e 8cb1 983e
000003e0: b358 863e cf2f 8f3e 28d0 97be 218a 8a3e
000003f0: 3527 873e 474c 00bc 12b6 153d 07c0 8e3e

classifier.CondNet.8.bias f4 [32]
0.1369324 -0.31243658 -0.032227382 -0.02584986 0.1555247 -0.31380966 0.02394182 0.31287408
0.31943637 0.017872404 0.3116 -0.13182543 0.32121196 -0.26714557 0.3070815 0.3205249
-0.13746764 0.32107627 -0.16862221 0.13187058 -0.32183105 0.10845419 0.022155672 -0.13984916
0.15484904 0.10666476 0.13355178 -0.03480064 -0.3231964 -0.05898037 0.3140912 -0.11920285
00000000: 0238 0c3e b0f7 9fbe dc00 04bd 16c3 d3bc
00000010: de41 1f3e a9ab a0be a321 c43c 0831 a03e
00000020: 2a8d a33e 2669 923c 098a 9f3e 3ffd 06be
00000030: e575 a43e 4ec7 88be c939 9d3e d71b a43e
00000040: 51c4 0cbe 1c64 a43e 4dab 2cbe 1509 073e
00000050: 0ac7 a4be 3b1d de3d d07f b53c 9e34 0fbe
00000060: bf90 1e3e 0e73 da3d ccc1 083e 1e8b 0ebd
00000070: 007a a5be 6795 71bd 90d0 a03e a020 f4bd
