benchmark/classsr/experiments/pre_trained_models/FSRCNN_branch2.pth (torch_old, 73760 bytes, 16 tensors)

head_conv.0.weight f4 [36, 3, 5, 5]
0	0x3c3b4383	0.01142967
1	0x3cdefc8c	0.027220033
2	0xbcef723b	-0.029229274
3	0x3d07d38c	0.03316073
4	0x3bafbc49	0.0053630215
5	0x3d865874	0.0655984
6	0x3c05a7ea	0.00815771
7	0x3e70a982	0.23502162
8	0xbd1b625e	-0.037935607
9	0x3da0b84a	0.0784765
10	0xbd56e66c	-0.05246584
11	0x3e40d263	0.18830256
12	0xbf44463b	-0.76669663
13	0x3e35f831	0.17770459
14	0xbd70f720	-0.058829427
15	0xbc29eeb7	-0.010371855
16	0xbc47d849	-0.0121975625
17	0x3e8af95d	0.27143374
18	0x3cfa08b2	0.030521724
19	0x3b879d71	0.0041386415
20	0x3bd2afa8	0.0064296313
21	0x3dd51b56	0.104056045
22	0xbd92ba42	-0.07164432
23	0xbcdc8593	-0.026919162
24	0x3d35660b	0.04428677
25	0xbb0290f9	-0.0019922836
26	0x3d00b9f8	0.031427354
27	0xb9820109	-0.00024796303
28	0xbcaa99cb	-0.020825287
29	0xbbda2721	-0.0066574966
30	0x3c91d7b6	0.017803054
31	0xbdf0d80f	-0.1175996
32	0x3de3a26f	0.11114966
33	0xbe17f161	-0.14838172
34	0x3b26e930	0.002546858
35	0xbdb217d0	-0.08695948
36	0xbd9dbb4e	-0.07701741
37	0x3e9bf416	0.3045966
38	0xbab5cd4a	-0.0013870385
39	0xbd8a9b39	-0.067678876
40	0x3c3e3368	0.011608936
41	0x3b7c263f	0.0038474945
42	0x3e1fb227	0.15595303
43	0xbb77ec8d	-0.0037830204
44	0xbc3d6196	-0.011558911
45	0xbd4350ee	-0.047684602
46	0x3daaad39	0.08333821
47	0xbe42ddd5	-0.19029935
48	0xbad59619	-0.0016295343
49	0xbb12fed0	-0.0022429712
50	0xbcee8f0a	-0.02912094
51	0xbcfa9509	-0.030588644
52	0x3d06995c	0.0328611
53	0x3d326b41	0.043559317
54	0xbc53e6d1	-0.012933449
55	0x3d36c0ac	0.04461734
56	0xbc306982	-0.0107673425
57	0xbe3f722b	-0.18695895
58	0xbc60df93	-0.013725179
59	0x3ca51511	0.020151647
60	0x3d120c0a	0.035656013
61	0xbeaa3318	-0.33242106
62	0x3f19759b	0.59945077
63	0xbe31a687	-0.17348681
64	0x3d3a7330	0.045520008
65	0x3c7ee483	0.015557411
66	0x3b825f5b	0.0039786524
67	0xbe7c31e4	-0.24628407
68	0x3c164c7f	0.0091735115
69	0xbd6bcabf	-0.0575664
70	0x3acf26a9	0.0015804368
71	0x3d71be82	0.059019573
72	0x3d98cb59	0.074606605
73	0x3b214235	0.0024606113
74	0x3c916469	0.017748075
75	0xba10e009	-0.0005526548
76	0xbc9578c2	-0.018246058
77	0xbcecfde7	-0.028929664
78	0xbcebd5d4	-0.028788485
79	0xbc903d2e	-0.017607298
80	0xbc4e7d87	-0.01260317
81	0xbd9383e5	-0.07202891
82	0xbe500355	-0.20313771
83	0xbd58292b	-0.052773636
84	0xbc541f40	-0.012946904
85	0xbcbbf855	-0.022945562
86	0xbe0f7011	-0.14007594
87	0xbe1f4afc	-0.15555948
88	0xbe6dff60	-0.23241949
89	0xbd08cdbc	-0.03339933
90	0xbd0276e5	-0.031851668
91	0xbd3b7040	-0.045761347
92	0xbe75813e	-0.23975083
93	0xbcf16489	-0.029466884
94	0xbc5e3eea	-0.013564805
95	0xbbd8b27c	-0.006613074
96	0xbb2e9cc0	-0.0026643723
97	0xbd4a632e	-0.04941099
98	0xbce04ea5	-0.02738125
99	0xbc9d308e	-0.019188192
100	0xbbb977c6	-0.00566003
101	0xbbe5c00c	-0.007011419
102	0x3d11a24b	0.035555165
103	0xbc0d4196	-0.008621594
104	0xbc73045f	-0.014832585
105	0x3b1e1e1e	0.0024126838
106	0x389feea1	7.626159e-05
107	0x3d0150ac	0.031571075
108	0x3d2c2d28	0.04203525
109	0x3b195a88	0.0023399908
110	0x3c50cf9c	0.01274481
111	0x3c0c2102	0.008552792
112	0x3ea76428	0.326936
113	0xbb852276	-0.004062946
114	0x3c4ed2d4	0.0126235075
115	0x3af59c0b	0.0018738521
116	0x3bd2f02d	0.0064373226
117	0xbd814a8b	-0.06313046
118	0x3d0bdf2d	0.034148384
119	0xbb4998aa	-0.003076116
120	0x3c1c6d1d	0.009547499
121	0x3c4dbf0d	0.012557757
122	0x3ceac958	0.028660461
123	0x3b2c0cf9	0.002625285
124	0xbbae5f50	-0.0053214207
125	0x3c587c68	0.0132132545
126	0x3d189c43	0.037258398
127	0x3dad6439	0.084663816
128	0x3ca8e263	0.020615762
129	0x3c61951f	0.013768463
130	0x3c7f87c0	0.01559633
131	0x3dc2125f	0.0947616
132	0x3db2b2b6	0.08725493
133	0x3dca0266	0.09863739
134	0x3be23126	0.0069028316
135	0x3d961962	0.0732906
136	0x3e221ac6	0.15830526
137	0x3f6c5f49	0.92332894
138	0x3e08b863	0.13351588
139	0x3da6018f	0.08105766
140	0x3be00fcb	0.00683782
141	0x3db9b0f4	0.09066954
142	0x3df08bd7	0.11745422
143	0x3e03947b	0.1284961
144	0x3d3d814a	0.046265878
145	0x3c765e48	0.015037127
146	0x3c643e24	0.013930831
147	0x3d713ac2	0.058893926
148	0xba8e7125	-0.001086746
149	0x3ca448b9	0.020054208
150	0xbbc543b9	-0.006020036
151	0xbbd02094	-0.00635154
152	0xbd06bdfa	-0.03289602
153	0xbc6db800	-0.014509201
154	0xbc4398c7	-0.01193828
155	0xbba0d075	-0.0049076625
156	0x3b33b243	0.0027419485
157	0x3e5e341d	0.21699567
158	0x3d2e3b99	0.042537306
159	0xbd104752	-0.035224266
160	0xbd7c2956	-0.06156286
161	0x3e8a2207	0.26979086
162	0xbf19442a	-0.59869635
163	0x3e0b3579	0.13594617
164	0xbd2e2dbb	-0.04252408
165	0xbd17cf97	-0.037063207
166	0x3ca1307a	0.019676436
167	0x3dc156c3	0.094403766
168	0xbc8a0fbf	-0.016853211
169	0xbc8fdfe4	-0.017562814
170	0x3c2ef5f4	0.010678757
171	0x3d111746	0.035422586
172	0xbcd5ecf0	-0.026113957
173	0xbcaea748	-0.02132
174	0xbadc977c	-0.0016829814
175	0x3d74cab1	0.059763614
176	0xbb6299f9	-0.0034576638
177	0xbce4a368	-0.02790995
178	0x3d1d8666	0.03845825
179	0x3cb0dd8e	0.02159002
180	0x3c9f37ac	0.019435726
181	0xbb82ef16	-0.0039957864
182	0x3e0900ec	0.13379258
183	0xbc0d28a4	-0.0086156465
184	0x3bd0776c	0.0063618924
185	0xbccb2cfd	-0.024801726
186	0x3e39ea75	0.18155845
187	0xbf587f58	-0.8456931
188	0x3d97f5ea	0.07419951
189	0xbadfb20d	-0.0017066613
190	0x3cff1d5d	0.031141931
191	0xbcfd572e	-0.03092536
192	0x3df98213	0.12183013
193	0x3cfa8590	0.030581266
194	0x3c31f41b	0.010861422
195	0x3d01f1e2	0.031724818
196	0x3cb3f072	0.02196524
197	0xbda81b27	-0.08208304
198	0xbc3c40a7	-0.011490024
199	0x3c64f38b	0.013974081
200	0xbbd93a80	-0.006629288
201	0xbd222ec2	-0.039595373
202	0x3cdbaf4d	0.026816988
203	0x3a8e1e53	0.0010842778
204	0xbd09a611	-0.03360564
205	0x3c7786fa	0.0151078645
206	0x3c11c92b	0.00889806
207	0x3de98829	0.114029236
208	0xbc598dd5	-0.013278444
209	0xbc58a5fe	-0.013223169
210	0xbb6dfb11	-0.0036312977
211	0x3e0aa93b	0.13541119
212	0xbf8a4aca	-1.0804074
213	0xbbfebe06	-0.0077741174
214	0x3df3048e	0.11866103
215	0x3ccf0e4d	0.025275374
216	0xbcf3a33a	-0.029740918
217	0x3d9cbede	0.076535925
218	0x3e019b59	0.12656917
219	0x3cd4873c	0.025943391
220	0x3ceb2da9	0.028708296
221	0xbbf99a83	-0.007617296
222	0x3bf839bf	0.0075752432
223	0xbc5988e1	-0.013277263
224	0xbd3849dd	-0.044992317
225	0x3adb1bea	0.0016716693
226	0xbd80a013	-0.06280532
227	0x3cf4a322	0.029862944
228	0xbcbab704	-0.022792347
229	0x3cff5847	0.031170024
230	0xbd0f194c	-0.034936234
231	0x3d28df82	0.04122878
232	0x3d0954e4	0.033528224
233	0x3d07a51f	0.033116456
234	0xbbf6f6a6	-0.007536727
235	0x3e0fb50a	0.14033905
236	0xbe409e2c	-0.18810338
237	0x3f81a5df	1.0128745
238	0x3d9dc9b1	0.07704485
239	0x3d545e8e	0.051847987
240	0xbdc61778	-0.09672445
241	0x3df4ff9d	0.11962817
242	0xbf8bf930	-1.0935421
243	0xbe642524	-0.22279793
244	0xbd56befd	-0.052428234
245	0xbcf7b69e	-0.030238446
246	0xbc289776	-0.010290017
247	0x39e87957	0.00044340894
248	0x3c6e1de5	0.014533495
249	0x3c07f31f	0.008297711
250	0x3cb0e69c	0.021594338
251	0xbce831bc	-0.028344028
252	0x3d621337	0.055194106
253	0xbc3a199e	-0.011358647
254	0x3c90d31d	0.017678792
255	0x3cc6917b	0.024239292

head_conv.0.bias f4 [36]
0	0x3ea27f59	0.31737784
1	0xbe4c90a3	-0.1997705
2	0x3dde9736	0.10868685
3	0x3bfc5e8c	0.0077017006
4	0xbeda3d33	-0.42624816
5	0x3e90c020	0.2827158
6	0x3ee09df7	0.43870518
7	0xbd5f266a	-0.054479994
8	0xbb995b5b	-0.00468008
9	0x3e74c946	0.23904905
10	0xbda04482	-0.07825567
11	0xbee7ddcc	-0.45286405
12	0xbd942b3e	-0.0723481
13	0x3dc45377	0.09586232
14	0x3d881171	0.06643952
15	0xbda8a6b5	-0.08234922
16	0xbd82d49a	-0.06388207
17	0xbd8336ff	-0.06406974
18	0xbce0f7ff	-0.027462004
19	0xbf858a7d	-1.0432888
20	0xbd87d3a5	-0.06632165
21	0xbd8bbe24	-0.06823376
22	0x3dd9cb96	0.10634534
23	0x3d92058f	0.071299665
24	0xbdab0045	-0.08349661
25	0xbeb6e96e	-0.35724968
26	0xbd9a2b52	-0.07527794
27	0xbf674d48	-0.90352297
28	0xbda771c7	-0.08175998
29	0xbd57fa58	-0.05272898
30	0x3afecb06	0.0019439168
31	0x3ec8552a	0.39127475
32	0xbdbe3e61	-0.092892416
33	0x3e70372e	0.2345855
34	0xbf4fa87a	-0.8111645
35	0xbd93fe38	-0.07226223

body_conv.0.0.weight f4 [12, 36, 1, 1]
0	0xbca9d85d	-0.020733053
1	0x3d152e58	0.03642115
2	0x3c4060d0	0.011741832
3	0x3c325d6c	0.010886531
4	0xba119838	-0.00055539934
5	0xbd5ff9e1	-0.054681662
6	0x3c55040b	0.013001452
7	0xbbcfaae7	-0.006337512
8	0xbb714230	-0.0036813132
9	0xbcf22b3b	-0.02956163
10	0x3be80936	0.007081176
11	0xbd969165	-0.073519506
12	0xbc405b8b	-0.011740576
13	0x3dc3d15b	0.09561416
14	0xbec694c5	-0.38785377
15	0xbbd6e4da	-0.006558043
16	0x3ed00068	0.4062531
17	0xbc37ed88	-0.011226065
18	0x3c8c195f	0.017101942
19	0x3bcd0f4a	0.006257926
20	0xbc2445d8	-0.010026418
21	0xbb2707df	-0.002548687
22	0x3d3ea737	0.046546187
23	0xbaae563d	-0.0013300847
24	0xb967c955	-0.00022104879
25	0x3a4c7027	0.00077986944
26	0x3c5760e3	0.013145658
27	0x3d032bff	0.03202438
28	0xbdd42790	-0.103591084
29	0x3b8e3f2b	0.0043410263
30	0x3c856dd5	0.016287724
31	0x3dade5a3	0.08491065
32	0xbc6cee8b	-0.01446117
33	0x3d0d60d3	0.034516167
34	0x3d2d16b0	0.042257965
35	0x3a98501b	0.0011620553
36	0xbbd8902e	-0.0066089844
37	0xbd0bfde4	-0.034177676
38	0x3c8e3ab7	0.017361982
39	0x3c576b4d	0.013148141
40	0xbd3e15a5	-0.04640736
41	0x3c417c5e	0.011809437
42	0x3de42dea	0.1114157
43	0xbb6f1b07	-0.0036484615
44	0x3af4da8d	0.0018680856
45	0x3cfeec6a	0.03111859
46	0x3c172918	0.009226106
47	0xbe364ebd	-0.17803474
48	0xbccd3340	-0.025048852
49	0x3bbda8a7	0.005787927
50	0x3db1c601	0.086803444
51	0xb8856dee	-6.36241e-05
52	0xbdb34ea3	-0.08755233
53	0xbcb437c6	-0.021999251
54	0x3cc25235	0.02372084
55	0xbd4a2a6e	-0.04935687
56	0xbc0b7586	-0.0085119065
57	0xbb99e3eb	-0.0046963594
58	0x3e0d32d2	0.13788918
59	0xbb110d7a	-0.0022133277
60	0x3bea446c	0.00714927
61	0x3c2b8b6f	0.010470255
62	0x3c0186ac	0.007905643
63	0xbcc972e6	-0.02459092
64	0xb93c5d2f	-0.00017963791
65	0x3bb2ce24	0.005456703
66	0x3c1e79fd	0.009672639
67	0x3e590232	0.21192244
68	0xbd06615f	-0.032807704
69	0x3d5d1017	0.053970423
70	0xbcc8d616	-0.024516147
71	0xbb798ffa	-0.0038080201
72	0xbc4e2992	-0.012583153
73	0xbe4be548	-0.19911683
74	0x3bb2b9fb	0.0054542995
75	0x3ac84103	0.0015278164
76	0xbbf4effa	-0.0074748965
77	0x3b0e26f7	0.0021690705
78	0x3c0738e7	0.008253313
79	0xbb09c95a	-0.0021024556
80	0xbb88abf2	-0.004170888
81	0x3e2b67bf	0.16738795
82	0x3a7fc65f	0.00097570376
83	0x3c6e9da6	0.0145639535
84	0x397622e1	0.00023473382
85	0xbdd5f068	-0.104462445
86	0xbd908af8	-0.07057756
87	0xbb4aaf54	-0.0030927258
88	0x3d982e98	0.07430762
89	0xbb304fc5	-0.0026903015
90	0x3ac6cf2f	0.0015167947
91	0x3aab85f6	0.0013086188
92	0x3b3a8d51	0.0028465579
93	0x3ba39950	0.0049926415
94	0xbbbce1c7	-0.0057642194
95	0xbf270d79	-0.6525493
96	0x3b3d7688	0.0028909761
97	0xbb68af46	-0.0035504862
98	0x3c306cb7	0.010768107
99	0xbd486050	-0.048919976
100	0x3e0bf19e	0.13666388
101	0xba19b624	-0.0005863628
102	0x3c94107a	0.018074263
103	0xbc879171	-0.016548844
104	0xbb1fce0f	-0.0024384295
105	0xbbb6c688	-0.005577866
106	0x3a87c055	0.0010357002
107	0x3b06a901	0.0020547512
108	0x3c50a498	0.012734555
109	0xbd1f22ea	-0.038851656
110	0xbc7144c6	-0.0147258695
111	0xbbff108d	-0.0077839554
112	0xbb1a162e	-0.0023511755
113	0x3d7848bc	0.06061624
114	0xbc88e360	-0.016709983
115	0x3bc03f9b	0.0058669574
116	0x3b929089	0.0044727963
117	0x3d0271b8	0.031846732
118	0xbbfcd19c	-0.007715417
119	0x3db8d34d	0.090246774
120	0x3c49f6f8	0.012326948
121	0xbdd64fa7	-0.10464411
122	0x3ed93c8c	0.42429006
123	0x3b881bb8	0.004153695
124	0xbee07a88	-0.43843484
125	0x3be27f56	0.0069121523
126	0xbc573a69	-0.013136485
127	0xbac1fde2	-0.0014800394
128	0x3c4e811a	0.012604022
129	0x3b89eb8e	0.0042089885
130	0xbd6499a2	-0.05581058
131	0xba709543	-0.0009177515
132	0xbac8f49f	-0.0015331692
133	0x389ac989	7.380831e-05
134	0xbc638396	-0.013886353
135	0xbd1044f3	-0.035222005
136	0x3dea2e57	0.1143462
137	0xbbfcaa51	-0.007710733
138	0xbb641062	-0.0034799804
139	0xbd74fed4	-0.059813336
140	0x3c585427	0.013203657
141	0x3d1fbdc4	0.038999334
142	0xbd69b53f	-0.057057615
143	0xba6975d5	-0.0008905803
144	0x3d086f91	0.033309523
145	0x3e28e953	0.16495256
146	0x3c83df37	0.016097648
147	0x3cf3c943	0.029759055
148	0xbd044cca	-0.032299794
149	0xbcb9fcab	-0.02270349
150	0x3d4c5ff2	0.049896188
151	0xbbb63c4c	-0.005561387
152	0xbc5c5e3c	-0.013450202
153	0xbe0e249e	-0.13881156
154	0x3d06305d	0.032760967
155	0xbdac8f47	-0.084257655
156	0xbd23f132	-0.040024944
157	0xbe7a2ec2	-0.24431899
158	0xbdaa49d6	-0.08314864
159	0xbc1cd5a2	-0.009572418
160	0x3da96dd8	0.08272904
161	0xbd222d80	-0.039594173
162	0x3d22d46c	0.039753363
163	0x3c6299f0	0.013830647
164	0xbd4d2f37	-0.050093856
165	0x3bc7e73b	0.006100563
166	0x3da38d68	0.079859555
167	0xbaf4be6a	-0.001867247
168	0xbc990ae5	-0.018681953
169	0x39b66fe6	0.00034797116
170	0x3d147fe5	0.036254782
171	0xbe420fe0	-0.18951368
172	0x3e995d84	0.2995416
173	0x3c53b8af	0.01292245
174	0x3ca28f13	0.019843614
175	0x3d861e87	0.065487914
176	0xbd091e70	-0.033476293
177	0x3d3484cd	0.04407196
178	0xba908f11	-0.0011028965
179	0x3bf2414e	0.007393039
180	0xbcdcf117	-0.02697043
181	0xbdf09ff9	-0.11749262
182	0xbb720435	-0.0036928777
183	0xbd5a5f03	-0.053313266
184	0x3ea09b91	0.31368688
185	0x3dfd6058	0.12371892
186	0xbe8f56ca	-0.27995902
187	0xbd88dc3a	-0.0668263
188	0xbd994938	-0.074846685
189	0x3dd5da9a	0.104420856
190	0xbe8236b4	-0.2543236
191	0xbd65c33a	-0.056094386
192	0x3e969cfb	0.29416642
193	0x3d9a8261	0.07544399
194	0x3cecb092	0.028892789
195	0xbcd1eb50	-0.025624901
196	0xbcf1f0de	-0.0295338
197	0x3d21168e	0.03932815
198	0x3d8f741b	0.07004567
199	0xbc5e7ad7	-0.013579092
200	0x3e89dc4f	0.26925895
201	0xbe52975d	-0.20565553
202	0x3de0b611	0.109722264
203	0xbb19ade2	-0.002344959
204	0x3e5e82f3	0.2172964
205	0xbd832000	-0.06402588
206	0x3e2acb29	0.16679062
207	0x3f47c3ba	0.7803303
208	0xbdea268c	-0.114331335
209	0xbe8aa357	-0.27077743
210	0xbcf65cfe	-0.030073639
211	0x3cad4bcc	0.021154307
212	0x3e88690b	0.2664264
213	0x3d037bc4	0.032100454
214	0xbf37c0b3	-0.7177841
215	0xbe49c9c6	-0.19705877
216	0x3e6a1220	0.22858477
217	0xbb9bb7d6	-0.0047521396
218	0x3c6990ef	0.014255746
219	0x3bcc9666	0.006243515
220	0xba9c9cc1	-0.0011948572
221	0xbd3ab057	-0.045578327
222	0x3b6fdb8c	0.0036599366
223	0xbadb0cad	-0.0016712152
224	0xbc0af266	-0.008480644
225	0x3bcb92dc	0.0062125754
226	0x3b44eae4	0.0030047232
227	0x3c5fac07	0.013651854
228	0xbb5b0224	-0.0033418024
229	0x3c4bff5c	0.012451019
230	0x3bd2f9df	0.0064384784
231	0xbc1f7217	-0.009731791
232	0x3aa554f8	0.0012613824
233	0xbbef2876	-0.0072985245
234	0x3c8609ad	0.016362036
235	0xbabf6fb1	-0.001460543
236	0xbb105309	-0.002202215
237	0x3b06bfa0	0.0020560995
238	0x3cd20f75	0.025642136
239	0x3bcbff82	0.0062255273
240	0x3b8fef78	0.0043925606
241	0xbbc802c5	-0.006103846
242	0x3ce2e72a	0.027698118
243	0x3e3822cc	0.17982024
244	0x3b3201d9	0.0027161746
245	0x3b165bbe	0.0022942866
246	0x3c96a3e0	0.018388689
247	0xbc9e5735	-0.019328693
248	0xbbf21a50	-0.0073883906
249	0xbbdc4a65	-0.0067227357
250	0x3ca3c86d	0.019993031
251	0x3b29851b	0.002586669
252	0xbe037c39	-0.12840356
253	0xbcc0ddbd	-0.023543233
254	0x3e8c9012	0.27453667
255	0xbdba8dc6	-0.091090724

body_conv.0.0.bias f4 [12]
0	0x3e75bf07	0.23998652
1	0x3eb23eac	0.3481344
2	0xbd324adf	-0.043528434
3	0xbe850ba0	-0.25985432
4	0x3ded4feb	0.11587509
5	0x3d86df64	0.06585577
6	0x3d39b970	0.045342863
7	0x3a196fae	0.00058531284
8	0xbeb4c288	-0.35304666
9	0xbe6490fb	-0.2232093
10	0x3e1d968a	0.15389457
11	0xbd230d19	-0.039807413

body_conv.1.weight f4 [12, 12, 3, 3]
0	0xbc5f26a6	-0.013620054
1	0xbe72933a	-0.23688975
2	0xbd8d5f6c	-0.06902966
3	0x3d912de4	0.07088831
4	0x3f10c4e3	0.56550425
5	0xbe58a698	-0.211573
6	0xbcc2ecd3	-0.023794567
7	0x3d931ad7	0.07182854
8	0xbe19fc12	-0.15037563
9	0x3d242531	0.04007453
10	0x3d4aef54	0.049544647
11	0xbd84799e	-0.06468509
12	0xbe822043	-0.2541524
13	0x3e2e19e4	0.17002064
14	0xbdd22309	-0.10260589
15	0x3dec6ca4	0.11544159
16	0x3d401a44	0.04690005
17	0xbd483383	-0.04887725
18	0x3de27e33	0.11059227
19	0x3cfd9f55	0.030959764
20	0xbd584f3f	-0.05280995
21	0x3e7ebe5e	0.24877307
22	0xbdd15a33	-0.10222282
23	0xbe31cb18	-0.1736263
24	0xbe0a778b	-0.13522165
25	0x3d71a51b	0.058995347
26	0xbc92b7e2	-0.017909948
27	0x3d40c6c3	0.047064554
28	0x3e6004e1	0.21876861
29	0x3920842a	0.00015308024
30	0xbe313243	-0.1730433
31	0xbed2c1b0	-0.41163397
32	0x3e227310	0.15864205
33	0x3d3760e1	0.044770125
34	0xbd5ee4ae	-0.054417305
35	0x3dee8785	0.11646942
36	0xbe9cf55d	-0.30655947
37	0x3f0f5fd0	0.56005573
38	0x3edb70ae	0.42859405
39	0x3dd1bc87	0.10241037
40	0xbd978928	-0.07399207
41	0x3f034398	0.51275015
42	0xbe962317	-0.29323646
43	0xbeebe518	-0.46073222
44	0xbd9de5cb	-0.07709845
45	0x3bbbbcad	0.005729279
46	0x3e92545b	0.28579983
47	0x3d83e9ac	0.06441054
48	0x3c63ef17	0.013911984
49	0x3e770694	0.24123603
50	0xbec33eef	-0.38133952
51	0x3c425fee	0.011863692
52	0x3e93774d	0.28801957
53	0x3dad22f3	0.08453932
54	0xbe37d720	-0.17953157
55	0x3e014042	0.12622169
56	0x3ea1f639	0.31633165
57	0x3dd5150a	0.104044035
58	0x3e1a34a2	0.1505914
59	0xbe55da61	-0.20884086
60	0xbc9d5182	-0.019203905
61	0x3edcd727	0.43132898
62	0x3e8e4db1	0.2779365
63	0xbd91715f	-0.07101702
64	0xbc574e9f	-0.013141303
65	0x3dd7db4b	0.10539874
66	0xbd4d8a74	-0.050180867
67	0x3f293617	0.6609816
68	0xbdc89ae5	-0.09795169
69	0xbc9dc843	-0.019260531
70	0xbe3c9815	-0.1841739
71	0xbcf9959c	-0.030466847
72	0xbd358966	-0.044320486
73	0xbde50b8b	-0.11183842
74	0x3d8e9557	0.06962078
75	0x3e8b17cd	0.27166596
76	0xbde50c08	-0.111839354
77	0xbc688ad5	-0.014193256
78	0xbde88afd	-0.11354635
79	0xbc9d0c92	-0.019171033
80	0x3c4a0281	0.012329699
81	0x3da77931	0.08177412
82	0xbe77afd4	-0.24188167
83	0x3e035694	0.12825996
84	0x3ef6c38a	0.4819606
85	0x3cddb1cb	0.027062317
86	0xbe182e21	-0.14861347
87	0xbc53cf1a	-0.012927795
88	0x3de9f467	0.11423569
89	0x3dc629a8	0.09675914
90	0x3e162d1d	0.14665647
91	0x3f055b19	0.5209213
92	0x3d440f89	0.047866378
93	0xbe2e81a3	-0.1704164
94	0xbe105edf	-0.1409869
95	0x3ef01f4a	0.46898872
96	0x3d8faeb8	0.07015747
97	0xbec55ae2	-0.385459
98	0xbea3cb09	-0.3199084
99	0x3ec84bf1	0.3912044
100	0x3e9a8a94	0.30183852
101	0x3d9be637	0.07612269
102	0xbe48e5ac	-0.19618863
103	0xbed321a2	-0.41236597
104	0x3cdf7f52	0.02728239
105	0x3d17a2f3	0.037020635
106	0x3e3ccf58	0.1843847
107	0x3dd50de3	0.10403039
108	0xbded1f30	-0.11578214
109	0xbe2ac497	-0.16676556
110	0x3c18b18b	0.009319673
111	0xbe6dfff2	-0.23242167
112	0xbc9d1cae	-0.019178715
113	0xbdcd4e26	-0.10024671
114	0xbd8db413	-0.06919112
115	0xbe02c3ee	-0.12770054
116	0xbd921c7b	-0.071343385
117	0xbb9158d0	-0.004435636
118	0xbcf1671c	-0.029468112
119	0xbcb8c9d8	-0.022557184
120	0x3c8cb79d	0.017177397
121	0x3e6cbc21	0.2311864
122	0xbd0a4317	-0.033755388
123	0x3b0f28c1	0.002184436
124	0x3d30bf69	0.043151293
125	0x3d19ca6e	0.037546568
126	0x3dfbf3a6	0.123023316
127	0xbe5656ff	-0.20931624
128	0x3dd32bab	0.103110634
129	0xbe07deb9	-0.13268556
130	0xbf306615	-0.68905765
131	0xbd69afbf	-0.05705237
132	0x3e59a301	0.21253587
133	0x3da24b8d	0.079245664
134	0x3ea01ae3	0.31270513
135	0x3dbb942a	0.091591194
136	0x3df04f30	0.11733854
137	0xbad36799	-0.0016128897
138	0x3e3ba2f1	0.18323876
139	0x3e45029a	0.19239274
140	0x3d0de56f	0.034642633
141	0x3d25ad6b	0.040448587
142	0x3dec3dce	0.11535226
143	0x3d957693	0.07298007
144	0x3e328a19	0.17435493
145	0x3db690a9	0.089143105
146	0x3cc0a612	0.023516688
147	0x3e0492cf	0.12946628
148	0xbe752e3d	-0.2394342
149	0xbd6e1500	-0.058125496
150	0x3d8af269	0.06784517
151	0xbd92494a	-0.07142885
152	0xbb3db429	-0.0028946495
153	0xbda531cd	-0.08066139
154	0xbc467cf3	-0.012114751
155	0x3d6978b3	0.056999873
156	0xbdae547b	-0.08512207
157	0x3eb3b4f9	0.3509901
158	0x3b0323b3	0.0020010292
159	0x3cb1b9e2	0.021695081
160	0xbacde106	-0.0015707321
161	0xbdac92cb	-0.08426436
162	0xbd792ab3	-0.060831737
163	0xbd9cd453	-0.07657685
164	0xbde4f643	-0.11179783
165	0x3c02bd3b	0.007979686
166	0x3ed2efad	0.41198483
167	0x3d34555a	0.04402671
168	0xbe04457c	-0.12917131
169	0xbc305526	-0.0107624885
170	0xbe022a68	-0.12711489
171	0xbcddb281	-0.027062656
172	0xbdd5ee0c	-0.104457945
173	0x3d23f6f8	0.04003045
174	0xbd4e00ff	-0.05029392
175	0x3e16872d	0.14700003
176	0xbd2874ac	-0.041126892
177	0xbd7fc69c	-0.062445268
178	0x3cf0548b	0.029337188
179	0x3d8f5831	0.06999243
180	0xbb4cddbb	-0.0031260091
181	0x3c75423e	0.014969407
182	0x3ca4a6db	0.020099094
183	0x3b5d8e88	0.003380688
184	0xbe3e0bf8	-0.18559253
185	0xbae1e809	-0.001723529
186	0x3ae5cc13	0.0017532132
187	0xbd3d660a	-0.04623989
188	0xbcae4249	-0.021271842
189	0x3ce14f88	0.027503744
190	0x3a7e48d2	0.0009700182
191	0x3d028161	0.031861667
192	0x3cc4abb9	0.024007665
193	0xbd185d53	-0.037198376
194	0x3d012564	0.0315298
195	0x3ca5c69a	0.020236302
196	0xbc1db1a5	-0.009624873
197	0xbaec31de	-0.0018020233
198	0xbdda635c	-0.106634825
199	0x3c7892ec	0.015171748
200	0x3dc212de	0.09476255
201	0xbcad95aa	-0.02118953
202	0xbcaaf161	-0.020867052
203	0xbc2a9136	-0.010410598
204	0xbd445f4c	-0.047942445
205	0x3bea83c9	0.0071568233
206	0xbda35fef	-0.07977282
207	0x3dbd3ce4	0.092401296
208	0x3d56e7e2	0.052467234
209	0xbd47e56d	-0.04880278
210	0xbc4fefb1	-0.012691424
211	0x3e1df6f8	0.15426242
212	0xbe0495f5	-0.12947829
213	0x3d36f0fa	0.044663407
214	0xbe0ea167	-0.13928758
215	0x3d3479d5	0.0440615
216	0x3dd1360c	0.10215387
217	0x3ccecbfb	0.02524375
218	0x3dd1bde6	0.102412984
219	0x3dbf3317	0.093359165
220	0xbe0ae864	-0.13565212
221	0x3b93850a	0.0045019435
222	0x3d96b664	0.07359007
223	0x3d47ea76	0.048807584
224	0x3e078d94	0.13237602
225	0x3d462c6d	0.04838221
226	0xbd337607	-0.04381373
227	0x3d280a63	0.04102553
228	0xbcdf5002	-0.02725983
229	0xbe235c64	-0.15953213
230	0xbd8ca7b1	-0.06867922
231	0x3d77cc6d	0.06049769
232	0xbd78e5aa	-0.0607659
233	0x3cc5688a	0.0240977
234	0xbd9d68f1	-0.076860316
235	0x3b72614d	0.0036984265
236	0x3b2025b0	0.0024436526
237	0x3dd688d3	0.10475316
238	0x3e81ce23	0.25352582
239	0x3d914712	0.07093634
240	0x3c829937	0.0159422
241	0x3d498065	0.049194712
242	0xbd2f8284	-0.04284908
243	0xbdd050ca	-0.10171659
244	0x3c85dcb9	0.0163406
245	0xbdb6c922	-0.08925082
246	0xbd891086	-0.06692605
247	0x3d84512c	0.06460795
248	0x3bdaa329	0.0066722822
249	0xbd37c0ea	-0.04486171
250	0xbd2ead3e	-0.042645685
251	0xbdbf0723	-0.09327533
252	0xbd8206b4	-0.06348935
253	0x3c5f3a0f	0.013624682
254	0xbd82e4ae	-0.063912734
255	0x3e532bde	0.20622203

body_conv.1.bias f4 [12]
0	0xbe2bd55a	-0.16780606
1	0x3d9fbcf8	0.07799715
2	0xbe4708a6	-0.19436893
3	0xbdf54bda	-0.11977358
4	0xbe32a0e4	-0.17444187
5	0x3dd95b7f	0.106131546
6	0xbe4efba5	-0.20213182
7	0xbe07d901	-0.13266374
8	0xbd1fbfdd	-0.039001334
9	0xbe41fa9f	-0.1894326
10	0x3de2135f	0.11038851
11	0x3d8ef9bf	0.06981229

body_conv.2.weight f4 [12, 12, 3, 3]
0	0xbdd89fcf	-0.10577356
1	0x3cfafb2a	0.030637342
2	0xbddfb466	-0.1092308
3	0xbe92111e	-0.28528684
4	0xbe8f0c5a	-0.2793911
5	0x3e319ed1	0.1734574
6	0x3c4f24ea	0.012643078
7	0xbcaaf48c	-0.020868562
8	0x3c847058	0.01616685
9	0xbcc86ca1	-0.02446586
10	0x3e7d07b7	0.24709974
11	0xbde5931b	-0.11209699
12	0x3e95f61e	0.29289335
13	0xbf182032	-0.59424126
14	0x3d9e1e82	0.07720663
15	0xbda9155a	-0.082560256
16	0x3e0bd8bc	0.13656896
17	0xbd7461dd	-0.059663642
18	0xbe7c53a4	-0.24641281
19	0xbd6bf2bc	-0.057604536
20	0xbd249279	-0.04017875
21	0x3be85603	0.0070903315
22	0x3cb5093c	0.02209913
23	0x3e3daa0d	0.185219
24	0xbda900bd	-0.08252094
25	0x3e2e91d1	0.17047812
26	0xbe168ad1	-0.14701392
27	0x3dec49bd	0.11537502
28	0x3deea572	0.1165265
29	0x3d8358d6	0.064134285
30	0x3db6d843	0.089279674
31	0xbe9d2a4d	-0.30696335
32	0x3e364249	0.17798723
33	0xbb8bd5ab	-0.0042674146
34	0xbda8f222	-0.08249308
35	0x3e10d9a0	0.14145517
36	0xbdca8f38	-0.09890598
37	0x3f06bd15	0.52632266
38	0x3d2572a9	0.04039255
39	0xbe84b786	-0.25921267
40	0xbe87c98e	-0.26520962
41	0x3e3b3624	0.18282372
42	0x3d848fba	0.06472726
43	0xbe8ad0f5	-0.27112547
44	0x3db29b4e	0.08721028
45	0x3df9605d	0.12176583
46	0xbf2537e7	-0.64538425
47	0x3e0124c3	0.1261168
48	0xbd33701e	-0.043808095
49	0x3f6544e6	0.89558256
50	0xbe913308	-0.28359246
51	0xbed87e0d	-0.4228367
52	0xbe947dcf	-0.29002234
53	0xbdb521b0	-0.08844316
54	0xbe4ade1a	-0.19811288
55	0x3deec1c0	0.11658049
56	0xbd03841f	-0.032108422
57	0xbe002eb9	-0.12517823
58	0x3d91fc23	0.071281694
59	0x3deb6cbc	0.11495349
60	0xbb850c83	-0.0040603294
61	0x3e07b0ca	0.13251033
62	0xbd5173e8	-0.051135927
63	0xbdc8b4fa	-0.098001435
64	0x3d59c69c	0.053167924
65	0x3dc6aa62	0.09700467
66	0x3ee81b30	0.45333242
67	0xbf0c5a5a	-0.54825366
68	0x3e559d1c	0.20860714
69	0xbcfe14a6	-0.031015705
70	0x3bb6ce8e	0.0055788225
71	0x3d2dc333	0.042422485
72	0xbd194ef6	-0.03742882
73	0x3ec5b98a	0.38618118
74	0xbe7f3773	-0.24923496
75	0xbeabff46	-0.33593196
76	0xbe3c2a70	-0.18375564
77	0xbd8a18ad	-0.06742988
78	0x3d9cffe1	0.076659925
79	0x3e65193e	0.2237291
80	0xbd5bea8b	-0.053690474
81	0xbdf3194c	-0.11870059
82	0x3e3220cd	0.17395325
83	0x3c1677e4	0.009183858
84	0xbdd4fea1	-0.10400129
85	0xbeadac54	-0.33920538
86	0x3e0cb83a	0.13742152
87	0x3dcaceef	0.09902751
88	0xbdb9bd0c	-0.09069261
89	0x3dfcc70a	0.12342651
90	0xbc89a07f	-0.016800163
91	0x3e1582d1	0.14600684
92	0xbca693a3	-0.02033407
93	0x3e3764ae	0.179095
94	0xbc8d584f	-0.017254023
95	0xbe923abe	-0.28560442
96	0xbcd674a1	-0.02617866
97	0x3da480fb	0.080324136
98	0xbdc135ca	-0.094340876
99	0x3da41ad8	0.080129325
100	0x3e516db3	0.20452003
101	0x3ca664a4	0.020311661
102	0xbec0afe9	-0.3763421
103	0x3eae91e4	0.3409568
104	0xbe505b7f	-0.20347403
105	0xbc43323d	-0.011913833
106	0xbdb3b26e	-0.08774267
107	0x3d40ca16	0.047067724
108	0x3d7f6a56	0.06235727
109	0xbafb7e02	-0.0019187334
110	0xbd4375cc	-0.04771976
111	0x3e56ab3b	0.20963757
112	0xbe8213c2	-0.254057
113	0x3f0de0ef	0.55421346
114	0x3c4ffd2f	0.012694641
115	0xbf26dfab	-0.6518504
116	0x3cc47cac	0.02398523
117	0x3e1663f5	0.14686568
118	0xbd359db4	-0.04433985
119	0x3dce5808	0.100753844
120	0xbdd6a83c	-0.10481307
121	0xbdb4a4c0	-0.08820486
122	0xbe46a2ee	-0.1939809
123	0x3d84c80d	0.06483469
124	0x3d5a45c4	0.05328919
125	0xbd79cb4d	-0.0609849
126	0x3d20ff82	0.03930617
127	0xbd2e39a7	-0.04253545
128	0x3dfd1db8	0.12359184
129	0xbe7945ca	-0.24343029
130	0xbf0d0089	-0.5507894
131	0x3da56bb9	0.08077187
132	0x3e7b25dd	0.24526162
133	0x3e599bc1	0.21250822
134	0xbdd782d0	-0.105229974
135	0xbcad020f	-0.021119146
136	0x3e2a24bf	0.1661558
137	0x3cdefdac	0.02722057
138	0xbd364853	-0.044502567
139	0xbe07b8ab	-0.13254039
140	0x3f051373	0.519828
141	0xbe6a5d07	-0.2288705
142	0xbcfaabaf	-0.030599443
143	0x3d1e34cc	0.03862457
144	0xbdb30df2	-0.08742894
145	0xbb8b2dd8	-0.0042474084
146	0x3e16106e	0.14654705
147	0x3e4707aa	0.19436517
148	0xbe71008b	-0.23535363
149	0xbe2a7864	-0.16647488
150	0xbd345350	-0.044024765
151	0x3e28babe	0.16477486
152	0xba994c8b	-0.0011695785
153	0xbd5dd37c	-0.054156765
154	0x3e2c5a9a	0.16831437
155	0xbd7cff70	-0.06176704
156	0xbc2084e2	-0.009797307
157	0xbc9944fc	-0.018709652
158	0x3c6ce347	0.014458484
159	0x3e91c697	0.28471825
160	0xbee8c342	-0.4546147
161	0x3ea3ec92	0.32016426
162	0x3d7bd690	0.06148392
163	0xbe0430be	-0.12909219
164	0x3daf3d20	0.085565805
165	0x3d6d44ae	0.057926826
166	0xbe08ee39	-0.13372125
167	0x3d4bd4f5	0.04976364
168	0x3df52ce6	0.11971454
169	0xbd4a70a9	-0.049423847
170	0xbce846b1	-0.02835402
171	0xbd1e41e9	-0.038637076
172	0x3c9df869	0.01928349
173	0x3e1f5b0e	0.15562078
174	0xbe6f73fc	-0.23384088
175	0xbe9cd3b9	-0.30630282
176	0xbddf507b	-0.10904022
177	0xbc542961	-0.012949319
178	0x3cedbe06	0.029021274
179	0x3e003a1b	0.12522165
180	0xbd83b439	-0.06430859
181	0x3e4f8af8	0.20267856
182	0xbde16824	-0.110061914
183	0xbe026dab	-0.12737148
184	0x3e29f742	0.16598228
185	0x3e2a3392	0.16621235
186	0x3d88cb70	0.066794276
187	0xbdfc5c47	-0.12322288
188	0xbdfff73b	-0.12498327
189	0x3ec2a3d0	0.38015604
190	0x3dd86b3b	0.105673276
191	0x3d88adba	0.06673761
192	0xbef76f25	-0.48326984
193	0x3e909913	0.28241786
194	0xbea8814d	-0.3291115
195	0xbe807998	-0.2509277
196	0x3abed13d	0.0014558207
197	0x3e0f1119	0.13971366
198	0xbc2f9345	-0.010716264
199	0x3d35bcd0	0.04436952
200	0xbe26e6cf	-0.16298984
201	0xbcc6aab3	-0.024251318
202	0x3f1daa49	0.6158796
203	0xbda7cbb8	-0.08193153
204	0x3d15c05f	0.036560412
205	0xbd1d720c	-0.03843884
206	0x3d4512eb	0.048113745
207	0x3c1c0a83	0.009523991
208	0xbdb5b10e	-0.08871661
209	0x3d196188	0.03744653
210	0xbdb4976d	-0.08817945
211	0xbd6c273d	-0.057654608
212	0x3d00fdc7	0.03149202
213	0xbe832341	-0.25612834
214	0x3e414e30	0.18877482
215	0x3e1acfd9	0.1511835
216	0x3c4e02d4	0.012573916
217	0xbe6c5cee	-0.23082325
218	0xbe11af18	-0.14226949
219	0xbd65c3de	-0.056094997
220	0x3eadb2b5	0.33925405
221	0x3ed4f1f0	0.41590834
222	0x3e0560b9	0.13025178
223	0xbf2d21b0	-0.6762953
224	0x3e1e48b1	0.15457417
225	0xbe038e5e	-0.12847278
226	0x3b6a87ef	0.003578659
227	0x3db69602	0.089153305
228	0x3f2d562f	0.6770963
229	0xbf37f658	-0.71860266
230	0x3c8a0115	0.01684622
231	0xbe8ef8f0	-0.279243
232	0x3e79b7c5	0.24386509
233	0x3e915540	0.28385353
234	0xbd426c76	-0.047466718
235	0xbeadfcb5	-0.33981863
236	0x3d35e7ae	0.0444104
237	0xbd54366d	-0.051809717
238	0x3e290105	0.16504295
239	0x3e7ff3aa	0.24995294
240	0x3e10deb6	0.14147457
241	0x3cf6500b	0.030067464
242	0x3df02e5d	0.11727593
243	0xbe5a9f70	-0.21349883
244	0xbd9eaa75	-0.07747356
245	0xbe75e411	-0.24012782
246	0x3da6c9dc	0.0814397
247	0x3e97d177	0.29651996
248	0xbd449dcb	-0.048002046
249	0x3d02cddd	0.031934608
250	0xbdb41c0c	-0.08794412
251	0x3b439490	0.0029843189
252	0x3e227999	0.15866698
253	0xbe546b2c	-0.20744008
254	0x3e49fb43	0.19724755
255	0xbeaeec98	-0.34164882

body_conv.2.bias f4 [12]
0	0xbce888ca	-0.028385539
1	0xbc949fc9	-0.018142598
2	0x3d157e0f	0.036497172
3	0x3de16096	0.110047504
4	0x3cabec54	0.020986713
5	0x3c8879e6	0.016659688
6	0xbbadbd4a	-0.005302106
7	0xbc8b3cde	-0.016996797
8	0x3c158fc3	0.009128514
9	0xbcaecda6	-0.021338295
10	0x3c87c01a	0.016571093
11	0x3ad1b081	0.0015998037

body_conv.3.weight f4 [12, 12, 3, 3]
0	0xbdac27d0	-0.08406031
1	0xbd06abfb	-0.032878857
2	0xbd9a3473	-0.07529535
3	0xbda4d487	-0.08048349
4	0x3effa3d8	0.4992969
5	0xbed23e1e	-0.41063017
6	0x3cb9d5a8	0.022684887
7	0xbe120ee7	-0.14263497
8	0x3de67c6a	0.11254199
9	0x3db795e9	0.0896414
10	0x3e2e58dc	0.17026085
11	0xbd2ca465	-0.042148966
12	0xbe559ca7	-0.2086054
13	0x3eede65a	0.46464807
14	0x3dd47c4e	0.10375272
15	0xbe0cdc1a	-0.13755837
16	0xbe11981c	-0.14218181
17	0xbc273aa7	-0.010206855
18	0x3e6e5e23	0.23278098
19	0xbeb3294b	-0.34992442
20	0x3e3914e2	0.18074372
21	0xbe33adb3	-0.1754673
22	0x3e99140d	0.2989811
23	0xbc153bb9	-0.009108477
24	0xbe07ac58	-0.13249338
25	0xbcf6ccaa	-0.030126888
26	0xbde7d060	-0.11319041
27	0xbdca30da	-0.09872599
28	0x3e6cffa3	0.23144393
29	0xbbd6789b	-0.006545139
30	0x3e1a26f2	0.15053919
31	0xbeb3c96a	-0.35114604
32	0xbd12992f	-0.03579062
33	0x3dcba9fe	0.09944533
34	0x3d14869e	0.036261193
35	0xbcf7677e	-0.030200716
36	0x3e26c021	0.16284229
37	0xbe3d6d60	-0.18498755
38	0x3e604855	0.21902592
39	0x3aecf204	0.0018077497
40	0xbe3b4355	-0.18287404
41	0xbcb27b73	-0.02178738
42	0xbdb4b08a	-0.08822735
43	0x3d1cc542	0.038274057
44	0x3ccece71	0.025244923
45	0x3e846772	0.25860173
46	0xbd2d13f4	-0.042255357
47	0xbd09c461	-0.033634547
48	0x3e415756	0.18880972
49	0x3da1e822	0.07905604
50	0x3d2d0d47	0.04224899
51	0xbe28560f	-0.16439079
52	0x3dd0580a	0.10173042
53	0xbbc4b499	-0.006002974
54	0x3e0c0d71	0.13677002
55	0x3da46e4c	0.0802885
56	0xbdceb74a	-0.10093553
57	0x3e90262d	0.28154126
58	0x3d70da84	0.058802143
59	0x3dd8366a	0.10557254
60	0x3e3c0fe4	0.18365437
61	0x3de2999e	0.110644564
62	0xbdec0da3	-0.115260385
63	0x3d99397f	0.0748167
64	0x3d6dfac1	0.058100466
65	0xbcf424e0	-0.02980274
66	0x3eb45f53	0.35228977
67	0xbeb9f9d1	-0.36323407
68	0x3dcfa401	0.10138703
69	0x3e08fc24	0.13377434
70	0x3cb7a2ea	0.02241655
71	0xbd2c3449	-0.04204205
72	0xbb9b5075	-0.004739816
73	0x3de56356	0.112005875
74	0x3e0d06c8	0.13772118
75	0xbe5d917f	-0.21637534
76	0xbdb03935	-0.086046614
77	0xbd8cfa75	-0.068837084
78	0xbe556809	-0.20840468
79	0xbdb1af30	-0.086759925
80	0xbd6e5ab9	-0.05819199
81	0x3d622404	0.05521013
82	0x3f2af29b	0.66776437
83	0x3e32edf5	0.17473586
84	0xbdd573b7	-0.104224615
85	0x3e2e15c6	0.17000493
86	0x3c16a78a	0.009195218
87	0xbe010eb0	-0.12603259
88	0xbe65f5a0	-0.2245698
89	0xbd04cb57	-0.032420482
90	0xbe1120b0	-0.14172626
91	0xbdad468c	-0.084607214
92	0x3c359b72	0.011084424
93	0x3d929148	0.071566164
94	0x3ed5fef6	0.41796082
95	0xbd94dd21	-0.072687395
96	0xbd38bfe8	-0.04510489
97	0x3da26648	0.07929665
98	0xbc63f77a	-0.0139139835
99	0xbe3c322f	-0.18378519
100	0x3da0cd67	0.078516774
101	0x3cbdd0e8	0.023170903
102	0xbd9a3ccc	-0.07531127
103	0xbdece416	-0.115669414
104	0x3e81e3b2	0.2536903
105	0x3dc07903	0.09398081
106	0xbd0b17dd	-0.033958305
107	0x3cdca330	0.026933283
108	0xbc162422	-0.009163888
109	0x3c977d48	0.018492356
110	0xbd1c4043	-0.038147222
111	0xbe832fbe	-0.25622362
112	0xbdab5577	-0.083659105
113	0xbc984d83	-0.018591648
114	0x3dbf6243	0.09344914
115	0x3e63dd2f	0.22252344
116	0x3de52e8c	0.11190519
117	0xbdcefe1c	-0.10107061
118	0xbde9cb54	-0.11415735
119	0xbd962068	-0.073304
120	0xbea62701	-0.32451633
121	0x3cb3eb32	0.021962736
122	0x3ec3ac11	0.38217214
123	0x3c2e17f9	0.010625833
124	0xbd6f2647	-0.058386113
125	0xbce48312	-0.02789453
126	0x3c8c6fb9	0.017143117
127	0x3ea4a7c8	0.32159257
128	0x3e57f435	0.21089251
129	0x3e0fa499	0.14027633
130	0xbd63ea0d	-0.05564313
131	0x3e133acd	0.143779
132	0xbe18b01a	-0.14910927
133	0xbe168ff0	-0.14703345
134	0x3d0cf8d7	0.034417
135	0xbda7cb94	-0.08193126
136	0xbe224581	-0.15846826
137	0xbdbb262c	-0.0913814
138	0x3e25da0a	0.16196457
139	0x3e14d714	0.14535171
140	0xbd71ced1	-0.059035126
141	0x3d7ad3cd	0.061237145
142	0x3d190faf	0.037368473
143	0xbcd379a6	-0.025814842
144	0x3daa2994	0.08308712
145	0x3caf3932	0.021389578
146	0x3dec1d47	0.11529022
147	0xbb1d24db	-0.0023978266
148	0x3c44708a	0.011989722
149	0xbe9c15ad	-0.30485287
150	0x3d2227c9	0.039588723
151	0x3e112d20	0.1417737
152	0xbd768442	-0.060184725
153	0x3c9b8968	0.018986419
154	0xbdd15ffb	-0.10223385
155	0xbd54ff12	-0.052001067
156	0xbe905022	-0.28186136
157	0x3f161dba	0.5863911
158	0xbdb8b21f	-0.09018349
159	0xbca4e3c0	-0.02012813
160	0xbdc3d450	-0.0956198
161	0x3e68d85e	0.22738788
162	0x3c3b4b27	0.011431492
163	0x3ebf5954	0.3737284
164	0x3e670527	0.22560559
165	0x3ebd5df2	0.36985737
166	0xbed1ce1a	-0.40977556
167	0x3ddeb7d3	0.108749054
168	0x3dbf8f35	0.093534864
169	0x3e94b957	0.29047653
170	0x3e24482c	0.16043156
171	0xbbc07a8c	-0.0058739837
172	0x3e2a6da6	0.1664339
173	0x3c6ad8f7	0.014333955
174	0xbcaac84a	-0.020847458
175	0xbdc0ea44	-0.094196826
176	0xbdbe5e3c	-0.092953175
177	0x3da6829e	0.08130382
178	0x3bf62037	0.0075111645
179	0x3c97ea4d	0.01854434
180	0xbd44b7cf	-0.048026856
181	0xbd65d171	-0.056107942
182	0xbdcb4f42	-0.099272266
183	0xbe486e28	-0.19573271
184	0xbeb674de	-0.35636038
185	0xbd385be9	-0.045009527
186	0xbdc28179	-0.09497351
187	0xbcda71d2	-0.026665602
188	0x3e0e5f76	0.13903603
189	0xbdfefc28	-0.12450439
190	0xbe540a21	-0.20706989
191	0x3df3fe0a	0.119136885
192	0xbe830fb2	-0.25597912
193	0x3d0c0cd2	0.034191914
194	0xbeb871c5	-0.360243
195	0xbd31ea30	-0.04343623
196	0x3d8ae4ea	0.06781943
197	0xbdb54c6e	-0.088524684
198	0x3bf2a13b	0.007404474
199	0x3e484625	0.19558008
200	0xbe1bccc5	-0.15214832
201	0xbdc23c48	-0.09484154
202	0xbf05302d	-0.52026635
203	0x3e15d901	0.14633562
204	0xbd2ca841	-0.042152647
205	0x3dff2259	0.12457723
206	0x3d1a82a4	0.037722245
207	0xbdf5e2bf	-0.12006139
208	0x3e8fc800	0.28082275
209	0xbe02ab03	-0.12760548
210	0x3cce548c	0.0251868
211	0x3e865706	0.2623827
212	0xbdbcb854	-0.09214845
213	0xbcbfa3f2	-0.023393605
214	0xbdf8b4fb	-0.12143894
215	0xbe15478f	-0.14578079
216	0x3daebb89	0.08531863
217	0x3eb241bf	0.34815785
218	0xbce1dafa	-0.027570236
219	0x3e3bdc54	0.18345767
220	0xbeb8151e	-0.3595361
221	0x3e036332	0.12830809
222	0xbce3dbb6	-0.027814727
223	0x3decaed7	0.115567856
224	0x3d526080	0.05136156
225	0xbd254498	-0.04034862
226	0xbdb70daf	-0.08938157
227	0xbdd427fd	-0.1035919
228	0xbe490c76	-0.1963366
229	0xbe068a65	-0.13138731
230	0xbbc0b700	-0.0058811903
231	0x3de264c2	0.11054374
232	0x3db071f0	0.08615482
233	0x3d2847ba	0.04108403
234	0xbe2b437f	-0.16724966
235	0xbe3f17e7	-0.18661462
236	0x3e0310ce	0.12799379
237	0xbe1ff189	-0.15619482
238	0x3e32510e	0.17413732
239	0xbe3e57ab	-0.1858813
240	0x3df48af5	0.119405665
241	0xbdebd840	-0.11515856
242	0xbc960c56	-0.01831643
243	0xbd3ef8a6	-0.04662385
244	0x3c832fff	0.016014097
245	0x3d350f82	0.044204243
246	0xbd3931da	-0.045213558
247	0x3e091738	0.13387764
248	0xbc93d072	-0.01804373
249	0x3bcbed1b	0.0062233335
250	0xbd0266f1	-0.031836454
251	0xbd362d7d	-0.044476975
252	0xbd18fd00	-0.037350655
253	0xbd8b9355	-0.06815211
254	0x3e1bebae	0.15226623
255	0x3d4ebc00	0.05047226

body_conv.3.bias f4 [12]
0	0xbb841bd6	-0.0040316386
1	0xbd0e9286	-0.034807704
2	0x3ced5a42	0.028973702
3	0x3c8d0945	0.017216334
4	0xbc8fd349	-0.017556803
5	0xbc93d041	-0.01804364
6	0xbce0f475	-0.027460316
7	0xbced7754	-0.028987564
8	0x3c0a2d41	0.008433641
9	0x3cc78a58	0.02435796
10	0xbc79b65f	-0.015241235
11	0xbb1d361f	-0.0023988558

body_conv.4.weight f4 [12, 12, 3, 3]
0	0xbc91b594	-0.017786779
1	0x3e3424d0	0.17592168
2	0x3c73717b	0.014858599
3	0xbda95166	-0.08267479
4	0xbe1e5122	-0.15460637
5	0xbeccd294	-0.40004408
6	0xbe41de91	-0.18932559
7	0xbe93b34f	-0.2884774
8	0xbd78c9cc	-0.060739323
9	0x3e89d3b6	0.26919335
10	0xbef5c6d8	-0.48003268
11	0x3c4d6bba	0.012537891
12	0x3ef3c896	0.47613972
13	0x3e29d3e6	0.16584739
14	0x3e5cb2fd	0.21552654
15	0xbdea5958	-0.11442822
16	0xbeae9b32	-0.3410278
17	0x3b59578b	0.0033163752
18	0x3c1abb79	0.009444111
19	0x3d8a15ab	0.06742414
20	0xbd99bbdf	-0.07506537
21	0x3ed1c382	0.40969473
22	0x3e0046e3	0.12527041
23	0x3e4fd11b	0.20294611
24	0x3dbe2f2a	0.092863396
25	0x3d765858	0.060142845
26	0xbe081200	-0.13288116
27	0x3e265939	0.16244973
28	0x3e24496c	0.16043633
29	0xbe811439	-0.2521074
30	0xbc4b848d	-0.012421739
31	0xbdb221e0	-0.086978674
32	0x3e379edf	0.17931698
33	0x3da437c9	0.08018453
34	0x3ecc487c	0.3989905
35	0x3d5f3ec7	0.05450323
36	0xbda5a528	-0.08088142
37	0x3f113018	0.5671401
38	0x3ea810bc	0.32825267
39	0xbe25e289	-0.16199698
40	0x3ce5f189	0.028069275
41	0x3ec604fa	0.38675672
42	0x3ca070ec	0.019585095
43	0x3e99812e	0.2998137
44	0x3e147449	0.14497484
45	0xbe164423	-0.1467443
46	0x3ec2ce9b	0.38048252
47	0x3daef5ee	0.08543001
48	0xbd1be2e9	-0.038058195
49	0x3d5f7327	0.054553177
50	0xbcdf2d23	-0.027243203
51	0x3caf258c	0.021380208
52	0xbe0d0b97	-0.13773952
53	0xbd8fe4da	-0.07026072
54	0x3db692f4	0.08914748
55	0x3eca8a1e	0.395585
56	0x3d846170	0.06463897
57	0x3dbe95b2	0.09305896
58	0xbe95149d	-0.2911729
59	0xbea03360	-0.31289196
60	0x3e074270	0.13208938
61	0xbe690e0e	-0.22759268
62	0xbe129fc9	-0.14318766
63	0xbd4ae4ec	-0.049534723
64	0xbe15e8b9	-0.14639558
65	0x3bc64899	0.006051135
66	0x3db3ab45	0.087729014
67	0x3e1ca21a	0.15296212
68	0x3d71310c	0.058884665
69	0xbe006f45	-0.12542446
70	0xbd375e33	-0.04476757
71	0x3d962ea7	0.07333117
72	0xbdfcbada	-0.123403266
73	0x3c7e00b8	0.015503101
74	0x3e790a1d	0.24320264
75	0xbe87dabf	-0.26534078
76	0xbe9b8b22	-0.30379587
77	0xbe3d972d	-0.185147
78	0xbd29f34e	-0.0414918
79	0xbd3e22e5	-0.046419997
80	0xbde9e9e2	-0.11421563
81	0x3d5506bd	0.05200838
82	0xbe6c4853	-0.23074464
83	0x3e83d09d	0.25745097
84	0x3eb8eef4	0.36119807
85	0x3e0b7ea9	0.13622536
86	0x3d9e3d65	0.07726554
87	0x3e9ac6e7	0.30229875
88	0xbe9051a5	-0.2818729
89	0xbdefcf2d	-0.117094375
90	0xbd807c2a	-0.062736824
91	0x3e8edf1c	0.27904594
92	0xbc7d423f	-0.015457689
93	0xbe4b1585	-0.19832428
94	0x3e38892d	0.18021078
95	0x3c363bc0	0.011122644
96	0xbd8df814	-0.06932083
97	0xbdab0ebb	-0.08352419
98	0xbda4541a	-0.080238536
99	0x3c6d19cc	0.0144714825
100	0xbdfffa42	-0.12498905
101	0xbde0dbc1	-0.10979415
102	0x3e83fdbc	0.2577952
103	0xbf4dcaa6	-0.8038734
104	0x3e1ea205	0.15491493
105	0x3dd1c2a4	0.10242203
106	0x3d4e5700	0.05037594
107	0x3d111f7f	0.035430428
108	0xbc130954	-0.008974392
109	0xbc19dd56	-0.0093911495
110	0xbd5b6369	-0.0535616
111	0xbd3dadee	-0.04630845
112	0x3eb46bae	0.35238403
113	0x3da22c02	0.0791855
114	0x3ca5c2f6	0.020234566
115	0xbf243d8f	-0.6415643
116	0xbea4405b	-0.3208035
117	0x3d855fbc	0.065124005
118	0x3cb0cfb2	0.021583412
119	0xbdc5b0e6	-0.09652881
120	0x3e4fa9aa	0.20279565
121	0x3ea89719	0.32927778
122	0xbd557a5b	-0.05211864
123	0x3e247426	0.16059932
124	0x3ead611c	0.3386315
125	0xbc62e731	-0.013849066
126	0x3cd1c2d1	0.025605591
127	0x3dc90e93	0.09817233
128	0x3dec7a2e	0.115467414
129	0xbc7941d3	-0.015213448
130	0xbe5c7e77	-0.21532618
131	0xbd222fa2	-0.039596207
132	0xbd20b535	-0.039235312
133	0x3ec2a2c4	0.38014805
134	0x3d7a1eed	0.06106465
135	0x3c841b7b	0.016126385
136	0xbce0fd5b	-0.02746456
137	0x3c34dfda	0.0110396985
138	0xbdfc0aed	-0.123067714
139	0x3f0915fd	0.53549176
140	0x3c90e71e	0.01768833
141	0xbc8f3660	-0.017481983
142	0xbea3ee6b	-0.32017836
143	0x3e04a186	0.12952241
144	0xbc05c5c5	-0.008164828
145	0xbde275da	-0.11057635
146	0xbddbd7d4	-0.10734525
147	0xbe16f43d	-0.14741607
148	0xbdf2a33f	-0.11847543
149	0x3cb7f2b4	0.022454597
150	0xbc319a20	-0.010839969
151	0x3e3021a7	0.17200337
152	0x3d89453b	0.06702658
153	0x3c495044	0.012287203
154	0xbd564688	-0.052313358
155	0xbb4a5d10	-0.0030878223
156	0xbdebe295	-0.115178265
157	0xbed05678	-0.4069097
158	0x3dfb90af	0.122834556
159	0x3cc6dabb	0.02427422
160	0x3eeac556	0.4585368
161	0xbd95015f	-0.07275652
162	0x3d2eda45	0.042688627
163	0x3c1f9dcf	0.009742214
164	0xbd2917af	-0.041282352
165	0xbe1bcd72	-0.1521509
166	0xbdcf59f6	-0.101245806
167	0xbd6eb464	-0.058277503
168	0x3d982e88	0.0743075
169	0x3ea2851a	0.31742173
170	0xbe4a3afb	-0.19749062
171	0x3d0271e7	0.031846907
172	0x3e47fb9b	0.19529574
173	0x3dbb7727	0.09153586
174	0x3d0a5dc3	0.033780824
175	0xbc716d3c	-0.014735516
176	0x3d4bd9fd	0.049768437
177	0xbe135560	-0.14388037
178	0xbe0947ef	-0.13406347
179	0xbe17ed6d	-0.14836664
180	0xbd75c1bc	-0.059999213
181	0xbd846301	-0.06464196
182	0xbc83bd29	-0.01608141
183	0xbc3c8514	-0.011506338
184	0xbcff601b	-0.031173756
185	0xbd547cfe	-0.051877014
186	0x3d948244	0.07251409
187	0x3e54a23a	0.2076501
188	0x3c570a9c	0.013125088
189	0xbd67eb76	-0.056621037
190	0xbd03d260	-0.03218305
191	0xbdc45e4a	-0.09588297
192	0xbd9044c3	-0.07044365
193	0xbe9ba3a8	-0.30398297
194	0xbcc6ac3c	-0.02425205
195	0xbc9a53af	-0.018838732
196	0xbd4a18ac	-0.049339935
197	0xbe6ca094	-0.2310813
198	0x3b286534	0.0025695087
199	0x3ce46bf0	0.0278835
200	0x3c565b71	0.013083325
201	0xbe22a9c9	-0.1588508
202	0x3ea0fae0	0.31441402
203	0x3dbb53fe	0.091468796
204	0x3d23daa3	0.04000343
205	0xbe81b5b0	-0.2533393
206	0xbdad1ade	-0.0845239
207	0xbca5d3a1	-0.020242514
208	0x3cd5d777	0.026103718
209	0xbd7c4378	-0.06158778
210	0xbde5fe9d	-0.11230204
211	0xbd83536b	-0.06412395
212	0x3d45aa1b	0.04825793
213	0xbdb9b651	-0.09067977
214	0xbe1834bb	-0.14863865
215	0xbc6f5355	-0.01460727
216	0x3c44625e	0.011986343
217	0xbb137105	-0.0022497785
218	0x3d3339c2	0.043756254
219	0xbdcd5849	-0.10026605
220	0x3e195b4d	0.14976235
221	0xbdc31726	-0.095258996
222	0x3d6b2634	0.05740948
223	0x3deceb4b	0.11568316
224	0xbc9bc091	-0.019012721
225	0xbdd24642	-0.10267307
226	0xbe25df29	-0.1619841
227	0x3ba81a3e	0.0051300814
228	0xbe00fb28	-0.12595809
229	0xbda6d9b4	-0.08146992
230	0x3d15a9b3	0.03653879
231	0xbdf7ed0a	-0.121057585
232	0x3deae222	0.11468913
233	0x3ca5da49	0.020245688
234	0x3ca52eb6	0.020163875
235	0xbe0baaae	-0.13639328
236	0xbd847dbc	-0.064692944
237	0xbddbf7aa	-0.107405975
238	0x3d50dc27	0.050991204
239	0x3defa045	0.11700491
240	0xbc1c763a	-0.009549672
241	0x3dd3bab4	0.10338345
242	0xbded3e9a	-0.11584206
243	0xbd6d7c29	-0.057979736
244	0x3a3995d8	0.00070795184
245	0x3c9a4fe6	0.018836927
246	0x3e1914c6	0.1494933
247	0xbdc41897	-0.09575003
248	0x3cbc5fd3	0.022994911
249	0x3d2e66d0	0.04257852
250	0xbdd5a920	-0.10432649
251	0x3ccd18d6	0.025036257
252	0x3dcd2dc7	0.10018497
253	0x3ea4892d	0.32135907
254	0x3e234306	0.15943536
255	0x3d841012	0.06448378

body_conv.4.bias f4 [12]
0	0x3ce3ab32	0.027791593
1	0xbe3b1a31	-0.1827171
2	0x3e53af46	0.2067233
3	0xbe6d6f04	-0.2318688
4	0x3d291b50	0.041285813
5	0x3dd43cf8	0.10363191
6	0xbe3a7f2d	-0.18212576
7	0xbd4e72b0	-0.050402343
8	0xbd6d3a54	-0.057916954
9	0xbd103188	-0.035203487
10	0xbd18ad0c	-0.037274405
11	0x3ec41b81	0.38302234

body_conv.6.0.weight f4 [36, 12, 1, 1]
0	0xbc314532	-0.01081972
1	0xbcdda87c	-0.027057879
2	0xbd040019	-0.032226656
3	0xbd23b8e5	-0.03997125
4	0x3e2f5ebc	0.17125982
5	0x3b19b872	0.0023455885
6	0xbcb37cb1	-0.021910043
7	0xbc49010b	-0.012268315
8	0xbc74a96f	-0.014932974
9	0xbbc8d718	-0.006129157
10	0xbd38f48a	-0.045155086
11	0xbbedcdcb	-0.0072571984
12	0xbe4cd0be	-0.20001504
13	0xbe8abc0b	-0.2709659
14	0x3d2f2622	0.042760976
15	0x3b83b52e	0.004019401
16	0x3c2d945d	0.010594455
17	0x3dc399dd	0.095508315
18	0x3db199d4	0.086719185
19	0xbe2e1160	-0.16998816
20	0xbc77bb36	-0.015120318
21	0xbba9fa11	-0.005187281
22	0x3ab8e23e	0.0014105511
23	0x3dd99f52	0.10626091
24	0xbe7b5b8b	-0.2454664
25	0x3e98a18a	0.29810745
26	0xbe1a478f	-0.1506636
27	0x3e0b5bbd	0.13609214
28	0xbc35c465	-0.011094187
29	0x3e30a5d0	0.17250752
30	0x3e2302cd	0.15919037
31	0xbe2a2e5e	-0.1661925
32	0x3c1d9a13	0.009619254
33	0xbd58e3c4	-0.05295159
34	0x3966622e	0.00021971084
35	0xbd147f5a	-0.036254264
36	0xbcbe3c78	-0.023222193
37	0x3dce447b	0.10071655
38	0x3cf8d08a	0.030372877
39	0x3cba9fda	0.022781301
40	0xbcc74886	-0.024326574
41	0xbd237383	-0.039905082
42	0x3e5cb769	0.2155434
43	0x3ca1cb85	0.019750366
44	0xbd1aa986	-0.037759326
45	0xbc48f20d	-0.012264741
46	0xbdc7d73e	-0.09757851
47	0x3cd45023	0.025917118
48	0xba1af8fb	-0.0005911735
49	0xbc3d34c6	-0.011548227
50	0xbb7ab5ca	-0.0038255327
51	0x3e338e3b	0.17534725
52	0x3d364517	0.044499483
53	0xbda2086b	-0.07911762
54	0xbd57d2c8	-0.05269125
55	0xbdfec932	-0.12440719
56	0xbbb0de56	-0.0053975983
57	0xbcb1b1ef	-0.02169129
58	0x3ad73211	0.0016418119
59	0x3e951be8	0.29122853
60	0x3e47648c	0.1947195
61	0xbe9b06cb	-0.3027862
62	0xbe7eae7c	-0.24871248
63	0x3d91bd59	0.07116193
64	0x3b4d6f9c	0.0031347042
65	0xbc4154db	-0.011800016
66	0xbde95a94	-0.113942295
67	0x3e332e98	0.17498243
68	0x3b9b7bd8	0.004744988
69	0x3d3bedda	0.04588113
70	0x3caba31c	0.0209518
71	0xbcce8692	-0.025210653
72	0xbdee9529	-0.11649544
73	0x3cc2ca59	0.023778128
74	0xbd99f75d	-0.07517884
75	0xbe459475	-0.19294913
76	0xbd4a11d0	-0.049333394
77	0x3d8457e4	0.06462076
78	0xbe1811a1	-0.14850475
79	0xbe13ff7a	-0.14452925
80	0xbb8588aa	-0.0040751295
81	0x3c24415c	0.0100253485
82	0x3cd85121	0.026405873
83	0xbe71519c	-0.23566288
84	0x3e160b8e	0.14652845
85	0xbdda896a	-0.10670741
86	0xbd67aa0d	-0.056558657
87	0xbe8eaf92	-0.27868325
88	0x3ca4e0bb	0.020126691
89	0xbd7343ca	-0.05939082
90	0xbeac405c	-0.33642852
91	0x3e08c271	0.13355424
92	0xbc31d3da	-0.010853732
93	0x3cec78c1	0.028866174
94	0x3bbb1d0d	0.00571025
95	0x3d340d52	0.043958016
96	0xbc3f2825	-0.011667286
97	0xbc2a41f0	-0.010391697
98	0x3d283e78	0.0410752
99	0xbc1a4e01	-0.009418012
100	0x3dc4bd38	0.09606403
101	0x3b67962b	0.003533731
102	0xbd891f87	-0.066954665
103	0x3c609f0b	0.013709794
104	0x3e1fcbe5	0.15605123
105	0xbb021ee1	-0.001985483
106	0xbe385bad	-0.18003722
107	0xbd5a6dea	-0.05332748
108	0xbd17279e	-0.036903016
109	0x3d30a63a	0.043127276
110	0xbdaec532	-0.08533706
111	0x3e0bc8cc	0.13650817
112	0x3d1a8561	0.037724856
113	0xbc9487c8	-0.018131152
114	0x3d45a10d	0.048249293
115	0xbd1def84	-0.038558498
116	0xbdb3c73b	-0.087782346
117	0xbc210b53	-0.00982936
118	0xbe2f7d8a	-0.17137733
119	0x3dc8e79d	0.09809802
120	0x3e0dceb0	0.13848376
121	0x3d2c70d0	0.042099774
122	0xbd269157	-0.04066595
123	0x3df677d7	0.120345764
124	0xbabc523d	-0.0014367771
125	0xbd280b23	-0.041026246
126	0x3de85146	0.11343627
127	0x3de48999	0.11159057
128	0x3c7d76b4	0.015470196
129	0xbc87515a	-0.016518284
130	0xbd9294b0	-0.07157266
131	0x3ea3cb82	0.31991202
132	0xbe332ea5	-0.17498262
133	0x3d38d6e1	0.0451268
134	0xbd81ca85	-0.06337456
135	0xbdac3b15	-0.084097065
136	0x3d09fbb5	0.033687312
137	0xbe9a6f7a	-0.30163175
138	0xbde97940	-0.1140008
139	0xbdf8366f	-0.121197574
140	0xbc5f17d1	-0.013616518
141	0xbcf653f2	-0.030069325
142	0xbc8f527d	-0.017495388
143	0x3e60fd0a	0.21971527
144	0x3ce74f91	0.028236182
145	0xbcf82a5f	-0.030293642
146	0x3dcc2479	0.09967894
147	0xbe07362b	-0.13204257
148	0xbe32fbf0	-0.17478919
149	0x3cb83536	0.02248631
150	0xbcfe7b2f	-0.031064598
151	0x3d030541	0.031987432
152	0x3dcef43c	0.10105178
153	0x3bc836d9	0.006110054
154	0x3e062f89	0.1310407
155	0xbdcb07ec	-0.0991362
156	0xbe195ec8	-0.14977562
157	0xbde55777	-0.11198323
158	0xbe59b78b	-0.21261422
159	0x3d085ae7	0.033289816
160	0xbcfd50a8	-0.030922249
161	0x3de0ac1d	0.10970328
162	0xbd02e9f8	-0.03196141
163	0xbee2eb7b	-0.44320282
164	0xbba612fe	-0.005068182
165	0xbc53038d	-0.012879265
166	0x3c52af0b	0.012859116
167	0xbdc5bc82	-0.09655096
168	0x3e08893d	0.13333602
169	0x3dc6afe0	0.09701514
170	0x3ba38118	0.0049897544
171	0x3d11118e	0.035417132
172	0x3d138ffc	0.036025986
173	0xbd333665	-0.043753047
174	0x3e544acb	0.20731656
175	0x3ca9d39d	0.020730788
176	0x3cdf7e95	0.027282039
177	0x3be152f8	0.0068763457
178	0xbc700aa2	-0.014650973
179	0x3d446fc0	0.047958136
180	0xbcd63186	-0.026146661
181	0x3e46fcb3	0.19432335
182	0x3d67dc18	0.056606382
183	0xbb038a8d	-0.0020071596
184	0xbd86dd33	-0.06585159
185	0xbd7848ac	-0.06061618
186	0x3d4731c0	0.04863143
187	0xbc95262e	-0.018206682
188	0xbd3b897d	-0.045785416
189	0xbc89427a	-0.016755331
190	0xbe0bbe75	-0.13646872
191	0x3d12bdd3	0.03582556
192	0x3db6e61e	0.0893061
193	0xbe239c44	-0.1597758
194	0x3d3a503b	0.04548667
195	0xbdf70da8	-0.120631516
196	0xbc392285	-0.011299734
197	0xbe31d10d	-0.17364903
198	0xbd36ef2f	-0.044661697
199	0x3e731b53	0.23740892
200	0x3c2a8c5a	0.010409439
201	0x3d4f346e	0.05058711
202	0x3cbfae00	0.0233984
203	0xbe812899	-0.25226286
204	0x3e895e32	0.26829678
205	0xbe5526c8	-0.20815575
206	0x3ce0598c	0.02738645
207	0xbdbe9852	-0.093063965
208	0x3b5627dc	0.0032677567
209	0xbdf970c4	-0.121797115
210	0x3ce041ad	0.027375067
211	0x3e829a9a	0.25508577
212	0x3c1946dd	0.009355274
213	0x3d637ae9	0.055537138
214	0x3d41187a	0.047142483
215	0xbe40e355	-0.1883672
216	0xbdc062b5	-0.09393827
217	0x3d990d1f	0.07473206
218	0x3d03e9cb	0.032205384
219	0x3d15b0c8	0.036545545
220	0xbce104ff	-0.027468203
221	0xbf21752e	-0.63069427
222	0x3c7b0052	0.015319901
223	0xbe5a5de9	-0.21324886
224	0x3b325fd8	0.0027217772
225	0xbcc46044	-0.023971684
226	0xbc5650aa	-0.013080755
227	0xbdf0efe6	-0.11764507
228	0xbe8ffd23	-0.28122815
229	0x3e0ad8ad	0.13559218
230	0xbced96a9	-0.029002504
231	0xbe9b9663	-0.30388173
232	0x3bb01d8f	0.0053746174
233	0x3e1a6e37	0.15081106
234	0x3da7ccbb	0.08193346
235	0xbe8807f9	-0.26568583
236	0xbc857d98	-0.01629524
237	0xbd862084	-0.065491706
238	0xbd5f248c	-0.054478213
239	0x3eb56d7e	0.35435098
240	0xbe48ea4c	-0.19620627
241	0x3e52ee26	0.20598659
242	0x3dd651c9	0.10464818
243	0x3e2db78a	0.16964546
244	0x3b9d8bd0	0.0048079267
245	0x3da0ce92	0.078519
246	0xbed57b4d	-0.41695634
247	0xbe881474	-0.26578104
248	0xbbbef353	-0.0058273464
249	0xbcd3bee8	-0.025847867
250	0xb9a9d5b5	-0.00032393416
251	0x3da92de3	0.08260705
252	0xbe169010	-0.14703393
253	0x3d063d4d	0.032773305
254	0xbdf3268e	-0.11872588
255	0x3ec81a0d	0.39082375
