benchmark/classsr/experiments/pre_trained_models/FSRCNN_branch3.pth (torch_old, 101280 bytes, 16 tensors)

head_conv.0.weight f4 [56, 3, 5, 5]
00000000: 46ed 0f3d ea8c adbb 3d0b b0bc dbc5 153d
00000010: c0a1 c5bb 518c 293d e789 68bc 7c0f c4bd
00000020: a231 df3d 4acd cdbd e0fd e1bd 1ac1 033e
00000030: 0a33 76be f941 573f d677 2fbf f6c4 bc3c
00000040: 6b4f 68bd 6703 383d 9de2 023c d11f 93bc
00000050: c3f6 213c 0a28 003d bb79 a83c 8197 a9bc
00000060: 8600 88bc 677a 0bbd 4b64 bb3b b620 5dbd
00000070: 8040 f9bc b606 293d 07c5 053d e320 a1bd
00000080: cc27 bdbc bd22 c83c 250e 8b3d 7c24 bdbd
00000090: d047 3e3e 93f9 69be 766e 4b3f 3096 21bf
000000a0: bde4 5a3c 9551 5fbd bbca c23d 8cc9 b7bd
000000b0: af89 9fbc 8cf3 243c 6e7a 33bc ef0b 60bc
000000c0: fce7 9fbd fc01 6c3d 5411 c9ba b707 2cbd
000000d0: d05c 8f3d 9b72 2bbd 9f52 783d 3c8c 0c3c
000000e0: f5b0 013b 33d4 bd3d 0ea2 81be 2586 293e
000000f0: 4597 bcbc 2bd0 c93d 88f7 c2be 25d8 ed3e
00000100: ba90 9abe f6e7 c73d c2b6 ffbd 6f9f 1c3e
00000110: 0657 53be 5c26 b73d 59eb dbbb 3447 54bc
00000120: f46f 813b d823 90bd 2277 eb3d 9fe5 abbc
00000130: a444 de3b 2b97 14bd c331 ecbc 9939 f13a
00000140: a1b0 eabb 7042 8cbd 68ad 5cbe 8cd9 c9bd
00000150: 03cb fb3c d2b1 4fbd 10ac 9cbe f1bf 9d3f
00000160: 3a40 2bbe f710 9ebb 1041 043d a409 03bd
00000170: d072 8abe 9531 63ba 20de aa3c b3a3 d438
00000180: a41c 9f3b 9d46 bfba 2cb3 d53c 5a3a 6cbc
00000190: 8e7b 45bc c4d1 9fbc 6498 a9bc 6bb9 0dbd
000001a0: 3e04 4ebb 92eb f6bc 8b8d 7eba 3b99 a0bd
000001b0: 9a3a ddbd ba8d b13c f8eb 0dbd eae2 27be
000001c0: badc 7f3f f2c6 c2bd 57c3 40bd b6ec 433b
000001d0: 4ea3 1bbc 7fc3 2ebe b303 b63c d384 2abd
000001e0: 889c 75bc 135c 73bc 5b6c c0bc 1d3c 793b
000001f0: d18f 05bd 62f0 363d db62 22bd 5a89 c5bc
00000200: 9a88 e13c d88c 1e3d a4a9 01bd bc0b 45bd
00000210: 8ea6 c73c 7f41 0dbe f348 f83c a703 a0bd
00000220: 28cd 87ba e708 b93e d1fd 5c3d 731a 7cbd
00000230: 6cb4 19bc a931 b1bd 3d84 353d d53e 71bd
00000240: 7b34 78bd f302 fd3c 3f26 cb3b b824 04bd
00000250: b734 763c 3f8e 073d b559 7b3c b248 b83b
00000260: 74f3 383d cf06 66bc b324 a13c c465 33bd
00000270: 7a9f abbc 64b8 5bbd 5701 adbd 5962 acbb
00000280: 62ef 1a3d 9d9a d7bb 20ec 3ebf 20fb 9abd
00000290: bb50 993d 02be 0abd fa66 623c 573d 5abd
000002a0: 8037 b3bc 9e7e 1dbc 7946 a03a d280 5539
000002b0: 1e57 123d 1ab3 e5bc 88c2 f83b efbd 0b3a
000002c0: 9678 463c 03c0 3e3d 8663 793c b4c1 213a
000002d0: b8b0 403c 2225 45bc b030 58bd facf ba3c
000002e0: 668c 543c 1eef 2c3d 88f9 07be d962 48bf
000002f0: 4d96 67bd e7f9 8b3c cfdc c6bb 3043 53bb
00000300: 1261 a8bd 6432 a53c d640 bbbb 7c11 543c
00000310: d788 71bc e62a e33c d1e3 f63b 5d6e fa3a
00000320: 9d21 34bc e257 203c d231 eb3c 1ce9 6dbc
00000330: f7ba 20bb 2c0c 343c 135a e93c 82d9 83bd
00000340: 8c8c af3c 94cd 54b9 4de8 8e3c bbbf b2bd
00000350: c3ad 37bf ff91 2cbd 83ca 983c 5ede d13c
00000360: bdf6 ca3c 78e2 39bd 2d9e 6f3c 0a30 f83c
00000370: 9091 323c 02bf 4cbc 5cc5 163c 4526 933a
00000380: efdb 443c b960 ba3c 6c22 aebd 7436 de3d
00000390: f1e5 16bd 7ba6 063c a681 9bbd 5230 2c3e
000003a0: 54ef 0fbe 0b06 2d3d d944 7e3a 9f67 ffbe
000003b0: 93cc 3f3f 9422 9dbe a1d7 133e c461 9bbd
000003c0: 0dba 553d d670 acbd aac5 fa3b 748f 8bbd
000003d0: 74b1 1c3d 5d4f 0bbd 9702 4c3d 13cb 5f3c
000003e0: 6028 a23b 6099 0a3c 3d8a 8b3d c849 a7bc
000003f0: 2f8e dbbb 5401 403c a087 b0bc aa81 85be
0.03513839 -0.0052963393 -0.021489734 0.036565643 -0.006031245 0.04139358 -0.014193035 -0.09573266
0.108981386 -0.100489214 -0.11034751 0.12866631 -0.24042907 0.8408504 -0.6854223 0.023043137
-0.056716364 0.04492512 0.007988599 -0.017959507 0.009885493 0.031288184 0.020565858 -0.020702126
-0.016601812 -0.03405228 0.005718743 -0.053986274 -0.030426264 0.041266166 0.032658603 -0.07867601
-0.023090266 0.024430627 0.06789807 -0.092354745 0.18582082 -0.22849111 0.79465425 -0.6311979
0.0133601995 -0.054521162 0.09511324 -0.08973989 -0.019474832 0.010067832 -0.0109544825 -0.01367472
-0.078079194 0.05761908 -0.0015340247 -0.041999545 0.070001245 -0.041857343 0.06062567 0.008578356
0.0019789313 0.092689894 -0.2531895 0.16555078 -0.02302135 0.09854158 -0.38079476 0.46453968
-0.30188543 0.0976104 -0.1248603 0.15295194 -0.20638666 0.08942863 -0.0067114052 -0.012956429
0.0039501134 -0.07038087 0.11497332 -0.020983515 0.006783085 -0.036276978 -0.028832322 0.0018404006
-0.007162169 -0.068486094 -0.21550524 -0.09855947 0.030736452 -0.050706692 -0.30600023 1.2324201
-0.16723719 -0.0048237997 0.03228861 -0.031991616 -0.2704072 -0.0008666751 0.02085787 0.00010139439
0.004855709 -0.0014593188 0.026086412 -0.014418209 -0.0120533835 -0.019509204 -0.020702548 -0.034600656
-0.0031435634 -0.030141626 -0.00097104226 -0.078417264 -0.10802193 0.021674026 -0.034648865 -0.16395155
0.99946177 -0.09510602 -0.04706129 0.002989573 -0.009499384 -0.17066763 0.02221856 -0.041630577
-0.014990933 -0.014853495 -0.023489168 0.0038030215 -0.032607857 0.04466284 -0.039645057 -0.024113346
0.027530957 0.038708538 -0.031655923 -0.048106894 0.024371412 -0.13794516 0.030308222 -0.07813197
-0.0010360824 0.36139604 0.053952996 -0.06154866 -0.009381395 -0.0865205 0.044315565 -0.058897812
-0.060596924 0.030885195 0.0061996276 -0.03226158 0.015027217 0.03309464 0.015341212 0.0056239003
0.04515405 -0.014039709 0.01967082 -0.043798223 -0.020950068 -0.053642645 -0.08447521 -0.0052607474
0.03782595 -0.0065797106 -0.7457905 -0.075674295 0.07486101 -0.03387261 0.013818497 -0.053281154
-0.02187705 -0.009612707 0.0012228034 0.00020361252 0.035727613 -0.028039504 0.0075915493 0.00053307315
0.012113711 0.046569835 0.015221482 0.00061705266 0.011760883 -0.012032779 -0.052780807 0.02280425
0.012972927 0.042220227 -0.13278782 -0.7827583 -0.056539822 0.017086936 -0.006068803 -0.0032236092
-0.0822164 0.02016563 -0.005714516 0.012943622 -0.014742098 0.027730417 0.007534482 0.0019106377
-0.010994342 0.009786578 0.02871028 -0.01452091 -0.0024525502 0.01098923 0.028485334 -0.06437971
0.021429323 -0.0002029448 0.017444754 -0.08727976 -0.71749514 -0.04213142 0.018651253 0.025618728
0.024775857 -0.045381993 0.014625114 0.030296344 0.010898963 -0.012496712 0.009202328 0.0011226615
0.012015327 0.0227512 -0.08502659 0.1085023 -0.036840383 0.008218403 -0.07593088 0.16815308
-0.1405614 0.04224209 0.000969959 -0.49883744 0.7492153 -0.30690444 0.14437725 -0.07587007
0.052179385 -0.08419959 0.007652958 -0.06814471 0.03825517 -0.034011234 0.049807157 0.0136592565
0.0049486607 0.008459419 0.06813476 -0.020420924 -0.006700299 0.011719067 -0.021549046 -0.26075488

head_conv.0.bias f4 [56]
00000000: 9706 16bd 671f 24be 06e5 e53b 6af7 d3bd
00000010: 3d03 1f3f 3117 2fbe 6d0d ac3d 175e 8abe
00000020: 0c86 e83e 802e da3c b0a6 5b3e f47f 02bf
00000030: 48a8 98bd 30ee f6bd 6e86 07be 3847 aebf
00000040: f853 07bf 7bba dbbd 9c5f e73c e6b9 6bbd
00000050: dc79 c43e 7e7a d33c 2502 e63c 5bdf 383d
00000060: 74ec 073f 463f 06be 3d65 b33d e4ea 693e
00000070: 3b61 6e3a ed57 afbe b488 0d3f e083 8cbd
00000080: e85b f0bd 5d76 eabe 3232 143e 4b62 1ebe
00000090: c610 953c 7c04 8dbd 97b2 87bd a15a 0fbe
000000a0: 0416 64bc 2184 a4bf 4ab8 7a3d 516b 8ebe
000000b0: afb8 453e f4ff b8bc 1b02 8dbe 5eaf 933d
000000c0: 548b 77bd 8afc d0bc d0e8 a9bb 62b8 f53e
000000d0: 3cc7 50be 4a67 273d eafd 41be f427 01be
-0.03662738 -0.16027604 0.007015827 -0.10349925 0.62114316 -0.1709869 0.08400998 -0.2702491
0.4541477 0.026633501 0.21450305 -0.5097649 -0.07453972 -0.120571494 -0.13234875 -1.3615484
-0.528625 -0.10728928 0.028243832 -0.057550333 0.3837422 0.025815245 0.028077194 0.045134883
0.53095174 -0.13110074 0.08759544 0.2284351 0.0009093468 -0.3424677 0.5528672 -0.06861091
-0.1173628 -0.4579343 0.14472273 -0.15467183 0.018196475 -0.06885621 -0.0662586 -0.13999416
-0.013921265 -1.2852823 0.061210908 -0.2781625 0.19308732 -0.022582985 -0.2754067 0.07211183
-0.060435608 -0.025511045 -0.005185224 0.47992235 -0.20388502 0.04086999 -0.18944517 -0.12612897

body_conv.0.0.weight f4 [12, 56, 1, 1]
00000000: a9aa cd3b 9579 1dbc 00df cdbb f801 dabb
00000010: bded 11ba bac7 1c3c 95a9 bdbc 48bf b73b
00000020: 4959 2fbc 70b3 17bc a1c0 343d ac3a 4ebc
00000030: 7a85 a3bb f614 d23b aca2 573c 0cd0 c3bb
00000040: 596b e5ba 8d53 dd3b c14b d93b a5e3 d5bc
00000050: 0984 5abc b9f1 e6bb 6292 febb 61d0 7a3c
00000060: e07d cc3b b00e e63a bba2 053d a2d9 3bbd
00000070: 4b1f 5dbc 7d6b 123d b323 9b3b 5870 293c
00000080: 0e2b c1bc 7a3e 083c 1972 ccba 3f6e b639
00000090: ae8a 163c 1abd 8f39 755e f93c 6f67 36bc
000000a0: 7096 993c 64a0 433c 1074 933c f352 4e39
000000b0: ca57 173c 5c44 e0bb d3ee ef3b 39ca 78bf
000000c0: f7a5 123f 8a14 fcbb 7a28 49bb e3c1 1dbd
000000d0: c0cb 1b3c b8a0 fb3b be3b a43a aa67 053b
000000e0: b02c 23bb 4758 223e 7450 0bbe db81 613d
000000f0: e86d c23d c5a6 f4bc ca62 9b3e 518b d9bd
00000100: 4512 5fbe c3ca 893d a606 a23d 5f4d 693d
00000110: b997 d83b 31d3 95bc 5fcc dbbb a610 453f
00000120: f424 b7bd c200 643d 21b1 80bd 685a 903d
00000130: c1cf 953e b58c 94bd afee 7c3c 027c 68bd
00000140: 3062 a73d cdfb ea3c be60 6ebd f06c 373c
00000150: ae41 a73e 8966 083f 2375 f23d 3a60 04bd
00000160: a3fe e0bb 48f5 723e 30eb b5bc e3ad 053d
00000170: 3ce8 37be d32a 52bc 5f12 eabc abd3 673c
00000180: 8bba 04bd 09c8 ec3c d0f9 20bb 7b41 213c
00000190: 546b 14be 85c1 36bd bd79 69bd bb93 0fbd
000001a0: 95d8 033e 73b9 303e 0a2d 293e 4c85 fe3d
000001b0: 82f4 143d ef5c f83d c85d 12bc 3d69 1e3d
000001c0: 1d1e 9abb 84f6 4e3c a269 8e3c 4cd7 a13b
000001d0: 1d36 b6bb 84fd 33bc a419 fc3c 774f afbb
000001e0: 92a4 413d 7d73 b6b9 afde 123d 9f5e e93b
000001f0: 7540 a9bb 46b5 babb 6363 01bc 6d55 543b
00000200: b25f 5e3d 10e3 a13c 1793 26bf 0642 8b3c
00000210: 2bdb f9bb 88cc 33bb d449 4c3c dc92 cb3c
00000220: 0aae 57bd a25c 843b a8e2 723d 0d3b 07be
00000230: a1ec 81bb ea3e b83e e286 e73c f655 6d39
00000240: 04f2 883c f2bb f0bc 302a b9bb 8276 d8ba
00000250: 1eaf 03bd b589 94bb a8d2 a6bc 3dca 4c3b
00000260: ce55 18bc 511e d2bb fa60 18bd bec4 4a3b
00000270: 38ec 333d 8ad3 b33b 6b63 0abc 05e3 bcbb
00000280: ec13 243c b747 ad3e 7c50 be3c 85ee 72bd
00000290: daab 20bc 550e 80bb 66cf 19bb 527c c93b
000002a0: 8a64 9f3d 3a5f 28be 2a2d 9d3e f6d3 9abc
000002b0: 40bf 5dba d040 aa3c 3887 6cbe a04c bfbd
000002c0: 05ea 6b3d 860d dfbd 48df d2bd 3157 e8bd
000002d0: fa02 0cbd 72ae 3c3d 0e0a 1d3c 5f5f fbbd
000002e0: 183a 17bc 6664 393c a922 893d dd18 59bb
000002f0: 1b3d 26ba 6119 9cbd fa39 16bd e48c 3e3e
00000300: 19e8 273d 5085 af3d 854d 53bc c04a 2a3e
00000310: 3ae8 113e f1c5 ccbd b410 75be e3d9 133c
00000320: bc4d d93b 452c a7bc 5f21 7fbd 654c b7bc
00000330: 3793 bcbc 0d38 183d c2ea 893d c7bb 263d
00000340: a348 143c 3057 333c ca87 813b 618e 89bc
00000350: b497 2bbe 1628 bd3c 533f 573d 320a 66bc
00000360: 60d7 af3d 1237 0fbd c873 a23c 8d73 adbd
00000370: ab02 a4bc 2c01 3fbd d652 8c3a 9c43 69bc
00000380: c96d b93d 8607 cd3b 6594 2c3f c79a f6bd
00000390: 5625 7c3c 1714 60bd 81ac 963c e535 bfba
000003a0: f96b 683e eccd adbe 79ea f3bb 255a 4f3e
000003b0: 6199 263e 582b 4abe c654 26be 53e2 1fbe
000003c0: 0b00 003e a33c 183e ffa0 d73d 8ea7 ac3e
000003d0: 74c0 01be 57bd 223d f206 15be 2a4b a23d
000003e0: cc42 e8bd 665a 503d bcc6 4a3e 820b 313d
000003f0: a25c af3d e6ae 81bf fba0 623c 75c3 7e3e
0.006276448 -0.009611507 -0.006282687 -0.0066530667 -0.0005566737 0.009569103 -0.023152152 0.0056075193
-0.01070244 -0.00925909 0.044129018 -0.012587231 -0.004990277 0.00641119 0.013161343 -0.005975729
-0.0017503306 0.006754345 0.006631345 -0.026109526 -0.013337144 -0.0070478586 -0.007768915 0.01530847
0.0062405914 0.0017551985 0.032625895 -0.045861848 -0.01349623 0.03574704 0.0047344803 0.010341726
-0.0235801 0.008315677 -0.0015597969 0.00034795885 0.009188337 0.00027415977 0.030440548 -0.011133059
0.018748492 0.011940096 0.017999679 0.00019676592 0.009237239 -0.0068440866 0.0073221712 -0.9718357
0.5728449 -0.007692878 -0.0030694292 -0.038514983 0.009509027 0.0076790713 0.0012530012 0.0020355978
-0.0024898462 0.15853988 -0.13604909 0.05505548 0.09493619 -0.029864678 0.30348808 -0.106222756
-0.21784313 0.06728127 0.07911424 0.056958552 0.0066098836 -0.01828918 -0.0067077125 0.7697853
-0.08942595 0.055664785 -0.06283785 0.070484936 0.29260066 -0.072534 0.015437766 -0.056758888
0.08173025 0.028684521 -0.05819773 0.011195406 0.32667297 0.53281456 0.11838748 -0.03231833
-0.0068662926 0.2372638 -0.022206873 0.032636534 -0.17959684 -0.012827593 -0.028573213 0.014149587
-0.032404464 0.028903978 -0.0024562962 0.009842272 -0.14494067 -0.04461815 -0.057000864 -0.035052996
0.12875588 0.17258243 0.16521087 0.12427768 0.036365993 0.12127101 -0.008933492 0.03867458
-0.004703297 0.012632016 0.017384354 0.0049389955 -0.00556065 -0.010985736 0.030773945 -0.005350049
0.047276087 -0.0003479979 0.0358569 0.0071218754 -0.0051651546 -0.005697879 -0.007897231 0.003239955
0.05429048 0.019761592 -0.6506819 0.016999256 -0.007625004 -0.0027435143 0.012468774 0.024850301
-0.05265621 0.004039363 0.059298187 -0.1320612 -0.003964976 0.359855 0.02826256 0.00022634104
0.016716965 -0.029386494 -0.005650781 -0.001651481 -0.032149427 -0.0045330175 -0.02036412 0.0031248473
-0.009297801 -0.0064123054 -0.03720186 0.0030940021 0.043926448 0.005487864 -0.008446555 -0.0057643675
0.010014515 0.33843777 0.023231737 -0.0593095 -0.009806598 -0.0039079585 -0.0023469566 0.0061488533
0.07782848 -0.16442576 0.3069852 -0.018899899 -0.00084589794 0.020782858 -0.23098457 -0.09340787
0.057596225 -0.10891251 -0.10296494 -0.113447554 -0.034182526 0.0460648 0.009584917 -0.1227405
-0.009230159 0.011315441 0.06696064 -0.0033126392 -0.0006341503 -0.07622028 -0.036676385 0.18608433
0.04099283 0.08570349 -0.0128969 0.16630077 0.14248744 -0.09998692 -0.23932153 0.009024116
0.006631581 -0.020406852 -0.062287685 -0.022375295 -0.023019416 0.03716283 0.067342296 0.040706422
0.009050521 0.01094608 0.003952955 -0.016791524 -0.16757089 0.023090404 0.052550625 -0.014040517
0.085860014 -0.03496463 0.0198306 -0.08469305 -0.020020803 -0.046631977 0.0010705839 -0.014237311
0.09054143 0.0062570004 0.6741393 -0.1204124 0.015389761 -0.05470666 0.018392803 -0.0014588205
0.22697438 -0.33946168 -0.007443723 0.20249231 0.16269447 -0.19743097 -0.16243276 -0.1561368
0.12500016 0.14866881 0.105287544 0.33721584 -0.12671071 0.03973135 -0.1455343 0.07924493
-0.113408655 0.05086746 0.19802374 0.043223865 0.0856259 -1.01315 0.013832326 0.24879248

body_conv.0.0.bias f4 [12]
00000000: f783 a43c 3624 1cbf e995 273d 6d96 223e
00000010: 85b5 143e 947e 093e 7ffe 00bb 9da0 f23d
00000020: ef6b 9e3c 6f80 bb3e 0d60 c5be e9bd b0bd
0.020082457 -0.60992754 0.04091445 0.15877695 0.14522369 0.13427192 -0.0019682941 0.11847041
0.019338576 0.36621425 -0.38549843 -0.086299725

body_conv.1.weight f4 [12, 12, 3, 3]
00000000: 0a54 22bd cc1d 533e f7a3 e63b 1d83 cc3d
00000010: 4291 afbd 19b5 b3bd 7536 91bd f90b fb3b
00000020: f103 b23c 3b4f d6bd ddb5 b5be f729 f53a
00000030: 3bd2 a2bd bbd4 ef3e 9a28 b03c a596 ec3c
00000040: edd9 71bd f050 053e 2667 0cbd 529f 2c3c
00000050: 8657 e0bc 4076 7f3e 17bf 06be 71af 963d
00000060: 5a27 adbd cff5 62bc cc5f c6bd fac1 12bd
00000070: 7665 18be 21c8 d9bd 1a49 973d b7a6 1d3e
00000080: 07e9 923d 9b30 8b3b ff35 1abe d3f1 863d
00000090: 9f0b ea3b 7089 003b f96c 8dbd cad8 fe3d
000000a0: badb a7bb 847c a3bd a0b0 033d 6420 33be
000000b0: a2ef 253d f8b1 1ebc b0e2 53bd ce59 91bd
000000c0: 4a64 83bd 167e 40bd 14a8 5e3e 58f8 85bb
000000d0: 818e 603c 0ac8 773c fa55 973d 46c9 66be
000000e0: 2f7a 93bd 004f a13d 1c87 f8bc ffcb 7bbd
000000f0: 74de 8f3c 2ee1 4fbd 3252 88be 92c0 aabd
00000100: 5723 283d 4687 f2bd 6adf 9abd b6b6 98be
00000110: d401 25bc 73a5 003d 2f22 e73c 5df4 2d3d
00000120: d5c4 87bb d2f8 22bd 4bfd 3ebd 5824 663d
00000130: 8a5d 61bd e537 fc3d 39c5 1e3d 1889 67bc
00000140: 2e18 0e3e 4a74 923c 56ac f33d b52e f23c
00000150: d577 c2bd f575 3dbf 0692 b93e 5855 913c
00000160: 68e2 a43e 0933 a43d b9dc c9bb 7e7b 42be
00000170: c2c9 13bd f935 b83d 6c06 2d3f f796 abbe
00000180: 5a1e fd39 20dd 9abe 3c9e a1bd 24dc ca3c
00000190: 2413 0dbf 4066 90bd ec62 86be 21ab d8bd
000001a0: bb24 afbe 0795 e3bc 28e7 aebe d2d7 91bc
000001b0: 9d39 7cbe d26b ea3e 2532 2d3d eefd 5f3e
000001c0: 33f1 273d f210 3d3d 0bff e9be b0db 87bd
000001d0: c62e dcbc e773 1cbe b326 b93d 8542 463d
000001e0: 3011 f03d cca8 dabe e787 f43c 5279 a7bd
000001f0: 4918 2e3e abed b03d 881d aebd 29be fc3d
00000200: 49e4 21bd 284e be3e 75fe be3e 2704 f9be
00000210: b442 ffbc 1fb7 35be 240b 02bd fa31 75be
00000220: 1992 b33d ea15 923d 5b2c 253e 6e86 8ebe
00000230: de82 f13b 35c5 9f3d c4ab c93d 4199 95bd
00000240: 1a7d e3bd fee5 e93d 8db7 0ebd 1f58 983e
00000250: c9e3 c5be f362 5e3d 4b61 06be 282e 7fbe
00000260: d8c5 9f3d 1cf2 923d 978f 42be 8a64 d4bb
00000270: 3ab0 b9be c552 f63e c8ca 803e df70 c93c
00000280: 7b54 5ebe 9a94 08be 7212 1c3e 419e b6be
00000290: 5cde 27be e6d2 b2bd e611 a23d 9a76 a6be
000002a0: 1a19 af3d 88a1 98bc f0c4 083d 41fa 503d
000002b0: 79be 92be c131 96bc 78cc e3bd 71f1 6ebe
000002c0: 0d7e 8f3e ff33 033e 5d8a b43d c07a b6bd
000002d0: b8d8 31bb b098 68bd 1055 98bc 9327 1e3e
000002e0: 4b43 52be 0d15 453e e8b5 403e 8643 b73d
000002f0: e417 223d 27bf 33bd 2ae3 39bc f36c 493d
00000300: 9d50 70be ebbc b63e 5c30 5abd 175e 8ebd
00000310: 9ae9 9a3d 5189 a2bd f6e4 293c 5772 b33b
00000320: 238a 01bd 564b 023e 68d7 63be d68c 9fbc
00000330: 6353 ca3d c25b 843d a155 f73a 28ad 353d
00000340: 8f1a 2f3e 7f4b 073d 010e 933e 5c71 c1bd
00000350: 85b3 a23c 5a1c f33b 2c60 e63e e14d c93d
00000360: 439a ae3d 019b 90be 11ff 16be b22f 7cbe
00000370: 2df8 843f c57e eabd 6957 2b3d 90df 3ebe
00000380: 7417 d6bd cac5 093d 4b4e ce3d 2f8e 8bbd
00000390: bf44 b63c 5e07 7bbe ef6f 1c3e bb11 93bd
000003a0: 1bc9 e33d c03c 97bd 4dc6 2dbd 1c43 e73d
000003b0: 551b f8bd 91d9 91be cb24 603e a5f5 d33e
000003c0: 3c4d 08be 221a 1e3e cdf8 3abe fe00 e03c
000003d0: 87d3 303e f44e 42bd aed2 3c3e 389f 5a3e
000003e0: 2db1 e5bc e7f3 213d 4ce2 3dbe 0b3b bf3c
000003f0: 3b34 c43d c4bd 19be 8ccc 38bd 2269 9cbd
-0.039630927 0.20616835 0.007038589 0.099859454 -0.085726276 -0.08774776 -0.07090465 0.0076613394
0.021730395 -0.10464331 -0.35490313 0.0018704523 -0.079502545 0.46841988 0.021503735 0.028880427
-0.05904572 0.13019156 -0.034278058 0.010536032 -0.027385484 0.24947453 -0.13158832 0.073576815
-0.08454771 -0.013852551 -0.096862406 -0.03582952 -0.14882454 -0.10633875 0.0738699 0.15395628
0.07173353 0.0042477376 -0.1505966 0.06589093 0.0071424986 0.001961317 -0.069055505 0.12443693
-0.005122629 -0.07982734 0.032150865 -0.17492825 0.040511735 -0.009685986 -0.051729858 -0.07097207
-0.06415613 -0.046995245 0.21743804 -0.004088443 0.013705851 0.015123377 0.073894456 -0.22537717
-0.07201039 0.07876396 -0.030337863 -0.061473843 0.017562129 -0.050751857 -0.2662521 -0.08337511
0.041049328 -0.118422076 -0.07562144 -0.29826897 -0.010071237 0.031407785 0.028214542 0.04246937
-0.0041433373 -0.039788075 -0.046628278 0.056187004 -0.055020846 0.123153485 0.038762305 -0.014131807
0.13876411 0.017877717 0.11898105 0.029563287 -0.094955124 -0.74008113 0.3624422 0.01774089
0.32203984 0.08017547 -0.0061603454 -0.18992421 -0.036081083 0.089946695 0.67587924 -0.33513615
0.00048278534 -0.3024683 -0.07891509 0.024763174 -0.5510733 -0.07050753 -0.26247346 -0.10579515
-0.3420771 -0.027781023 -0.34160733 -0.017803106 -0.24631353 0.45785385 0.04228415 0.2187421
0.04100151 0.04615874 -0.45702395 -0.06633699 -0.026877772 -0.15278588 0.090405844 0.04840328
0.11722028 -0.42706907 0.02984996 -0.08177437 0.17001452 0.086390816 -0.085017264 0.12340958
-0.03952435 0.37169003 0.3730351 -0.4863598 -0.031159736 -0.17745636 -0.031748906 -0.23944846
0.087681 0.07133086 0.16130202 -0.27836937 0.007370337 0.07801286 0.09847215 -0.073046215
-0.111078456 0.11420821 -0.034843016 0.2975473 -0.3865035 0.054293584 -0.13123052 -0.24919951
0.078014076 0.07175085 -0.19000088 -0.0064817118 -0.36267263 0.48110023 0.2515471 0.024589954
-0.21711914 -0.13337937 0.15241411 -0.35667613 -0.16393417 -0.08731632 0.0791357 -0.3251236
0.085497096 -0.018631712 0.03339094 0.05101991 -0.28660944 -0.018334271 -0.11122984 -0.2333429
0.28025857 0.12812804 0.08815453 -0.089101315 -0.002713723 -0.05678624 -0.018595248 0.15444784
-0.20533483 0.19246311 0.18819392 0.08948426 0.039573565 -0.04388347 -0.011345664 0.049176168
-0.23468252 0.35691008 -0.053268775 -0.0695154 0.07564087 -0.07936347 0.01036953 0.005476277
-0.031625878 0.12724051 -0.2225014 -0.019476335 0.09879186 0.06462814 0.0018870124 0.044354588
0.17099975 0.033030983 0.28721622 -0.0944545 0.019860992 0.0074191513 0.44995248 0.09829307
0.08525517 -0.2824326 -0.14745738 -0.2462757 1.0388237 -0.114499606 0.041831408 -0.1863997
-0.10453692 0.033635892 0.10073527 -0.06814229 0.022249578 -0.24514529 0.15277074 -0.07181116
0.11122342 -0.07384634 -0.042425442 0.11292097 -0.12114588 -0.28486302 0.21889035 0.4139835
-0.13310713 0.15439656 -0.18258972 0.027344223 0.17268191 -0.047438577 0.18439743 0.213498
-0.028038586 0.039539244 -0.18543357 0.023343584 0.09580275 -0.15013796 -0.045116946 -0.0763724

body_conv.1.bias f4 [12]
00000000: ebe5 d23e 06f6 2fbe 3c74 c4bd 4e43 cebd
00000010: 8074 133e 7055 08be a29c 86be c485 fa3d
00000020: c1d6 efbb 5979 27be 3f64 28bd 461b 91bd
0.41191038 -0.17183694 -0.095924824 -0.10071431 0.1439991 -0.13313842 -0.26291376 0.12232545
-0.007319302 -0.16354884 -0.041111227 -0.0708528

body_conv.2.weight f4 [12, 12, 3, 3]
00000000: 9525 653e 5709 84bd 62b5 f83b 8a4d 213d
00000010: e30c f83e f1f6 fa3c 37e6 683d 7671 28be
00000020: 0ecc 013d eb20 2abd 6aa4 4e3e 8036 69bd
00000030: 25bc bd3d 8ca1 58be 02ca 993d e1c3 713d
00000040: ee17 403d 26b5 c2bd acdb 3a3e 9087 173e
00000050: dad2 6fbd 9cda 48bd 0abe a7be 99af 5b3e
00000060: fcb3 e9bc b7dd 22bc 39d1 55be e7a8 663d
00000070: a371 a93d d467 413c ecdf d6be 3165 833e
00000080: e125 363e 23c8 1abe 9f8f 54be d8ec fbbc
00000090: 66c3 20bd c634 3fba 6a87 f9bc 6f84 99bd
000000a0: 79c8 96be 5deb 123e 00ce ddbd 0f9f 81bd
000000b0: f0dc 8c3c 8eb0 2fbe 7754 34be fec6 2a3e
000000c0: 0ba5 b2bc 11fc 323a 6cc4 063e a4b0 473e
000000d0: 6df4 34be 56fb 513d 089e acbd 1229 b9bd
000000e0: a44c 16bc a3ce 51be ae91 8d3e 9409 2f3e
000000f0: f0e7 90bd e6eb 913d 844f 54bd 53c1 07be
00000100: e538 a53c bd82 963c 024e 543c a39c 17be
00000110: 1f63 fcbd ecd0 d9bb 44cb bd3d be88 443d
00000120: 884f 853c 9645 94be a781 3fbc 2814 b4be
00000130: 5d0f cd3d 0fe3 78be 3792 d03d 47ad 6c3d
00000140: 1774 c93a d8fe c3bd aea4 623d 2675 673d
00000150: 7ba6 703e 6236 6fbd 9fdc ccbb 66f2 25bd
00000160: 29c7 76be 5f27 53bc c244 013e 6cc3 2fbd
00000170: c186 51be 5f2d abbd 466b e33e 5568 1c3c
00000180: 205b 61bd 2c1e 83be 3fac 4f3d b9a0 8a3e
00000190: b6d8 683e 0eb9 b4bd 4c3f e43d 49cb d3be
000001a0: 08df 803d 058d b13d b099 953e 979b 7abd
000001b0: f744 443d 4ff9 8a3e 6c05 eebd 1e17 95bd
000001c0: 41b9 69be 9250 5ebe 4a1a 1d3e b5e1 cfbc
000001d0: 5d06 8f3d 7d03 673d 593a e6bd 7994 58bc
000001e0: 8496 3c3d 2116 a83e ca02 14be 834b 12bd
000001f0: a447 b6bd 3a3b 0abc de0e 853e 3b89 d93d
00000200: 29ba 713a a60f de3c 6b85 9d3d c651 843e
00000210: bdfb 13bd d77d 67bd a030 5c3c daaa 09be
00000220: 58bf b53e 0ed8 f03d 8e7b ab3e 1d93 d8bd
00000230: 4b5b 663d aa26 bdbd e5f5 a33d b6d3 98be
00000240: d73b 2f3e 92e0 d03e fae5 87bb d381 023e
00000250: 4fa4 09bf 29fc ce3d e484 0b3e 017c 51be
00000260: 669c a53d cbca acbd 6ac5 03be 627f 843d
00000270: 04e3 7bbe ce66 cabd d52d 503e f034 383e
00000280: 330e e23c 5239 1d3e a68e 93bd 2190 5fbe
00000290: d4f6 7d3c e357 0f3d c782 f33e 9b6c 963d
000002a0: 5b7d 2abd dde1 bcbd b638 35be b649 98bd
000002b0: da98 d5bd d5c3 c6b9 3c8d 90be ee09 583e
000002c0: 4afc dc3c c8fb b23d 1662 bcbe 5b47 d63c
000002d0: 4870 ffbc b550 b93c dc9a 03bd a5ab bdbb
000002e0: 3eb8 dc3e 523e ecbd 9832 7cb7 783b 63be
000002f0: 64dc b13d 1f1a afbd 7fca 20be 81c8 cc3c
00000300: 0029 54be 61a3 b63e 5232 fabd cb28 283d
00000310: 59c7 943e 59fe 50bd dd95 83bd b91c a5be
00000320: 3ff3 25bd 26f3 ad3c a55d b43e c30c b1bd
00000330: b8e7 e4bd 6702 113e eebf 023e eb43 983d
00000340: cc55 1e3e 36cd 8f3d 88eb 33be 63b6 ae3e
00000350: d7c1 c23d 3f2e 703d 3dfd dfbd 1489 afbd
00000360: 3472 b43d 2caf 51bd f5c3 97bd 2719 6bbe
00000370: 54ac 8a3e 66fb 56bd 39c7 92bc 43ca 9d3d
00000380: c0d1 11bd 9a50 a2bd bc16 be3d 38e5 c9bc
00000390: 8fd0 78bd a023 12b9 a9ad e1bd e31e 9f3d
000003a0: ea62 a53d d0e5 a33d 0acd dc3d e2fa c53d
000003b0: 1d76 3a3d 2571 67be dfe1 4b3b f72f 0f3e
000003c0: 4dfb 063e ae04 17be 07ae 893b 3308 a8bc
000003d0: a78c 703c da6e 353d e33d 923d 292f 9ebe
000003e0: 45cf 1fbe 54c7 113e bee2 763d e7c6 943d
000003f0: d533 7d3d 75e8 1b3d 0891 813c 8e71 da3d
0.22377618 -0.06447094 0.007589982 0.039380588 0.48447332 0.030635329 0.056860175 -0.16449532
0.031688742 -0.0415353 0.20179906 -0.05693674 0.09264401 -0.21155375 0.07509233 0.059024695
0.04689782 -0.095072076 0.1824786 0.14797807 -0.058550693 -0.049036607 -0.32762176 0.21453704
-0.028528206 -0.009940556 -0.20880593 0.05631342 0.082736276 0.01180454 -0.41967714 0.2566314
0.17787887 -0.15115409 -0.20757912 -0.030752584 -0.039248846 -0.00072939356 -0.030460078 -0.07495963
-0.29449823 0.14347596 -0.10830307 -0.06329166 0.017195195 -0.17157194 -0.17610346 0.16677472
-0.021807214 0.0006827722 0.13160866 0.19500977 -0.17671366 0.051265083 -0.084285796 -0.09041037
-0.009173546 -0.20488982 0.27650207 0.17093498 -0.070754886 0.07125072 -0.051833645 -0.13257341
0.020168731 0.018372888 0.012958052 -0.14805846 -0.12323593 -0.00664722 0.092672855 0.04798197
0.016273275 -0.2895934 -0.011688626 -0.35171628 0.10012696 -0.24305366 0.10184138 0.057782438
0.001536968 -0.09570092 0.055332832 0.056508206 0.23501007 -0.058401473 -0.006251886 -0.040514372
-0.24099411 -0.012887805 0.12623885 -0.04291098 -0.20461561 -0.08358263 0.4441778 0.009546359
-0.055018544 -0.25608957 0.050701376 0.27075747 0.22738919 -0.08824359 0.111448854 -0.41366032
0.0629254 0.086694755 0.29218817 -0.06118354 0.047917333 0.27143332 -0.11622128 -0.072798
-0.22824575 -0.21710423 0.1534206 -0.02537618 0.069836356 0.05639981 -0.11241598 -0.013218992
0.04604198 0.32829383 -0.14454189 -0.035716545 -0.08900383 -0.008436972 0.25987905 0.10621878
0.00092211604 0.027107071 0.07691463 0.25843638 -0.03612875 -0.056516495 0.0134393275 -0.13444081
0.35497546 0.11759959 0.33492702 -0.10574935 0.056239408 -0.0923589 0.08005885 -0.29849023
0.17112671 0.40796334 -0.0041472884 0.12744837 -0.5376634 0.101066895 0.13624913 -0.2045746
0.08086471 -0.08437117 -0.12868276 0.06469609 -0.24598318 -0.0988289 0.20329984 0.17988944
0.027594661 0.15353897 -0.072049424 -0.21832325 0.015500743 0.034995925 0.47560713 0.073449336
-0.041623455 -0.092227675 -0.17697415 -0.07435934 -0.10429545 -0.0003791141 -0.28232753 0.21097538
0.02697577 0.0873943 -0.36793584 0.026157072 -0.03118147 0.022621492 -0.032130107 -0.005788284
0.43109316 -0.11535324 -1.503215e-05 -0.22190654 0.08684614 -0.08549904 -0.15702246 0.024997951
-0.20718765 0.35671523 -0.12216629 0.04105453 0.2905834 -0.051023815 -0.064250685 -0.32248476
-0.04051518 0.021234106 0.35227695 -0.08645012 -0.11177009 0.14161073 0.12768528 0.07434829
0.15462416 0.07021563 -0.17570317 0.34123525 0.09509628 0.058637854 -0.10936973 -0.085710675
0.08810845 -0.051192448 -0.07410423 -0.22958814 0.270846 -0.052485846 -0.017917262 0.07704594
-0.035600424 -0.0792553 0.0928168 -0.024645433 -0.060745772 -0.00013936916 -0.11019451 0.07769563
0.08075507 0.08002818 0.107812956 0.09666993 0.045522798 -0.22601755 0.0031109971 0.13983141
0.13181801 -0.14747879 0.004201654 -0.020511722 0.014681972 0.04429517 0.0714071 -0.30895355
-0.15606411 0.14236194 0.060274832 0.072645 0.06181701 0.038063485 0.015816227 0.1066619

body_conv.2.bias f4 [12]
00000000: 2b0e 4cbc 2fcc f43b 4d63 81bd b231 21bb
00000010: 8565 a53a f399 533b d790 03be 3d37 37bc
00000020: 2ee9 873d c22c 113c feba 293b a8cc 093b
-0.01245455 0.0074706296 -0.06317768 -0.002459627 0.0012618756 0.0032287806 -0.12848221 -0.011182603
0.06636272 0.008860769 0.002589881 0.0021026526

body_conv.3.weight f4 [12, 12, 3, 3]
00000000: 51ee 9a3d 7560 9bbd e919 c53d 915c 9cbd
00000010: 4645 2bbf 5959 a13e 326b 833d 4308 2b3e
00000020: f559 9c3d fd47 3f3d 8a08 123e 08e2 08bc
00000030: 2bee 7a3d 7452 05bf 4246 7d3d 05ea e9bc
00000040: 4737 133e 836e 9e3d 5195 183d a410 88bc
00000050: 1a71 663c 02c1 1cbd 192b 70be cb58 223d
00000060: f0e8 ee3d f786 6cbc cadc ac3d 7970 63bd
00000070: e9a2 943d bcdb 093e 01a2 28be a671 3cbe
00000080: 45f2 863e 44af 0b3b cb18 84bd ca7c 5ebb
00000090: 0f14 dc3d ce21 2bbd de84 c73d 125e bd3c
000000a0: ab92 683e 37f1 abbd 0d88 bbbd 087e 91bd
000000b0: 2f40 1bbe e700 933d 441c 9d3d fd92 33be
000000c0: 67a4 a83d d94a b4bd 5a46 453d 066a bbbc
000000d0: 6531 f23c 3288 5dbc 194a 073c 1ef7 a9bd
000000e0: baa4 cbba 39f4 04be b022 c4be e8a2 0bbe
000000f0: 233a 023c ef5a 0ebe 0f29 73bc 07ab 3a3c
00000100: bb3e 983d 235a 943d 0423 ebbd 6b9b 963e
00000110: 20ff 76bc cf70 02be 3bd4 bdbd f079 c1bd
00000120: 5117 5fbd 51cb a23b 7496 fbbc 00a0 8c3d
00000130: 581c 773e 8305 093d 4131 0bbd 74b1 4c3d
00000140: 14f2 9ebd d943 3fbd 8ccb b0bd 95ac c43c
00000150: 7956 d83b 79e5 37be 4279 11be 7af7 0f3d
00000160: 2000 813e 453c 043e bff1 e53d 6cf7 a93d
00000170: b8ee 1c3e 84f0 6d3e 1380 50bf b9f2 393d
00000180: 6384 2b3d e7cb 9b3d 3d7c 2b3d 1012 c3bd
00000190: 925c 8a3c 964c 62be 6f24 57bd d2cc 303f
000001a0: eb79 a73b 7c88 0dbe 0920 4fbc 05eb 38be
000001b0: 0cd0 ce3d a6a7 45bd c72f babd 9b1b bbbd
000001c0: 1e2f 543b cae1 5dbe b6cd f0bd a830 87bd
000001d0: c609 aa3c d157 be3d 4714 233e fbeb 07bd
000001e0: 3689 b7bd c882 033d 7e5a 8bbe 3250 84bd
000001f0: 4c4f 61be 2018 1fbd 9284 41be 4347 00be
00000200: 50c0 76bd 3739 d13d 6add 133e 5a84 093d
00000210: e45b 013d 9e72 8c3d 95a0 a73b 1aa6 3fbd
00000220: 5332 8cbe 11bf 9ebd c8f0 8dbe 2db8 0abe
00000230: 97d0 23be 40b0 b3bd 75d6 5dbe 912a 5cbd
00000240: abe1 973d d8ce 32be 1508 b43d 3159 103e
00000250: 02b5 383e b6f0 203e e43e 093d 3cc2 a53d
00000260: 9591 92bc 8f31 263d d488 633d 4369 a93c
00000270: 0183 4ebd 5948 16be 1552 c53c 91a7 b5bd
00000280: f9b5 7e3c 6c0e dfbd 304e 13bd 8996 243e
00000290: 0809 933d e4e4 0dbe 3a31 393c 6e45 ef3c
000002a0: ce9f 66bd b256 f6bc dd60 a4bc 4a76 a93d
000002b0: ce12 92bd c608 c1bd f1f5 f0bd a383 24bd
000002c0: 38d9 643d 32a7 d53d cbe7 283d 70b8 573d
000002d0: da3b 143c b55b 553e 33f7 273a 22fa 9d3d
000002e0: 5d5b 443d f387 53be a362 ebbd 2d3f 82bc
000002f0: b57e 153d e1d4 12bd fdd1 acbd a9a6 193e
00000300: 5c09 ee3c 4796 b1bd 9e74 b13d 5dfd b4bd
00000310: 9d76 50be 29cd 59bd 2e53 273e e8db bc3d
00000320: 3130 f2bc af15 c83e 833c fcbc 8c7f 70bc
00000330: 92ed 8d3d e6d8 9cbe 13c4 d0bd b0e0 2b3d
00000340: 6319 b33d 70ca 5b3d 10c4 0cbe 2dbb a03e
00000350: b5ea 303d a8fa 503c e5fc 3ebe f2c4 6a3d
00000360: d1c0 353e 628b 39be 4f16 813d e343 43be
00000370: 7182 15be 2624 473d c777 cdbc 18f0 3d3e
00000380: 92d8 7c3b 9275 febb 693f a8bd 8b78 ce3a
00000390: c927 513e 2a04 f53e 1385 533d 9eef 48bd
000003a0: 65f5 e03d 003b fbbd 1408 4ebe 7563 11bc
000003b0: b084 9b3d d200 c43c 846a 5bbe 7f9a 263e
000003c0: 73b1 073e 42a1 a4bd 942a 093e dec2 0b3d
000003d0: 634c c53d 1149 adbd 38d9 2dbe 3f9b a83d
000003e0: d5ff 66be 7e4b bdbd 7f43 8d3d d316 49be
000003f0: dd54 cdbb cb30 27be 3e8f ddbd 66d4 95be
0.075649865 -0.07586757 0.096240826 -0.07634843 -0.6690258 0.3151348 0.0641693 0.1670237
0.076343454 0.046699513 0.1426107 -0.008354671 0.06126229 -0.5207894 0.06183458 -0.028553972
0.14376555 0.07735922 0.037251774 -0.016609497 0.014065051 -0.038270004 -0.2345394 0.03963546
0.11665523 -0.014436475 0.0844055 -0.055527184 0.07257635 0.13462728 -0.1646805 -0.18402728
0.26356712 0.0021314183 -0.064500414 -0.0033948892 0.107460134 -0.041780286 0.09742139 0.023116145
0.227122 -0.083956175 -0.09156809 -0.07104117 -0.15161203 0.071779065 0.07671407 -0.1753654
0.08234482 -0.088033386 0.048162796 -0.022877704 0.029564569 -0.013521241 0.008257412 -0.08299087
-0.0015536763 -0.12983789 -0.38307714 -0.13636363 0.007948431 -0.13901876 -0.014841332 0.011393315
0.0743384 0.07243755 -0.11481288 0.2941545 -0.015075475 -0.12738346 -0.092689954 -0.09447086
-0.054465596 0.004968085 -0.03071139 0.06866455 0.24131906 0.033452522 -0.03398252 0.04997392
-0.077610165 -0.046695564 -0.086325735 0.024008075 0.006602105 -0.1795863 -0.14206412 0.03514812
0.25195408 0.12913616 0.1122775 0.08299145 0.15325439 0.2323628 -0.81445426 0.045397494
0.0418743 0.07607251 0.04186653 -0.095249295 0.016889844 -0.22099528 -0.05252498 0.6906253
0.0051109693 -0.13821596 -0.012641915 -0.18058403 0.100982755 -0.048255585 -0.09091144 -0.09136125
0.0032376717 -0.21668163 -0.11757986 -0.06601077 0.020756613 0.092940934 0.15925704 -0.033184033
-0.08961718 0.032107145 -0.27217478 -0.064606085 -0.22002906 -0.038841367 -0.18898228 -0.12527184
-0.060241997 0.10215991 0.14439932 0.033573486 0.031581774 0.06857799 0.0051155784 -0.046789266
-0.27382144 -0.07751287 -0.27722764 -0.1354682 -0.1599754 -0.087738514 -0.2166384 -0.053751532
0.074160896 -0.17461717 0.08790604 0.14096524 0.18037799 0.15716824 0.033507243 0.08093688
-0.017891685 0.040574607 0.05555041 0.020680076 -0.050417904 -0.14676036 0.024086991 -0.088698514
0.015546315 -0.10891423 -0.035963237 0.1607305 0.07179457 -0.13856846 0.01130324 0.029207911
-0.056304745 -0.030070636 -0.02006572 0.08274515 -0.07132493 -0.094255015 -0.117656596 -0.0401646
0.05587122 0.104322806 0.04123668 0.052666128 0.009047473 0.20835765 0.000640738 0.07713725
0.047938693 -0.2065733 -0.11493423 -0.015899265 0.03649779 -0.03584755 -0.084384896 0.15004982
0.029057197 -0.08671241 0.08664821 -0.08837388 -0.20357747 -0.05317417 0.16340324 0.09221631
-0.029563995 0.39079043 -0.030790573 -0.014678847 0.069300786 -0.3063423 -0.10193648 0.041962326
0.087450765 0.053659856 -0.13746667 0.31392804 0.043192584 0.012755074 -0.18651159 0.057316728
0.17749335 -0.18119577 0.06303083 -0.19068865 -0.1460054 0.04861846 -0.025081528 0.1854862
0.0038581234 -0.0077654803 -0.082152195 0.0015752477 0.20425333 0.4785474 0.05164058 -0.04905664
0.10984305 -0.12267113 -0.20120269 -0.00887381 0.075936675 0.023926172 -0.21427351 0.16269873
0.13251285 -0.0803857 0.13395149 0.034121387 0.0963371 -0.08461202 -0.16977394 0.08232736
-0.2255853 -0.092429146 0.068976395 -0.19637613 -0.00626622 -0.16327207 -0.10818337 -0.2926361

body_conv.3.bias f4 [12]
00000000: 4249 093d 6f48 21bc 39c6 c53b d5c0 09bb
00000010: 20ab 023a 9907 1b3d b7ff 2e3b 5e37 853b
00000020: 3395 c8bb e07d 0a3c 5059 51bc caf1 d7bb
0.03351713 -0.00984393 0.006035593 -0.0021019478 0.0004984606 0.037849043 0.002670271 0.004065438
-0.0061213016 0.0084528625 -0.012777641 -0.006590103

body_conv.4.weight f4 [12, 12, 3, 3]
00000000: 47f6 7d3c f5aa 9f3d 2c1a 0b3d aed2 b23d
00000010: cc38 c23e 80b5 153e 762c 933c 78e6 093e
00000020: 9b32 253d d92d 3fbd a88d 573d f7e9 0d3c
00000030: 5d62 023d 501b 05be 0053 323d 4365 ca3c
00000040: 5bcc 4a3c 5c74 ab3c 24cd f53b 95c9 143d
00000050: 95ad 613d a46a 95bc eb62 e63d 889a e5bc
00000060: 62cd 51bc e9e5 07be 57c2 5ebc 24aa 513d
00000070: d1d5 8d3d 3e3a 043d ccb3 073e ec53 92be
00000080: 6fdd 2d3c 89ee fb3c f082 133d 5b24 0f3d
00000090: f7b5 96bc c80a 19bd 3e2f 04bd fda9 7b3d
000000a0: f958 f33d 8bda 41bd a3c4 7bbb 73b0 933c
000000b0: 37a2 cabb 9963 043c 22ae 563d b262 823c
000000c0: 2d50 6a3d 8d4d 293b 02d6 883c 9d80 e03c
000000d0: 1ba9 8a3c 819a 003d a107 ad3c b27d 1d3d
000000e0: 7747 ce3b 8980 66bd a88b e1bd a701 573d
000000f0: cafe 4b3d 3077 d2bb cb17 b53c 72c5 f7bc
00000100: 2294 b73b 7fda 44bd e698 993d a91c 273d
00000110: 2953 30bd e7fa 703c e663 063d 0b66 48bc
00000120: fdfd 6f3c 5cba 783d 7693 1c3c c18e 903d
00000130: 96c5 a2bd 1961 78bc 272c 993b deb6 933c
00000140: a223 073c 2961 78bd 1d5d 86bc 27d1 d4bc
00000150: c434 5dbd 3002 fd3d f13a f1bb f5c0 b23a
00000160: 367f 10bc 82a8 cd3c 1793 253c 85ce 2d3c
00000170: 4683 083d 3eda 1d3d e4b1 7b3c 9bb3 153d
00000180: 130d cb3c c0b0 f93c f523 e43c 7604 0bbd
00000190: 7f11 873c 3ee5 01bc 96d5 053d e7e3 d0bd
000001a0: 001f ee3c 147d 23bd 64c5 103d d62d 303d
000001b0: 4cd6 88bd 51da 27be a484 41be 2dd3 0d3e
000001c0: 8d2c 7a3c ae43 4cbd 8284 d43c d185 283e
000001d0: a43d 73bb 80ec 003b 3e9a ed3e 8de3 fb3a
000001e0: 6d81 57be 9520 07bf 8690 fa3d fee4 d93d
000001f0: 0d06 f93c e851 77bd b1a4 4fbd 433b 413d
00000200: d84e 1b3e 86b8 d63c 2272 c8be f4b2 663e
00000210: 6ead 143d d08c 0fbd e184 b13d c2ca c0bc
00000220: c062 283e c2db 113e 437b 563e 4dd1 96bd
00000230: f302 863c a49b 573d 6adf 8a3c 3b67 05bd
00000240: 1449 96bd 6b25 9bbd 0e16 993d ddbb d23d
00000250: afd5 fabc 1fc2 8fbd c719 4e3c df4a 71bd
00000260: 7c92 813b 0587 d73c 0e6e 0c3e 726c af3e
00000270: 6e2a 2abe ac51 57bd 64f6 1d3d b7e6 07be
00000280: 9783 52be 2dd8 093d 9f32 a1bb b7ad e83c
00000290: 6b4f cbbd 150f 333d 52a9 d5be f92f e33d
000002a0: 1506 853e 800e 123c ad10 6e3d 98a4 403d
000002b0: 1a51 843e 53ed 9cbd 42cb a3bd 7212 0fbd
000002c0: 3e2b 79bd 5686 58bb c37a 553d a987 bcbc
000002d0: 828f 653c bfc0 fa3d c8dd ddbb 1fb1 563d
000002e0: 3ac9 b0ba 6fa2 173e b169 6e3d 9a5b dfbc
000002f0: 8912 5c3c 20ff dabd a5da ecbe 36bc 1a3d
00000300: f943 c3bb c897 85bd 98ae 19be 0d94 cd3d
00000310: 806d db3d dab0 49bc 6943 043d 1ba2 133e
00000320: 0027 163e a4ed 233c 004a 88bc 41ed ae3e
00000330: b7b9 0bbc 8997 67bd 1dd6 a8bc 8c80 8f3c
00000340: f6f2 21bd da82 263d 2df4 99ba de99 173e
00000350: 9f32 3dbc 9310 68be b376 043e f4a2 c83c
00000360: 49cc f5bd c612 38bc ec0c 093e ef17 62be
00000370: cfab ad3b 7e6a 713e a6b9 3abe 8676 1abd
00000380: d901 b83d 955a 89bd 16af 90bc cd7a 033c
00000390: f1fa 623e 57c0 b5bc dec9 eebd 218b acbd
000003a0: beae 233c 2ede 3c3d 2358 ddbb cf2a d3bc
000003b0: fd70 57ba 82e5 a4be 2a07 193f 835f 3abe
000003c0: 87e3 b63d d420 743c b3e4 9abd d047 343e
000003d0: c0af 49bd 1f37 21bd 3a59 2e3f c541 6bbe
000003e0: 68be d9bd 8660 ae3d 6d06 e73a 6a25 4e3d
000003f0: 3519 be3c 6189 863b b16c 34bd 42fb efbd
0.015500612 0.07796279 0.033960506 0.0873159 0.37933958 0.14620018 0.017965537 0.13466823
0.040331464 -0.046674583 0.05262533 0.008661739 0.031832088 -0.129987 0.043536186 0.024706488
0.012377824 0.020929508 0.0075012613 0.036325056 0.05509718 -0.018239327 0.11249336 -0.028027788
-0.012805315 -0.13271298 -0.013596139 0.05118765 0.06925548 0.032282107 0.13252181 -0.28579652
0.010611876 0.03075339 0.036013544 0.03494678 -0.018397314 -0.037363797 -0.032271616 0.06144141
0.118822046 -0.04732756 -0.0038416765 0.018028473 -0.0061838883 0.008080387 0.05241216 0.015916202
0.057205368 0.0025833577 0.01670361 0.027405078 0.016926339 0.031397346 0.021121802 0.03844995
0.0062951404 -0.056274924 -0.110129654 0.05249181 0.049803533 -0.0064228997 0.022106072 -0.030245516
0.0056023756 -0.048059937 0.07499866 0.040798817 -0.043048058 0.014708257 0.032810114 -0.01223136
0.014647958 0.0607246 0.009556642 0.07058478 -0.07947843 -0.015159869 0.004674453 0.018031534
0.008248242 -0.060639534 -0.016401822 -0.025978638 -0.0540054 0.12353933 -0.0073617627 0.0013637828
-0.008819392 0.025104765 0.01010587 0.01060832 0.033328317 0.03853821 0.015362237 0.03654824
0.024786508 0.030479789 0.027849177 -0.0339398 0.016487835 -0.007928191 0.032674395 -0.10199719
0.029067516 -0.039914206 0.035344496 0.043012463 -0.06681499 -0.16391875 -0.18898255 0.13850088
0.015269411 -0.049869232 0.02594209 0.16457297 -0.0037115598 0.0019672215 0.4640674 0.0019217596
-0.21045466 -0.5278409 0.12234597 0.1063938 0.030398393 -0.060380846 -0.05069417 0.047175657
0.15166795 0.026211035 -0.39149576 0.22529203 0.036298208 -0.0350464 0.08667923 -0.023534182
0.1644392 0.14243987 0.20945458 -0.0736414 0.016358828 0.052638665 0.016952235 -0.03256915
-0.07338157 -0.07575496 0.0747491 0.10289738 -0.03061947 -0.070194475 0.012579388 -0.058909293
0.00395423 0.0263095 0.13713858 0.34262425 -0.16617748 -0.052568123 0.038565055 -0.13271604
-0.2055801 0.033653427 -0.0049193646 0.028403146 -0.09927257 0.043715555 -0.41730744 0.110931344
0.25981203 0.00891459 0.058121372 0.04703197 0.25843126 -0.076624535 -0.07997753 -0.0349297
-0.060832255 -0.0033039055 0.052119028 -0.023013907 0.014011266 0.12243795 -0.006770823 0.05241501
-0.0013487705 0.14808057 0.058206264 -0.027265359 0.0134321535 -0.106931925 -0.46260563 0.03777715
-0.0059590307 -0.065230906 -0.15008008 0.10038004 0.10714245 -0.012310231 0.03229085 0.14417307
0.14663315 0.010005388 -0.016636848 0.34165385 -0.008528165 -0.056541 -0.02060991 0.01751735
-0.039538346 0.040652134 -0.0011745744 0.1480479 -0.011547714 -0.22662573 0.12935905 0.024491765
-0.12001855 -0.011234945 0.13383836 -0.22079442 0.005300022 0.2357578 -0.18234882 -0.03771069
0.089847274 -0.0670673 -0.017661612 0.008024883 0.22166039 -0.022186441 -0.11659597 -0.08424974
0.009990392 0.046110325 -0.0067548915 -0.025777249 -0.00082184357 -0.3220635 0.59776556 -0.18200497
0.08930116 0.014900405 -0.07563152 0.1760552 -0.049239874 -0.03935921 0.681049 -0.22974308
-0.1063202 0.08514504 0.0017625816 0.05032865 0.023205379 0.0041057323 -0.04404897 -0.117178455

body_conv.4.bias f4 [12]
00000000: 4796 e1bb e2dc aabc e8dc 84bd f72e 00be
00000010: a7f1 b0bc d862 a63d c894 fcbc fbc7 9bbd
00000020: 82d1 953d 4997 713c 345d 69be 58d6 e5bd
-0.0068843695 -0.020857278 -0.06487447 -0.12517916 -0.021599604 0.08124322 -0.030832663 -0.076065026
0.07315351 0.014745542 -0.2278946 -0.112225235

body_conv.6.0.weight f4 [56, 12, 1, 1]
00000000: 3bda 22be 1379 7f3b 168f 3d3d 66df b6bd
00000010: 2d36 9bbc 1417 a5bd 10c5 32bc b3ea 983c
00000020: 7013 f0bc 155d 033e ccec b739 f569 023d
00000030: 6c0b 02bd b07b 9fbd 4922 ad3d 758d 003d
00000040: 2bf7 c6bc cd24 143e 73b1 d3bc e89b 8139
00000050: 6267 98bc 5b6d cc3c 394e 0dbc fb7f 8dbd
00000060: e48f 1abe e384 663b 01f2 6abc d9a3 be3c
00000070: 0618 a73c 310a 14bd a74c ba3c c9f1 9dbc
00000080: e5d8 b0ba d7a5 9ebd 17a2 e03c 1928 c33b
00000090: c961 733c 7730 dd3e 7541 0c3e efcb 103e
000000a0: 3ff8 2abe e16f 323c 2bb4 13be 5b2e ea3d
000000b0: 8f41 9c3d f6bd d4bd 381e d3be 1ff9 683d
000000c0: 7cb2 af3c 2ef1 773e 505a 793e 6e4b c43d
000000d0: 4f26 2bbe dfb3 783d 3633 41be e7dd 4dbe
000000e0: 8356 2abd 5ab2 a6bd 68ec 8fbe 91f4 1d3d
000000f0: 3184 03bc fd72 23bd 3a40 a4be 2944 aabd
00000100: dda7 b33d c72e 03bd b0c4 bc3d 520f c7bd
00000110: 04c7 b33c 2120 103d bfa1 963d a4cd 723d
00000120: 8be0 6dbc 5bba 35bd bd6c 933b 4b02 353e
00000130: cc21 25be 516d a83d e8ed 2dbe d2d2 db3e
00000140: e23c 71bd 25f1 98bd b916 9fba fa26 063d
00000150: 0b05 dbbd 707a 70bc 32ca d63c 137a 21be
00000160: c429 06bd 59d3 61bd a10d e5bc 2e21 90bc
00000170: 28c9 0ebd afa5 cd3d 9311 ccbd 1301 1d3d
00000180: c08a 78bd 1164 093d 2831 a9bc 7fa1 b63b
00000190: be4b 743c 6a1f 453e 527f ab3d fc2d bdbb
000001a0: 6ea1 3f3d 5c2d 353d 7e86 4d3c 8816 88bd
000001b0: 4733 beba d85f 30bd 6bcd 963d 84db 60bd
000001c0: efa7 103e 8ecd 61bd 8184 1f3e 843d cd3c
000001d0: e4fb cb3d cccf 2b3d aca6 2b3e 273d 893d
000001e0: b0a8 f2bc b695 1c3e 94cd 14be a859 dd3d
000001f0: 71e1 08be 5c4a 6a3c 7ffb 01be 8764 883c
00000200: 67bd abbd 85ec cabd 164a 8ebe 678b 033e
00000210: 5872 92bc 892e b2be 1362 e8bd 5024 fbbd
00000220: b344 ed3d 8202 cabc 241e f43d 21ac c1bd
00000230: 8a89 54bd 6487 633d c272 133e 39e9 eabc
00000240: a01b 58be 3e9f 703e e048 183e 23fa 5f3e
00000250: 7335 a8be f175 d43d 6e45 98be 97cf 5e3e
00000260: 98ca 17be 345c c0be a99b 00bf 3a4e 7a3d
00000270: 426b 51bd cdfa 183d 2c7d 8b3c 59ee b33c
00000280: 2c24 4f3c d755 6f3e 0dcf af3c d21d a83b
00000290: f311 34bd 497b a73d 4305 c7bc 6e7c 10bd
000002a0: e159 133d 73ae 303d 6cf1 86bc accb 943e
000002b0: 3cd4 e1bb 811e c73d c3d9 0abd 48e7 353c
000002c0: 82bb 943d 6900 8abe b553 f23d 8586 9bbd
000002d0: d230 2cbe 47e5 7d3e cd0e a53e 69e5 7e3e
000002e0: 0f86 9bbe d439 e83d 5102 a0be e132 583e
000002f0: b44d b5bd 6fe3 b5be ec2a 9cbe cc39 fc3d
00000300: 4eb2 cbbe 54bd 1cbd 852b 8f3c dd96 99be
00000310: fcdc a3b9 89c4 34bd 9a6f 413d 43fb dcbc
00000320: dc3b 9cbc dbdf e7bd 6bcc 23be 1e15 3c3d
00000330: d9d7 e9bc 27fb e73c 09f4 bf3c 290a 083b
00000340: 8c6d 1e3d 9ecf bdbc 3dde bebe d606 483c
00000350: 4f6b ac3d 2a44 90bc ceca 663d e777 7c3d
00000360: 4dc7 4fbe 58e9 2d3e 0035 663e fb8b d03d
00000370: f644 8cbe 9e43 a13d 6258 6abe 8cd7 063e
00000380: cef7 52be c585 a5be cd47 02bf d02a 02bd
00000390: 0641 a5bd e9c0 4c3d 4ab8 0b3d 74e4 433b
000003a0: 250f 2b3c d62f 2f3e a555 26bc 5c49 8d3c
000003b0: 94e7 07be 803e 253d 7ea2 a43d 05b6 87bd
000003c0: f482 633a c49e 283e 03d0 7f3e 30e3 a83e
000003d0: cacd 0cbe a5c3 583d f0dd 17be 60f1 fc3d
000003e0: f0d7 773d 8438 a8bd 836c 44bd cf3d 833d
000003f0: c192 36bc fe9e 223c 4cc2 99bb 3ed4 ab3b
-0.15903561 0.0038982078 0.046279036 -0.089293286 -0.018946731 -0.080610424 -0.010911241 0.0186666
-0.029306144 0.12828477 0.00035080907 0.03183933 -0.031749174 -0.077872634 0.08453805 0.031384904
-0.02428778 0.14467163 -0.02584145 0.00024720957 -0.018603984 0.024954489 -0.008624607 -0.06909176
-0.15093952 0.0035174422 -0.014339925 0.023271488 0.020397197 -0.03614253 0.022741629 -0.019280331
-0.0013492374 -0.07746475 0.02742104 0.0059557077 0.014854857 0.43201038 0.13696845 0.14140294
-0.16696261 0.010890932 -0.14424197 0.11434623 0.07629692 -0.10387795 -0.41233993 0.056878205
0.021447413 0.24213096 0.24350858 0.095846996 -0.16713832 0.060718413 -0.18867192 -0.2010418
-0.04158641 -0.081394866 -0.2811005 0.038563315 -0.008027122 -0.039904583 -0.3208025 -0.08313782
0.08772252 -0.032027032 0.09217203 -0.09719719 0.021945484 0.03518689 0.07355069 0.059278145
-0.014518867 -0.044367176 0.0044990466 0.17676656 -0.16126174 0.082239754 -0.16985285 0.4293428
-0.058895953 -0.0746787 -0.0012137509 0.032752015 -0.10694321 -0.014677629 0.026219461 -0.15769224
-0.032754675 -0.055133197 -0.0279606 -0.017593946 -0.034859806 0.10041367 -0.099642895 0.038331103
-0.060679197 0.033542696 -0.020653322 0.005573451 0.0149106365 0.19250265 0.08373894 -0.005773304
0.04678481 0.04423271 0.0125442725 -0.066449225 -0.0014511131 -0.043060154 0.07363399 -0.054896846
0.14126562 -0.055127673 0.1557789 0.025053747 0.09960154 0.041946217 0.16762799 0.06701117
-0.029621452 0.15291485 -0.14531547 0.10808116 -0.13367249 0.014299955 -0.12693594 0.016649498
-0.08385735 -0.09908394 -0.27790898 0.12846147 -0.017876789 -0.34801129 -0.11346831 -0.122627854
0.11585369 -0.024659399 0.11919811 -0.09456659 -0.05188898 0.05554904 0.14399245 -0.028675662
-0.21104288 0.23498246 0.1487155 0.21872763 -0.3285328 0.10374058 -0.2974047 0.21758877
-0.14823377 -0.37570345 -0.5023752 0.06110976 -0.05112768 0.037348557 0.01702746 0.021964239
0.012642901 0.23372589 0.021461034 0.005130508 -0.04396243 0.08177812 -0.024294501 -0.035274915
0.035974387 0.043135118 -0.01647254 0.2906164 -0.0068917554 0.09722615 -0.03389908 0.011102505
0.07262327 -0.26953438 0.11832372 -0.07594017 -0.16815498 0.24794494 0.32237855 0.248922
-0.30375716 0.11339155 -0.31251767 0.21113159 -0.08852711 -0.3552508 -0.30501497 0.123157114
-0.39784473 -0.038266495 0.017476806 -0.29997912 -0.0003125443 -0.044132743 0.047225572 -0.02697528
-0.019071512 -0.11321994 -0.15995948 0.045918576 -0.028545307 0.028318001 0.023431795 0.002075801
0.03867869 -0.023170289 -0.3727893 0.012208661 0.08418905 -0.017610628 0.056345753 0.061637785
-0.20290871 0.16983545 0.22481155 0.10182949 -0.27396363 0.07874225 -0.22885278 0.13168162
-0.20602342 -0.3232862 -0.5089081 -0.03177911 -0.08069043 0.04998866 0.0341113 0.0029890807
0.010440622 0.17108092 -0.010152255 0.017246895 -0.13271934 0.040342808 0.080388054 -0.06626514
0.00086788763 0.16466814 0.24981694 0.3298583 -0.13750377 0.052920956 -0.14830756 0.12350726
0.06050867 -0.082139045 -0.047955047 0.064082734 -0.011143387 0.009925602 -0.0046923514 0.005243807

body_conv.6.0.bias f4 [56]
00000000: 6f89 4d3e 5f19 953d 1c0c 873d 23c7 76bd
00000010: d973 68bd cebe e43b 68ef 753c 6fea da3d
00000020: 22ba 2e3e 12ce 7f3d 3308 3abd 352f a43c
00000030: 184b c2bd 5fda 0b3e a920 0bbe 465a f3bc
00000040: b735 fbbd fab6 4f3c 32b0 a6bd d846 533e
00000050: 07ac e43c eace 8b3b 5e2a 03bd c835 b2bb
00000060: 9f80 ee3d 3008 303b 7e41 87bd ace7 673e
00000070: f6d9 633d 24be 32be d640 8fbd e572 97bd
00000080: 0ce2 c13a 0c19 283d ca96 26bd 1558 87be
00000090: 9aab cebd 8b71 c3bd e5f4 fdbd bdb2 00be
000000a0: 7bd7 513d a05f 3c3e b62d 2f3d f001 3abe
000000b0: 6bdb 7ebc 7a87 bd3d 06e0 393e c688 aebd
000000c0: b83f 06bd cff2 313d bdf1 0ebe d2d4 91bc
000000d0: fa17 3a3d 4633 12bc 0869 23bd 8eb5 94bc
0.20071958 0.0728023 0.065941066 -0.060248505 -0.056751106 0.0069807535 0.015010692 0.10689246
0.17063192 0.062452383 -0.045417976 0.020042041 -0.09486979 0.1365752 -0.13586678 -0.029706132
-0.12266105 0.012677902 -0.08139075 0.20632493 0.02791406 0.0042666094 -0.032022826 -0.00543854
0.11645626 0.002686035 -0.066042885 0.2264697 0.055627786 -0.17455345 -0.06994788 -0.07394961
0.0014792099 0.04103951 -0.040671147 -0.2643439 -0.10091324 -0.09543141 -0.124002255 -0.12568183
0.05123089 0.18395853 0.042768203 -0.18164802 -0.015555243 0.09254356 0.18151864 -0.08522181
-0.03277561 0.04344445 -0.13959403 -0.017801676 0.045433022 -0.008923357 -0.039895087 -0.018152978
