benchmark/classsr/experiments/pre_trained_models/FSRCNN_branch1.pth (torch_old, 46238 bytes, 16 tensors)

head_conv.0.weight f4 [16, 3, 5, 5]
00000000: 1103 2e3c 8cb3 df3d 568a 523d b49c ef3d
00000010: 91c5 103d adf2 9f3d 84eb 913d 3ddc b73d
00000020: 79b1 0f3d 3442 a63d 335e ed3c a740 ee3d
00000030: e00f 093f de1b ae3d 3bc6 5d3d 28c1 b53d
00000040: d237 a13d 8e61 bb3d df69 843d fad9 b33d
00000050: f048 ae3c 32ca e53d ca15 503d 89b2 c33d
00000060: 07a1 3e3d e316 9dbd 1720 20be c781 5fbe
00000070: abd0 3bbe cc1f 8cbd e1c0 d7bd 4ebe a4be
00000080: e65a 9abe 6dfe a8be 8f1e 04be e410 51be
00000090: ca39 9cbe d436 523d 47d1 a3be 1fb2 3bbe
000000a0: 4610 15be 6d2d b8be e2af cebe e5c5 9cbe
000000b0: 5082 2cbe db92 8cbd 4304 29be b2e1 55be
000000c0: d718 17be 6727 8cbd 283b 773d 375c ab3d
000000d0: 54db 6b3d 5512 bc3d 3bd4 853d d75b a13d
000000e0: 76e1 403d 8ca8 4f3e c260 803c 4859 b83d
000000f0: fc24 0d3d c8b9 4e3e c4d1 473f dd36 393e
00000100: 79e0 133d 57fe cf3d 4eca 9e3d 18e9 463e
00000110: 6c3e d93d 06ec 963d 5863 333d 6f1f af3d
00000120: dd66 be3d daa4 993d 9078 413d 888e 57bc
00000130: 6d4a 1dbc e4f8 803d a3d1 75bc 99ad 10bc
00000140: 0a6b 06bb f373 be3d 4c28 323e 3beb aa3d
00000150: 43af 4ebc b2ec 333d 6603 4c3e b800 ba3e
00000160: 106c 4b3e c0bc 363d d44a 64bc 97f4 c23d
00000170: 3c5e 483e 1d52 fb3d bbef 2d3c a1d4 0fbc
00000180: 62b6 e9bc 9762 523d d671 55bc 4fa5 eebc
00000190: d3c8 bb3c 655a 6b3c fcab a33d 7740 e93c
000001a0: ddc9 273c fc62 893c 4950 093e e6e3 6f3e
000001b0: 6435 c33d 471e 663c 9bcb a43d e18a 543e
000001c0: 65f7 b63e 57d7 693e 6286 bd3d 67d0 c53c
000001d0: 35dc dc3d ba5b 693e 1a75 e63d eb96 9dbb
000001e0: 8ebb b93b 1c82 ba3c 3397 503d 3b70 bf3c
000001f0: becb e4bb afb6 8dbc 0625 8b3b 01a7 5c3d
00000200: 9e28 da3a 536d b5bc b39c 443c 140b e53d
00000210: 2e67 543e 7d28 cb3d 7b5e 43bc bc7b ab3d
00000220: 16ea 6b3e b9af bb3e 8973 633e 7d84 783d
00000230: 5a96 be3c 2df8 de3d 02d7 533e e3c8 9a3d
00000240: a835 743b 03cc 07bd add2 963c 0a35 233d
00000250: 3253 d63b 6b3a 34bc b510 6d3c add5 05bd
00000260: d8b6 4a3c e24f 8ebc fc5c 33bc c1cd 14bd
00000270: 1a0e 3fbd 2d30 143e 419e d63c 8cf3 9bbb
00000280: 97e4 c73c 2cf0 d73d b2f0 99be ea57 6f3d
00000290: 36bc 683a 0d68 3fbd 2c6e 903d 9401 d3bc
000002a0: d44c 1a3d 5604 5cbc 1c0c 363c ec82 9abc
000002b0: d10a de3b 9a5e 17bd 72ed df3b 962a 6d3d
000002c0: 780a 2c3b 427c 853c 235b 2ebc f57b f03c
000002d0: b426 4d3a 2368 96bd b6e2 b73d 1f7f 923d
000002e0: b4d7 193c 9949 01bd d37f d73d f93f 13bf
000002f0: 296f 1bbd da2a 1bbd 6711 61bc a483 f13d
00000300: 91a0 e3bd bd6d 603d 950d 2c3b b138 933b
00000310: f9dd 603c d2b8 823c 7fa1 3cbc 194b 243d
00000320: 622f 273d 2951 0abd d8b1 21bc 151d a2bc
00000330: 2222 97bc 53a9 0abd da78 38bd 5288 333e
00000340: 8cbf cd3d cc40 083d c0a9 a7bb 355a de3d
00000350: 8c5d b3be 42bc 4cbc 31af debc eefb ddbc
00000360: 56f3 d23d 5af9 1cbd 6708 9a3d b398 d7bc
00000370: 4857 61bc d367 1d39 afe6 f23c e317 0ebd
00000380: 2e86 85bc fe51 18bb 2cd7 dabc 11d8 30bd
00000390: 3a39 f5bc 70e7 07bd d7b1 36bd 2f94 15be
000003a0: 6496 58bd b1b9 4cbe 3779 bcbc 06d5 33bd
000003b0: c90b b2bc c7dc a73f ea3e 6dbd 03b6 8e3c
000003c0: 5cac 95bd ed35 8bbd 79e4 a7bd 83c3 37be
000003d0: b603 ddbc 5199 3bbd c4e5 65bd 03c8 1d3d
000003e0: 3cf7 b9bd edba a4bc 02df 003c caf0 6a3b
000003f0: 7619 483b 3680 57bc 53c6 1b3c ad0b ed3c
0.010620848 0.10922918 0.05140146 0.116998106 0.035344664 0.078099586 0.07124999 0.08977554
0.03508136 0.08118096 0.028975582 0.11633425 0.5353985 0.08501409 0.054144125 0.08874732
0.07871975 0.091494665 0.06465506 0.0878181 0.021275014 0.11220206 0.05080203 0.09555537
0.046540286 -0.07670381 -0.15637241 -0.2182685 -0.1834132 -0.06842002 -0.105348356 -0.3217644
-0.30147475 -0.3300661 -0.12902282 -0.204166 -0.3051284 0.05132182 -0.31995603 -0.18329667
-0.14556989 -0.35972157 -0.40368563 -0.30619732 -0.16846585 -0.06863948 -0.16505532 -0.20886877
-0.1475557 -0.06843453 0.06035915 0.08367198 0.057582214 0.09183184 0.065346204 0.07878845
0.047090016 0.2027914 0.015671138 0.09001404 0.0344591 0.20188057 0.7805445 0.18087335
0.036102746 0.10155933 0.0775343 0.19424856 0.10607609 0.07369237 0.043795913 0.08550917
0.09296963 0.07502146 0.047234118 -0.013156541 -0.009600264 0.06297472 -0.015003595 -0.008830451
-0.0020510578 0.09299459 0.17398185 0.08345648 -0.012615028 0.043926902 0.19923171 0.36328673
0.19865441 0.0446136 -0.013933856 0.09519308 0.19567198 0.12271521 0.010616238 -0.008778722
-0.02852935 0.051363554 -0.013027629 -0.02913156 0.022922909 0.014364813 0.07991788 0.028473122
0.010240999 0.016770832 0.13409533 0.2342678 0.09531668 0.014045305 0.08046647 0.20756103
0.35735622 0.22836052 0.09254147 0.024147226 0.10784189 0.22788897 0.11252804 -0.0048092506
0.00566811 0.02276712 0.050925445 0.023368945 -0.006982296 -0.017299024 0.004246357 0.053870205
0.0016644185 -0.022146856 0.012000251 0.111837536 0.20742485 0.09919832 -0.011924381 0.0837321
0.23038515 0.36657503 0.22212042 0.060673226 0.023265053 0.108871795 0.20687488 0.07557847
0.0037263427 -0.033153545 0.018411005 0.039845504 0.0065406794 -0.011000256 0.014469315 -0.03267448
0.012372695 -0.017372075 -0.010947462 -0.036329035 -0.046644308 0.14471503 0.026198508 -0.0047592577
0.024400992 0.10543856 -0.30066448 0.05843345 0.0008878143 -0.04673009 0.070522636 -0.025757588
0.037670925 -0.013428768 0.011111286 -0.018861257 0.0067761918 -0.036955453 0.0068337256 0.05790194
0.0026251357 0.016294602 -0.010641846 0.029355982 0.00078258966 -0.07344081 0.089787886 0.07153153
0.009389807 -0.03156433 0.105224274 -0.5751949 -0.037947807 -0.037882663 -0.013737059 0.117926866
-0.1111461 0.054792155 0.0026253213 0.004492842 0.013724797 0.01595727 -0.011513113 0.04011068
0.040816672 -0.033768807 -0.009869061 -0.019789258 -0.018448893 -0.033852886 -0.045037128 0.17532471
0.100463 0.03326492 -0.0051166713 0.108570494 -0.35032308 -0.012496056 -0.027183147 -0.027097668
0.10300319 -0.038323738 0.07521134 -0.02631793 -0.01375372 0.00015011364 0.029651014 -0.03469075
-0.016299333 -0.002324223 -0.02671393 -0.043174807 -0.029934514 -0.0331797 -0.044603195 -0.14607309
-0.0528778 -0.1999271 -0.023007018 -0.043904327 -0.021734135 1.3114251 -0.057921328 0.017420774
-0.073082656 -0.06797395 -0.081978746 -0.17945676 -0.026979309 -0.04580051 -0.056127325 0.038520824
-0.09080359 -0.020108664 0.007865669 0.0035849088 0.0030532754 -0.013153126 0.009507733 0.028936232

head_conv.0.bias f4 [16]
00000000: 50e6 0dbe e62d a4be 4d26 513c 90fc 40ba
00000010: 8bbc 283c 5ab8 d23d 48d5 53bc 6aeb e0bb
00000020: bdbe 873e 8a77 4b3c 182e 95bd 32bb 1fbd
00000030: 1783 99bc 4a33 ceba e071 4d3e 1ef5 13bc
-0.13857388 -0.32066268 0.012765479 -0.00073618535 0.010298858 0.102890685 -0.012929268 -0.006864001
0.2651271 0.012418637 -0.07284182 -0.038996883 -0.018739266 -0.0015731838 0.20062971 -0.009030608

body_conv.0.0.weight f4 [12, 16, 1, 1]
00000000: 06ff 1739 f952 0abe 77d8 0dbc 65d8 b936
00000010: e4de a03b cc24 b9b9 03ab 343c ddab 29b9
00000020: 2ca6 673e 52a9 21bc 5236 95bb 01fc 09ba
00000030: 8dee 68bc 90f9 3cbc 2182 c93b ca13 123c
00000040: a252 0eba c9df 85bd 85c5 ab3d a3bd ba3c
00000050: 1ad5 aebc c464 a43b 1028 dcbd f18b 1c3d
00000060: 1fef ab3d ad72 2d3e 115a b43d 0f6d b1bd
00000070: 6639 2c3d ab43 143e 4e4d b3bd 1339 b0bc
00000080: 8176 f2b9 782a 0e39 fb8a 4fbb 8dae 633b
00000090: 0da9 123b 6f46 15b9 4c0b 953b 8431 393c
000000a0: ec99 73ba 696a 7b3c b6ba 2bbc 0495 de3b
000000b0: c8c1 8dbb 2115 b9bf caca 1bbb 0a8d 703c
000000c0: 87a2 13b9 51d7 26b9 b30e 8c3b 433b e5bf
000000d0: 3ef6 9cba 78bb ceb8 337e 813b 7d5d 7e3b
000000e0: 1e47 a2ba 0327 6e3b d495 bfbb afea 7f3b
000000f0: fc4b 54bb 1308 ad3b 0c32 c73a e7bd d63b
00000100: f5fd 4ab9 0069 69b8 cd98 1f3b 1ca3 9cb8
00000110: 5a81 973a 9e36 40bf d853 19ba 7020 82b7
00000120: 4488 46ba 7ff8 3a3b dc42 d8b9 4f9e bf39
00000130: aa85 3739 850c 49bb 4819 743a 387f 7a3b
00000140: efaa 893b 722b 89bb de5b bebe 9646 46bd
00000150: a13c 043e cd52 dc3a 6325 a0be 662b c3be
00000160: 809a 8e3c dd64 c03e c32a db3e f523 4ebf
00000170: 4c0d 46be c5b7 43be e8f3 783e 2f93 66be
00000180: 24a0 063b af23 5abd 4bdb a4bd 5566 243a
00000190: 879a 283c f7a9 23ba adba 11bb 5c23 f53b
000001a0: e397 493d 191a 233c 14da 353c 4f33 813a
000001b0: 814a 57bb f352 333c 5166 65bc b360 0dbd
000001c0: 8298 a4ba fda5 103b 95f0 d83b f5af 9c3b
000001d0: 2090 a1ba da76 13b9 d68a 053c aa1a a83c
000001e0: 9005 b63b ef80 263c a22c 95bc 5917 793c
000001f0: 2884 24bc 363a 2d3b e123 633e fb20 54bb
00000200: 2c7a 8b39 1e4f 303e dea7 5a3c d3cd 8dba
00000210: e7ab 9cbb 0678 7239 e76b 56bc c138 debb
00000220: bdeb b6bd e730 dd3b f601 9e3b e3ec 25ba
00000230: 2f4b 4a3c 2960 bf3a 927f f0ba 9844 81bb
00000240: eacb 0abb 9a31 323a 8925 2b3f 0f63 3dbb
00000250: 016b 36be 92f3 71ba 9928 7bbe b6fd 2bbe
00000260: cf50 6bbc 23e5 d2be a9e2 82bd 779b aebc
00000270: 053c 893e 214d 953d a7f1 34be 05d6 8fbe
00000280: 071a 88bf b1b0 423a 90db 86bb dd65 8f3a
00000290: 064c f2ba bf99 f5b8 cc9d 323b f79c 593b
000002a0: 20d9 513b a064 943b d08d 2cbb 40a6 da3a
000002b0: 51d3 84bb 3e76 b03a aff0 eabb 7f7e 233b
000002c0: 5025 ecbb 4f8e bb3b e12e 4d3d 7831 df3c
000002d0: 6a88 c1be d48d 72bb 8c02 5cbe 3ce8 563e
000002e0: fbe2 d5ba 498f d83d c4ce bfbd 208d 52bd
000002f0: 6aef 0bbd 13b2 783e d2c4 bcbe ecce f93d
0.00014495486 -0.13508214 -0.008657566 5.5386213e-06 0.004909383 -0.00035313366 0.0110271005 -0.0001618112
0.22621983 -0.009867029 -0.0045535946 -0.0005263687 -0.014217031 -0.01153411 0.006149546 0.008915851
-0.00054291834 -0.06536824 0.08387283 0.022795504 -0.02134185 0.005016895 -0.10749829 0.038219396
0.08395218 0.16938277 0.08806241 -0.086633794 0.042046927 0.14478938 -0.08754979 -0.02151159
-0.0004624613 0.00013557996 -0.0031668532 0.0034741492 0.0022378594 -0.00014235986 0.004548466 0.011303309
-0.00092926505 0.015345194 -0.010481527 0.0067926664 -0.004326079 -1.4459573 -0.0023771995 0.014682064
-0.00014079559 -0.00015911205 0.004274213 -1.790871 -0.0011975241 -9.857764e-05 0.0039518117 0.0038813048
-0.0012380814 0.003633917 -0.0058467183 0.0039049794 -0.0032393923 0.0052805035 0.001519741 0.0065534
-0.00019358828 -5.5649318e-05 0.002435255 -7.469041e-05 0.0011558936 -0.7508334 -0.00058489805 -1.5512313e-05
-0.0007573406 0.0028529463 -0.00041248545 0.00036548308 0.00017502034 -0.0030677628 0.00093116285 0.00382228
0.004201285 -0.0041860873 -0.37179464 -0.04840716 0.12913753 0.0016809345 -0.31278524 -0.38119048
0.017407656 0.37576953 0.42806062 -0.80523616 -0.1934101 -0.19113071 0.24311793 -0.22517084
0.0020542229 -0.053256687 -0.08049639 0.0006271352 0.010290748 -0.0006243283 -0.0022236512 0.007481022
0.049217116 0.009954953 0.011099357 0.000985721 -0.0032850804 0.01094507 -0.014001445 -0.034516048
-0.0012557658 0.0022071593 0.0066204765 0.004781718 -0.0012326278 -0.00014063288 0.008150777 0.020520527
0.0055548623 0.010162576 -0.01820976 0.01520332 -0.010041274 0.0026432402 0.22181655 -0.003236829
0.0002660317 0.17217681 0.013345687 -0.0010818787 -0.0047812345 0.0002312363 -0.013087249 -0.006781668
-0.08931682 0.0067502144 0.004822011 -0.00063295494 0.012347027 0.0014600802 -0.0018348566 -0.0039449446
-0.002117867 0.00067975523 0.6685415 -0.0028898155 -0.17814256 -0.0009229715 -0.24527206 -0.16796002
-0.014362528 -0.41190442 -0.06390888 -0.021314366 0.26803604 0.07290102 -0.17670308 -0.2809297
-1.0632943 0.0007426842 -0.0041155294 0.0010940392 -0.0018485792 -0.00011711148 0.0027254699 0.003320513
0.0032020286 0.004528597 -0.0026329644 0.0016681626 -0.004053511 0.0013462973 -0.007169805 0.0024947224
-0.0072065964 0.0057237516 0.050093535 0.027245268 -0.37799388 -0.0037010806 -0.21485347 0.20987028
-0.0016318256 0.105742045 -0.09365609 -0.05140412 -0.03416387 0.2428668 -0.36868912 0.1219767

body_conv.0.0.bias f4 [12]
00000000: 5cab 943e fc8b 073d 69ae 0339 74e6 61ba
00000010: 36e2 1db9 4395 7dbd 063d d63d 1dc7 8eba
00000020: 3d78 9ebe 5c96 073d bb9c c53a cd74 8f3d
0.29036987 0.033092484 0.00012558106 -0.0008617409 -0.00015056957 -0.061909925 0.10460858 -0.0010893081
-0.3095111 0.03310238 0.0015076617 0.070047

body_conv.1.weight f4 [12, 12, 3, 3]
00000000: eac4 693d e1f1 543c 1982 123e 7ac9 dfbc
00000010: 86ed b6be 1f26 ee3d a7a4 9c3d a475 a03d
00000020: 5359 b13c 1a2a e6bb 3891 21bd 31cc d83c
00000030: b0b6 76bd bab8 2bbe 94d4 2c3e 26e2 b33d
00000040: 5884 86bd c9c6 50bd b824 ae3d 5412 dabd
00000050: ce40 f4bd 63d0 95bd 6d09 0dbf 867e 5abd
00000060: 75b8 a63c a593 623e dfc1 31bd b02d 92bd
00000070: 5a58 24be 6515 f73c 5b0b 063d 293f b73e
00000080: 8a28 37be 7031 3dbd b843 263e 9942 39be
00000090: aa57 d43d b165 cebd f6dc 543e b5f5 bc3c
000000a0: df9f 0bbf 9e9e 473e ef5c 7a3d 441a 8dbc
000000b0: 2b6f 9c3d 3405 cc3d de70 dc3d ce59 b2bd
000000c0: 4da1 58bc 16ca d83e f3a0 f3be 270b f2bc
000000d0: 777f f5bd 98ba 10bf d02b fd3c 298c c2bd
000000e0: 9c7e 043e 1c35 98bd e6ff 4abe 4d21 ce3c
000000f0: 81de ccbc 2fb5 8fbd 3639 b73c 45bd 1f3d
00000100: 648e 233e 1e9e 09be 892a 83be 1674 9c3e
00000110: 9671 adbe bbea 213e 96bc 3d3e 154b f93d
00000120: cfac 3bbd bf35 51bc 3cb8 38be e4b8 1f3d
00000130: cdf2 ce3e 8c7f 43bd 2d65 88bd 0739 37bd
00000140: 0e30 8fbd 246d a63d 0e10 1bbc 37cf 743d
00000150: 6a1d 623d 2642 82bf ab87 d7bd 6efe 323d
00000160: 2d02 8f3d ad21 843c 43f7 6c3c 7cd7 b03d
00000170: 182e a63e 0e3c 923d 18cb 6abf 6ea2 b03d
00000180: e02d 3d3e f384 e6bd fec2 683e b3ee a1bd
00000190: 442d 5fbd 9dcc 52be 2b0d 26be a68b 483f
000001a0: 9c1b d1bc 92c9 46bd d114 e53d 406d 46bd
000001b0: 730c 0abe a91d afbd aa87 77bd 32d1 3ebe
000001c0: 3dfb 433f 8a41 393d 7c5f 16be 4fcd 70bd
000001d0: 042b 88bd 43ff 2c3c 4fc4 92bb f6d1 ad3c
000001e0: 4e66 813b 141d 293b a91f 6e3c a7c9 2fbd
000001f0: e5e2 443c 2c49 81bc fd0d 263e 0982 883e
00000200: 1db3 fc3d a3a1 3f3e 5048 8fbf 1603 58bb
00000210: 8d33 8f3d a153 64be 0347 943d 1417 27bc
00000220: 38e8 123e eeb5 fa3c 7075 31bc 58ed ddbe
00000230: cb7c 463e c750 95bd c86b 8c3e fbf4 103a
00000240: 59a6 bbbd b362 643e 71ae 17be 0f24 b43e
00000250: 9ce3 483e 2498 a7bd cd90 0ebe 2f68 61be
00000260: ed5b e8bd c963 be3c 67b3 fd3d a4f9 01be
00000270: 6d3e d83c f9b0 10be 1d75 573d 18d2 803c
00000280: 450b 043d 717e 563b c895 783d df89 8ebe
00000290: 7b25 023d c248 8cbe 4415 f33e 7002 07be
000002a0: 1c79 ad3d f8b2 2ebe 1621 09bd 335f 70be
000002b0: e20d 2cbe f11f 66be 5c5c 633d ff8d f13e
000002c0: 325f b23d d3ab b4bd f1e0 973e 6e7f a7bc
000002d0: d582 ec3d 0056 2a3e c908 393d 2aa5 833e
000002e0: e987 60bf 9b78 4cbc 4d20 053e 9177 bf3d
000002f0: 4563 b43d 4b5a 123e 2e88 bbbd 9209 ddbb
00000300: 393f aa3c 525c 9d3c 47d3 c2bd f063 f03c
00000310: 6116 8c3d 43fa 343d 5483 593e f268 853e
00000320: d0a8 473e 008e 09bc 7214 33be 73e2 31be
00000330: fe10 ca3c 04c1 07bf 359b ce3d bfbd b8bd
00000340: 0822 b13d cd4f 0abd 8a0d 363c 91d7 01bc
00000350: cdf1 243d cc83 f13c b319 c3bd 72ee 30bd
00000360: ec4d e8bc 41aa 2e3e 37c1 6d3d 1d71 ae3c
00000370: 13f6 183f a196 e9bc 1b6e 09be 0073 95be
00000380: d2e8 59be 9e0d ac3c b917 4f3d bb62 2bbd
00000390: 82bb 7ebe 0541 5a3e 1d80 733d 8759 bf3d
000003a0: 5f74 dbbd 3ba7 62be f387 27bd 9cf2 a1be
000003b0: 9a8f 8cbd 00fd 5c3e 0b7a 8abe 6713 dbbe
000003c0: eb2f e23d eca2 123f 379c 203e 4639 4ebc
000003d0: c9a1 973e 1e6d 55bc e9b1 af3e 5df6 fcbd
000003e0: 60a2 cabd ed7f db3d bec9 e93c f377 adbd
000003f0: ef32 fdbd 0649 b6bd 545f c5bd 33ec dbbe
0.057072558 0.012997122 0.14307441 -0.027317751 -0.3572809 0.11628365 0.076485924 0.07834938
0.021649038 -0.007024062 -0.039445132 0.026464554 -0.060232818 -0.16769686 0.16877967 0.08783369
-0.06568211 -0.050970826 0.08503097 -0.10648027 -0.11926423 -0.07315137 -0.5509251 -0.05334332
0.020351628 0.22126634 -0.04339778 -0.071376204 -0.16049328 0.030161569 0.032725673 0.35790375
-0.17886558 -0.046189725 0.1623677 -0.18091811 0.10368283 -0.1007799 0.20787415 0.023066381
-0.5454082 0.19494101 0.061123785 -0.017224438 0.07638391 0.0996193 0.10763715 -0.08708535
-0.013222051 0.4234168 -0.47583732 -0.029546333 -0.119872026 -0.5653472 0.03090468 -0.0949939
0.12938923 -0.07432005 -0.1982418 0.025162363 -0.025008442 -0.0701698 0.022366147 0.03899886
0.15972286 -0.13439223 -0.2561839 0.30557317 -0.33875722 0.15812199 0.18528971 0.12172524
-0.0458191 -0.012769162 -0.1803903 0.038994685 0.40419617 -0.04772906 -0.06659923 -0.04473212
-0.069915876 0.08126286 -0.009464277 0.059767928 0.055203833 -1.0176437 -0.105239235 0.043699674
0.06982837 0.01612934 0.014463249 0.086348504 0.32457042 0.07140361 -0.91716146 0.08624731
0.18474531 -0.11255827 0.22730634 -0.079068564 -0.054486528 -0.20585866 -0.1621596 0.78338087
-0.02552586 -0.048532076 0.11185611 -0.048444033 -0.13481312 -0.08550579 -0.060432114 -0.18634489
0.76555234 0.04522852 -0.14684862 -0.058789548 -0.066488296 0.010558906 -0.004478968 0.021218281
0.0039489632 0.0025804685 0.014533916 -0.04291692 0.0120169865 -0.015781961 0.16216274 0.2666171
0.12338851 0.18714003 -1.1193943 -0.0032960824 0.069922544 -0.22297527 0.07240107 -0.010198373
0.14346397 0.030604329 -0.010831222 -0.4334514 0.19383542 -0.07290798 0.2742598 0.0005529669
-0.09162588 0.22303276 -0.14812638 0.3518376 0.19618076 -0.081833154 -0.13922425 -0.22012399
-0.113456585 0.02324094 0.12387734 -0.12692887 0.026396954 -0.1413001 0.052601922 0.01572518
0.03223731 0.0032729174 0.060689718 -0.27839562 0.031774025 -0.2739926 0.47477162 -0.13184524
0.084703654 -0.17060459 -0.03347882 -0.23473816 -0.16802171 -0.22473122 0.055508003 0.47178647
0.08709563 -0.08821835 0.29663804 -0.020446505 0.11548392 0.16634369 0.045174394 0.25711948
-0.8770738 -0.012479926 0.13000603 0.09348977 0.08807997 0.14292257 -0.091568336 -0.0067455256
0.0207821 0.01920906 -0.09512954 0.029344529 0.06840206 0.04418398 0.21241504 0.2605663
0.1949799 -0.008395672 -0.17488268 -0.1737154 0.024666306 -0.53028893 0.10088197 -0.09020566
0.08649069 -0.03376751 0.011111626 -0.00792493 0.04026966 0.029481791 -0.09526386 -0.04319615
-0.028357469 0.17057134 0.058045592 0.021294171 0.5975048 -0.028514208 -0.13420908 -0.291893
-0.2128022 0.021002587 0.050559733 -0.041842204 -0.24876216 0.21313865 0.05944835 0.09343248
-0.107155554 -0.22134106 -0.040901136 -0.3163041 -0.06863327 0.21580887 -0.27046236 -0.4278824
0.11044296 0.5727985 0.15684591 -0.012586897 0.2961562 -0.013026504 0.34315422 -0.123516776
-0.09894252 0.10717759 0.028538581 -0.08470144 -0.123632304 -0.08900647 -0.09637323 -0.42953643

body_conv.1.bias f4 [12]
00000000: 7183 a3bc c60f 1cbc 70ff 3cbc 9fda 3e3b
00000010: 0c17 75be 7161 ab3b b2a8 903c 9c18 1abd
00000020: 17b8 17bc 0402 053c 0f98 b73b ee94 adbd
-0.019960137 -0.009525245 -0.01153551 0.0029122008 -0.23934573 0.005230122 0.017658565 -0.037621126
-0.009260199 0.008118156 0.0056028436 -0.08475672

body_conv.2.weight f4 [12, 12, 3, 3]
00000000: c2ca 22be 5f3c 043f a98b 94bd 1a59 e9bd
00000010: 6580 88bf 6095 ff3e d996 ef3d 7b75 2fbb
00000020: 35dc a13e 1185 babd b23b 123e 7af2 37be
00000030: bc70 aebe 148e d0be 4b58 b23e f236 70bd
00000040: a2b5 d3bd 3eb3 aa3e 4d2f 9bbd 5c76 473e
00000050: 4fb5 42bd 599e 9abe 5aca 10be 9d10 f83e
00000060: 51fc 113d 4b1d 2f3e ce51 373d cbb5 16be
00000070: 087a 243e 5a9e e5bd 596b dfbe 269d 85bd
00000080: ef31 2e3e 7851 7bbe 8651 bc3e 0b59 9cbe
00000090: 21e4 ee3d 6232 97bd 8f16 173e de35 933c
000000a0: cfe5 90be 1481 c2bd e6b7 173e e5ea eebd
000000b0: 753f 0b3e a709 b53d 4783 9f3d bd62 9f3d
000000c0: 85ae 703e c8de 03bf ce53 063e 52b8 2cbd
000000d0: 39ca 6c3e 523a 74be 1d59 10bd f4c5 a93e
000000e0: b28b a43c b831 723e 41ef 12bd fb7d f939
000000f0: 5636 983d 5d94 0b3f fec0 e43e 3d3d 223d
00000100: eadd 8ebe 232a abbb 1300 64bd 8a3f 443e
00000110: ce69 d6bd 44b9 38be bd67 b03e 4224 bd3c
00000120: 6801 1e3e 2596 85be 656f f23c 1198 bbbe
00000130: 123b 4f3e 4d14 2dbc 1138 a7bc 8052 133e
00000140: bf6c afbe 8ef3 913d 6501 c23c a2d0 0d3d
00000150: 1914 a13e 0db6 09bf caa1 34bd 1074 c1bd
00000160: 2eb5 07be 25ac 6b3d 93e6 163e 6698 9cbe
00000170: 7778 8cbb 180d 99be c389 9c3e c013 ed3e
00000180: b123 753d 71c1 c73d c9f9 433e 2f41 a33d
00000190: 16ac c5bd d450 11be d994 a23e ad6d b93d
000001a0: 8a47 bcbc 662c 78bd 9e60 e8bd a3b8 33bd
000001b0: 645d 48bd b4d9 c9bd 7a42 1f3c 92b0 11be
000001c0: 4e41 823e e498 a63d 03ed 46bc fb0c 5e3d
000001d0: fddb d53c 9d5a 573e 0e81 e9be 31e1 093e
000001e0: 4b57 ab3e eb3c d6be fc6a 2abe f928 253e
000001f0: ee64 ad3e 2dea e73d c0a0 bb3d faef 52be
00000200: b985 76bd c499 083c 9e08 613f 118d 80be
00000210: c0d7 f83d ef45 82be 69a3 a7bd 14e6 d33e
00000220: e937 233e 424a f0bd aeae 3cbd 3c25 c8be
00000230: 4ab4 6cbe 5bf9 16bd befb 093f 380a d63d
00000240: 58f0 623e 5cbd 373d f219 72bd 7476 f6bc
00000250: 00fc 8cbe b88a 073e c7f3 35bd 969e 54bd
00000260: 267c 893d 475b 9a3b 093f 9abe 56be 1cbd
00000270: 4362 453d a8b7 c8be 5577 003f e144 56bd
00000280: acdc c9be 01cb fd3d 9d24 eb3d 68df a0be
00000290: d11b 153e 7e45 703d 1646 0ebf 52b0 a63d
000002a0: e0c2 12bd c942 eebd d857 51bd 94e6 13bd
000002b0: ca19 0c3e 4b82 bdbb e403 63be 921d c3bd
000002c0: bf9e 073e 7f8c c83d d18d ba3d 9468 21bd
000002d0: 8c80 af3d 3c35 1b3d 76ce 92bb 78a2 1d3e
000002e0: 178d 0ebf a66e e13c 9031 a13e 51d7 163e
000002f0: eb56 b93d 30e4 c2bc 1fc7 323e 91b7 49bd
00000300: 060d 283e de6f 88be 0824 3b3e 791c b1be
00000310: b0e6 d63c 19bd 3c3d e062 48be eae5 413e
00000320: 1c39 ac3c 410d cdbe 802f 0f3f c8bd b7be
00000330: 1691 79bc ba17 163e b4d7 c7bd 6f48 4fbc
00000340: d7d6 febb 2eff 7e3e 9c93 24be 1c97 51be
00000350: 4229 68bb 7dde a6bd 97e7 b93e 639d 13be
00000360: f56f 23bd f8df 503c 6754 373e 8488 203c
00000370: f120 b8be c837 0a3e 109e ea3d 0fbb 89be
00000380: 5fc2 213e 3a92 e9bd df01 2b3f fdf9 4ebd
00000390: 1a9a 9e3d 4f4c e8bf b088 1f3f df7b d73d
000003a0: 18ee de3d f340 993d deb9 f13d 1c5a 63be
000003b0: f6fa f4bd 7855 523e 9768 373f a74b 29bd
000003c0: 5eb6 94bc 434b 85be 948f 0b3e b666 49be
000003d0: 66da f5be 7711 e33c 2142 263d 374b b93e
000003e0: dfce 21be f436 7c3c c95b 003f a042 bbbd
000003f0: d012 13bd 0bb8 dd3d 4664 d0bd 19bb a6bd
-0.15897658 0.5165462 -0.072532006 -0.11393948 -1.0664183 0.49918652 0.11698694 -0.0026772905
0.31613317 -0.09107412 0.14280584 -0.17963591 -0.34070385 -0.40733397 0.34832987 -0.05864615
-0.10337378 0.33339876 -0.07577381 0.19478744 -0.04753619 -0.30198935 -0.14139691 0.48450175
0.03564102 0.17101018 0.04475575 -0.14717786 0.16062176 -0.11211844 -0.43636587 -0.06524114
0.17011236 -0.24542797 0.36780947 -0.30536684 0.11664606 -0.07382657 0.14754699 0.017970022
-0.2830033 -0.09497276 0.14816245 -0.11665896 0.13598426 0.08839732 0.07788711 0.07782505
0.23504074 -0.5151181 0.13117906 -0.04216797 0.23124017 -0.23850372 -0.035241235 0.3315884
0.020086143 0.23651779 -0.0358727 0.00047586844 0.07432239 0.5452326 0.4467849 0.039609183
-0.27903682 -0.005223529 -0.055664133 0.19164863 -0.104693994 -0.18039423 0.34454146 0.023088578
0.15430224 -0.26091114 0.029594133 -0.36639455 0.20237377 -0.010563922 -0.020412477 0.1438694
-0.34262654 0.071265325 0.023682306 0.034622796 0.31460646 -0.5379341 -0.044099607 -0.09445965
-0.13252708 0.057537217 0.14736395 -0.3058502 -0.0042868215 -0.29892802 0.30573854 0.4630413
0.05984849 0.09753693 0.19138254 0.07971417 -0.096519634 -0.1419099 0.31754187 0.09054122
-0.022983331 -0.060589217 -0.11346553 -0.043877255 -0.04891719 -0.09855977 0.009720439 -0.14227512
0.2544045 0.0813463 -0.012141469 0.054211598 0.026105875 0.2103066 -0.45606273 0.1346481
0.33465037 -0.41843352 -0.16642374 0.16128911 0.33866066 0.11323962 0.0916152 -0.20599356
-0.06018612 0.008337442 0.87903774 -0.25107625 0.12150526 -0.2544398 -0.08185465 0.41386473
0.15939297 -0.117329136 -0.046065025 -0.39090908 -0.2311565 -0.036858898 0.53899753 0.10451168
0.22161996 0.04485832 -0.059106775 -0.03008578 -0.2753601 0.13236511 -0.044421937 -0.05190905
0.067131326 0.004710588 -0.30126217 -0.038267456 0.048189413 -0.3920262 0.50182086 -0.05231178
-0.39426172 0.123922355 0.11481593 -0.31420445 0.14561392 0.058660023 -0.5557569 0.08139099
-0.03583038 -0.11633832 -0.051109165 -0.03610857 0.13681713 -0.0057833544 -0.22169453 -0.095271245
0.1324415 0.097924225 0.091090806 -0.039406374 0.0856944 0.037892565 -0.0044801785 0.15394008
-0.55684036 0.027518582 0.31483126 0.14730574 0.090497814 -0.023790449 0.17458771 -0.04924733
0.16411218 -0.26647848 0.18275464 -0.34592035 0.026233047 0.046078775 -0.19568968 0.18935362
0.021023326 -0.40049174 0.55931854 -0.3588698 -0.015232345 0.14657488 -0.09757939 -0.012651547
-0.0077770757 0.24902031 -0.16071934 -0.204678 -0.0035424982 -0.08147905 0.36309502 -0.14415507
-0.039901692 0.012748711 0.1790329 0.009798173 -0.35962632 0.13497841 0.11455929 -0.26900527
0.15796803 -0.11404844 0.6679973 -0.050531376 0.07744236 -1.8148288 0.62317944 0.105216734
0.108852565 0.07483091 0.118030295 -0.22202343 -0.119619295 0.20540416 0.71643966 -0.041331913
-0.018153366 -0.26033983 0.1362899 -0.19668087 -0.48018187 0.027718289 0.04059041 0.36190197
-0.15801571 0.015393961 0.50140053 -0.09143567 -0.035906613 0.10826119 -0.10175376 -0.08141155

body_conv.2.bias f4 [12]
00000000: 889c 51bb 2f1c f33b 4dc0 c2ba fcd7 fd3a
00000010: 956e a7ba acd6 12bb 33df 563c 2c3e 67bc
00000020: e0c8 89bc 9a6c 023e 43a4 40b9 9501 60bd
-0.003198417 0.007419131 -0.0014858335 0.0019366737 -0.0012774045 -0.0022405786 0.013114738 -0.014113944
-0.016819417 0.1273674 -0.00018371739 -0.05468901

body_conv.3.weight f4 [12, 12, 3, 3]
00000000: 1d0a 8bbe f223 283e 80f9 b73d b9ec 733c
00000010: 50e9 ac3e 79cd 39be b4b5 64be 84be 633d
00000020: 9b0c ccbd dfeb 8ebd ea83 173d e44f c6bd
00000030: 8f8d 023e f1d7 c63e 9f97 0fbe 5782 32bd
00000040: c61f c13d 6e3c 57be 5abe aabd 9d60 23be
00000050: e26a a8bd 2943 8b3d bb86 a9be a24c 913d
00000060: 7db7 593e 15f1 233e 328e 8a3d 226f 5f3c
00000070: 12dc 873e 3d9f c33c c023 363e 1765 473e
00000080: ba73 b0be d658 3dbe 0226 7bbe 6ec5 c8bd
00000090: 43b5 e3bd 7349 e83c b1cf e8bc e92d 2ebe
000000a0: eb0a 91bc 0bb5 b63d c7ed 0dbe 7831 063e
000000b0: bc3f 083e 83cc 4e3d 6726 8e3e b301 1e3e
000000c0: 4b28 37bd 831f e2be 8dcb 3a3e 256e a3bd
000000d0: 2de9 6abe 8aff e53d 661a 7fbc c35e 783e
000000e0: 7ff7 003e 78fe a9be 9e42 983e 36f0 c23e
000000f0: 2840 a4be 0d42 96be cde0 5a3b a2f5 913d
00000100: 4224 963d 0e5b b53d 10d3 1b3e d834 9e3e
00000110: c8b9 70bc 8825 40be 02af babd daf3 57be
00000120: 88c1 7d3d 640f 2dbd a568 85bc 3c7f 553d
00000130: 3ac2 01be 1169 26bd 4ff4 85ba cafa 17bd
00000140: 804c c03b ec51 e13d f14a 2e3e 251d f23d
00000150: c200 0c3e ed6e 853e a352 2c3e 126c eb3d
00000160: b8a5 1b3e 3961 a13d 0c40 f1bc 1c83 5cbd
00000170: 6c14 9abe 252a db3c a701 0f3f e180 33be
00000180: 31d9 1fbe 8850 1a3e 6453 4f3c 3292 d238
00000190: dd70 31bd 7e53 8cbc 6cea e3bc 03f1 6bbe
000001a0: ea92 d0bc 821e 99bb b2ab c6bd 3bf3 2ebc
000001b0: d433 2f3d e49c 5fbe 6f7a 033e 845c 833e
000001c0: a26e 8f3e f587 ea3b 8dbd adbd 4209 55be
000001d0: 3eca f33d 6f5a fcbd db06 a4bd 304e 05be
000001e0: 418d 1dbd 09dd 2ebf 4ebf 8f3e 610b 013e
000001f0: 1b2f 363e 06a2 9d3d 3db9 0cbe 089c f0bd
00000200: eebe 04bd 6deb 913e 512d cbbe b0cf 4f3d
00000210: 1a91 4fbe 1f64 0c3d 9fcb eabd e28c 13be
00000220: fe88 223d 92db 5bbc ea60 813d df7f 52be
00000230: 5331 963e 8fa8 b4be 6ff4 903e 3396 1b3e
00000240: c7b2 0cbf 6566 c63d 4764 c9bd faa3 17bf
00000250: 14d4 63be 5bb8 ee3c 1b93 04be ea30 ac3d
00000260: 1fd6 993c 69b9 99bc 7bb3 dcbe 3201 a1bc
00000270: 85fa 423e 1355 edbc eb06 8cbe d656 e0bd
00000280: e33a b93d 4ad1 573c be38 003d db6b 0ebd
00000290: 860d e13b 0d4b 8abd df33 8d3e 9957 ac3d
000002a0: dfbf 50bd 67e5 be3e f58a 173e c101 6b3e
000002b0: 489b ddbe 1c09 2d3e 448b 343e ea95 873f
000002c0: 68d8 6a3e 8cac 953e e468 50be 03d3 923d
000002d0: 24ac 7ebe e65a 663d f802 873d 3afa 8eba
000002e0: 8776 433c a394 243d 3229 30be a2ba 893d
000002f0: 3591 803d 730b 22be d82e 1fbd 73cc 28bd
00000300: ceb1 ffbd fb30 8c3e 3c22 1e3e 08be c4bd
00000310: 0d9a 29bd 90e5 813d a0ce 4cbe 4dee 40be
00000320: c0ee 503d 1c1b aabe eb84 353f 534d cb3d
00000330: 3b4f 063d 5933 223d d060 da3d dcb1 9ebc
00000340: 10f7 173c 8909 82be 2b18 19be 86d7 fb3c
00000350: af03 113e 7d76 913e 9b3f 2fbd deb8 33bc
00000360: c55e 63be 14f5 bebe 35a0 e2bd 8e5b 043f
00000370: be25 96be 5294 943e 816f 33be 16ae 8bbe
00000380: 6702 983e 99df afbd e3c7 f43e 6ac7 83bd
00000390: f057 36be 5eda b6be 5eae 003e 23bc 553d
000003a0: e3f3 013f d2e8 07bd 3d26 9c3d 49c0 c13e
000003b0: ce33 813c e3bf 553e a2c0 eabe 5b38 e9be
000003c0: 2daa 2e3d d4f0 1a3e eb87 ec3d d29e afbc
000003d0: d9dd 5c3d 9a34 c6bd bed9 773e d64c dbbe
000003e0: 361c 133e 2963 c0be 9cec 20be 168d 7fbc
000003f0: ffb7 953e 245a a8bc 73fc 103e 4bfc 38be
-0.27156153 0.16419962 0.08983135 0.014887982 0.33771753 -0.18144788 -0.22334939 0.05560161
-0.09963342 -0.069785826 0.036991037 -0.09683207 0.12749313 0.38836625 -0.14022683 -0.043581333
0.094298884 -0.21019146 -0.08337088 -0.15954824 -0.08223511 0.06799919 -0.33110604 0.07094695
0.21261401 0.16009934 0.06765403 0.013637336 0.26535088 0.023879642 0.17787075 0.19472156
-0.34463292 -0.1849092 -0.24526218 -0.09803282 -0.11118557 0.028355336 -0.028419347 -0.17009701
-0.017705401 0.0892125 -0.13860236 0.13104808 0.13305563 0.050488006 0.27763674 0.15430336
-0.04471616 -0.44164667 0.18241711 -0.07979993 -0.22940512 0.11230381 -0.015570259 0.24254899
0.12594412 -0.33201957 0.29738325 0.3807389 -0.32080197 -0.29347268 0.0033398152 0.07126929
0.073311344 0.08855258 0.15217233 0.30899692 -0.014692731 -0.18764317 -0.09115411 -0.21089116
0.061952144 -0.042251006 -0.01628525 0.052123293 -0.12671748 -0.040627543 -0.0010219904 -0.037104405
0.0058684945 0.110019535 0.17020775 0.11821965 0.13672164 0.26061192 0.16828398 0.11495222
0.15199935 0.07879872 -0.029449485 -0.053835973 -0.30093706 0.026753495 0.55861896 -0.17529632
-0.15610196 0.15069783 0.012654159 0.00010040811 -0.043320525 -0.017129656 -0.027821742 -0.23041157
-0.02546068 -0.0046728263 -0.09700717 -0.010678108 0.042774037 -0.21837193 0.12839673 0.2565652
0.28014094 0.0071573206 -0.084834196 -0.20804313 0.11903809 -0.12321936 -0.0800912 -0.13018107
-0.03846479 -0.6830602 0.2807564 0.12601997 0.17791407 0.07696919 -0.13742538 -0.117485106
-0.032408647 0.28499928 -0.3968301 0.050735176 -0.20270196 0.03427517 -0.11464619 -0.14409211
0.039681427 -0.013419049 0.06317313 -0.20556591 0.29334506 -0.3528485 0.28311488 0.15194015
-0.5496029 0.09687499 -0.098335795 -0.59234583 -0.2224887 0.029140642 -0.12946741 0.08407767
0.018778859 -0.018765168 -0.43105683 -0.01965389 0.19040878 -0.02897123 -0.27349028 -0.10954063
0.09044435 0.013172457 0.031304114 -0.034770828 0.006868067 -0.06752596 0.27578637 0.084151454
-0.050964233 0.37284395 0.14799102 0.22949888 -0.43282533 0.16898006 0.1763125 1.0592625
0.22934115 0.29233205 -0.20352513 0.071691535 -0.24870354 0.05623903 0.06592363 -0.0010908314
0.011930115 0.040180814 -0.17203215 0.067250505 0.06277696 -0.1582468 -0.038863033 -0.041210603
-0.124850854 0.2738112 0.15442747 -0.09606558 -0.04140668 0.06342614 -0.20000696 -0.18840905
0.05100894 -0.33223808 0.7090594 0.09926858 0.032790404 0.03959975 0.10662997 -0.01937192
0.009275213 -0.253979 -0.14950626 0.030742418 0.14161561 0.28410712 -0.04278527 -0.010969369
-0.2220412 -0.37296355 -0.11065713 0.517022 -0.2932567 0.2901941 -0.17523004 -0.27281255
0.29689333 -0.0858757 0.4780875 -0.064345196 -0.17806983 -0.35713476 0.12566516 0.052181374
0.50762767 -0.03318102 0.07624481 0.37842014 0.015771773 0.2087398 -0.45850092 -0.45550808
0.04264276 0.15130931 0.11549362 -0.021438036 0.053922508 -0.09678002 0.24204156 -0.4283206
0.1436623 -0.37575653 -0.1571526 -0.015597602 0.2924194 -0.020550795 0.14158802 -0.18064992

body_conv.3.bias f4 [12]
00000000: b118 ff3b b2e6 3bbb 86e5 293b 6715 483b
00000010: 650c c0b7 4079 af3b 2f1f 203c 5a3a 903c
00000020: 3454 e4bc 0029 f3ba 8403 85bc 8412 a3bc
0.007784926 -0.002867144 0.002592416 0.0030530335 -2.2893955e-05 0.0053550303 0.00977306 0.01760595
-0.027872182 -0.0018551648 -0.016237028 -0.01990629

body_conv.4.weight f4 [12, 12, 3, 3]
00000000: 21a1 393d 9b28 ca3d 9dc1 523d 012d db3d
00000010: d15f 4c3e c016 ca3d e593 993d d151 d43d
00000020: a08c 383d 1219 dabc ae4a a9bc 2b97 e23c
00000030: 8b44 88bc 644c f4bc 4e75 6e3d 65f1 993c
00000040: 48a5 11bd 55cb e43c 089b 053d e72d f53d
00000050: 9fd4 cf3d d70f 58bd 7866 87be 8f7b 083e
00000060: 5e8a 20bc 5104 7cbd 8dab 25bc d6be 9cbc
00000070: f9c6 74bc 5041 05bc 4c65 8e3c 21ea dc3d
00000080: 1757 95bb 8629 8fbd b056 00bc 11d5 cd3c
00000090: 1590 f23c 3578 d13d 9c1e 573c 33e3 76bc
000000a0: e326 c2bd 4814 96bd ff9c 393b c61a 3cbc
000000b0: 368a 373d 7724 593c dd85 50bd baae b43c
000000c0: 10a2 abbb b543 153e 7242 3dbc 3fe3 a53c
000000d0: 60ee 04bc 8415 023d c1a9 15bd 6519 c1bc
000000e0: d435 683c 17b1 9b3c b61a dd3d bd27 823c
000000f0: a7a8 43bd 87df 863b cfd8 01bd 8acc 8fbc
00000100: 362a 023c 78f0 563d 0427 3b3b 6539 7fbd
00000110: 73db 9239 19ae 15bc d129 7f3d f15f ccbc
00000120: 7307 e6bd 97d2 f8bc 6c72 8bbc 685f 8abb
00000130: 7ca8 70bc f1a5 cb3d 9781 08bd 60fc c73d
00000140: 85ea c3bc ce49 96bb fc7b 8fbd 479c 5b3c
00000150: 827e b53c 72c2 c8bd 0e8c 21be 8828 8a3d
00000160: d16d 2b3e f95f f33c 2db5 8cbb 752f 58bd
00000170: 5bcd 26bb 1882 47bd be51 0bbe 9b77 99bd
00000180: 7798 463b 8371 a7bd 2231 47bc 8de3 51bc
00000190: f85e 41ba 1bb2 dbbc f1e4 3ebd e3da 613e
000001a0: 53bd 80bc c8cd 2ebd 5fcb f5bd 60b0 a6bc
000001b0: 447a 1ebe 4295 b1bd 51cc d7bd f861 71ba
000001c0: 1e5d 533d 4920 833d 8e0f 193d 8a55 0ebb
000001d0: 763c 373e 26af b03d 9631 aa3e 198e a43e
000001e0: 33a2 a63d e07e 0abf 970c 343d c9ed 863d
000001f0: b826 51be c562 973c 971b c7bc affc 3b3f
00000200: f1fa 3a3e 60ab f9bb f8ef 3bbf 0ad9 973e
00000210: bde7 0cbe 0d4c a53b 3ae4 cebc 5b7a a43e
00000220: 518d 13be 8c63 14bd b1ca 04bd 9031 b33d
00000230: 08a4 91be 898b 983c 0447 a43e 267b b7bd
00000240: 515c b2bd 8b50 b93e 1107 443c 9434 9b3e
00000250: 8612 a2bd 333f 31be 58a3 81bd 5366 be3d
00000260: 57c3 02be 0677 11bd 0d64 81bc 3362 213e
00000270: 5710 e0bd b646 1fbe b774 a33d d6e5 1e3d
00000280: b33e 853c d04a fc3b 5aee 393a 4245 a53e
00000290: e841 bd3d 823a f3bd 34cc 6b3e ca6a cebe
000002a0: 8667 41be db43 023e 0b1f 51bc 96bf ac3d
000002b0: 5744 a33e d716 b73e a432 e43e de62 6e39
000002c0: 584d 98be 16c4 ba3d f88b 24be 0fb1 08be
000002d0: 666a d0be 9480 cabe ee54 a73d 00b7 b9be
000002e0: 71cd 4f3f 53ee 813d 42ee 7ebd 2c64 52bd
000002f0: 7c12 443e 6271 d33d b184 51be 777f c33e
00000300: c57d 753e 1f2d 7cbe 5457 0c3e af8b 6e3e
00000310: 8489 27bd 3d48 2c3e 5af6 f1bd 9291 fa3d
00000320: 92d3 053e 0304 14bc 7733 4ab9 f3d3 f8bc
00000330: 13be 08be 1772 4dbd d6f3 7c3d 9391 e83c
00000340: d0b2 4dbe a807 0bbe 9fa4 c5be 6c14 c73d
00000350: 59bd ecbd 1ac0 b7bb adb4 8d3e d4f0 693c
00000360: 9d09 423e 5f08 113e 2dd3 cc3d efd5 973c
00000370: ac4b afbd 5e7c e1bd 5d5b 6fbd 62d7 a7bd
00000380: 9c86 5ebd 6e37 24be 8859 163b bcae fabc
00000390: dd0d 033e 4c33 c73e 1592 2ebe b0a7 78be
000003a0: 71d8 afbe 3b38 55be a2ba 00be 6c65 1abf
000003b0: c784 8d3d 612c 15be adde 843e 2037 aebe
000003c0: e447 ca3c ce96 693d 5c38 32be dc70 103d
000003d0: f2e4 893e 3cff 0a3e 9a27 a23d 69d7 90bd
000003e0: 71ad cbbd 434b 843e 8bce a93e 912e 333e
000003f0: a304 183e 307c b3be 35e1 88bd 8c08 9dbe
0.04531968 0.09871026 0.051454175 0.10701943 0.19958426 0.098676205 0.07498912 0.10367168
0.045055985 -0.026623283 -0.020665493 0.027659973 -0.016634246 -0.029821582 0.05821734 0.018791864
-0.035558015 0.027928988 0.032618552 0.11971646 0.10147976 -0.05274948 -0.26445365 0.13328384
-0.009798614 -0.061527554 -0.010111702 -0.019133966 -0.014940017 -0.0081332475 0.017382286 0.10786844
-0.004557501 -0.06990342 -0.007833168 0.025126012 0.02960972 0.10228006 0.013129856 -0.015068817
-0.09480073 -0.07328087 0.0028322337 -0.011480993 0.044809543 0.013253323 -0.050908912 0.022055972
-0.005237825 0.1457661 -0.011551486 0.020249961 -0.008113474 0.0317588 -0.036538843 -0.02357168
0.01417299 0.019005341 0.1079611 0.01588809 -0.04776826 0.004116002 -0.031700905 -0.017553587
0.007944634 0.052475423 0.002855719 -0.062310595 0.00028010792 -0.009135746 0.06229574 -0.024948092
-0.112318896 -0.030373855 -0.017022334 -0.004222799 -0.014688607 0.0994376 -0.03332671 0.097649336
-0.023915539 -0.004586435 -0.0700607 0.013403959 0.02215505 -0.098027125 -0.15776083 0.06746012
0.1674111 0.02970885 -0.004294059 -0.052779634 -0.0025451991 -0.04870805 -0.13605401 -0.07493516
0.0030303278 -0.081759475 -0.01215771 -0.0128106 -0.0007376517 -0.026818326 -0.046605054 0.22056155
-0.015715277 -0.042676717 -0.120016806 -0.020347774 -0.15476328 -0.08671047 -0.10537017 -0.0009208019
0.051602475 0.06402642 0.03736835 -0.0021718466 0.17894158 0.08627157 0.33240956 0.32139662
0.08136406 -0.54099846 0.04395732 0.06588323 -0.20424926 0.018479714 -0.024305148 0.7343244
0.18259789 -0.0076193064 -0.7341304 0.29657775 -0.13760276 0.0050444664 -0.025255311 0.321246
-0.14409377 -0.036227748 -0.032419864 0.08749688 -0.28445458 0.018621223 0.3208543 -0.089590356
-0.08709014 0.36194262 0.011964575 0.3031355 -0.07913689 -0.17309265 -0.063299835 0.092968605
-0.12769829 -0.0355139 -0.015794778 0.15760116 -0.109406166 -0.15554318 0.07981246 0.038793407
0.016265249 0.007699348 0.0007092707 0.32279402 0.09241086 -0.11876394 0.23027116 -0.4031585
-0.18887147 0.12721197 -0.012763749 0.084349796 0.31888077 0.35759613 0.44569886 0.0002273428
-0.2974651 0.09119432 -0.16069019 -0.13348792 -0.40706176 -0.39551222 0.08170496 -0.3627243
0.81172854 0.06344285 -0.06223894 -0.051365063 0.19147676 0.103243604 -0.20460774 0.38183185
0.23973759 -0.24626587 0.13705188 0.23295473 -0.04090263 0.16824432 -0.11814566 0.122347966
0.13068989 -0.00903416 -0.00019283393 -0.030374503 -0.13353758 -0.050157633 0.061755978 0.028389728
-0.20087743 -0.1357714 -0.38602158 0.09720692 -0.11559553 -0.005607617 0.27676907 0.014278609
0.1894898 0.1416335 0.10001216 0.018534629 -0.08559355 -0.11010049 -0.05843674 -0.08195378
-0.054327592 -0.1603677 0.0022941548 -0.030600898 0.12798257 0.38906324 -0.17047913 -0.24282718
-0.3434482 -0.20822231 -0.12571195 -0.6031101 0.06910091 -0.1456771 0.25951138 -0.34026432
0.024692483 0.057028584 -0.17404312 0.03526388 0.26932484 0.13573927 0.0791771 -0.07072336
-0.09945191 0.2583867 0.33165392 0.17498232 0.14845519 -0.35055685 -0.0668358 -0.30670583

body_conv.4.bias f4 [12]
00000000: ee50 a9bd 7bb7 7dbd 1e16 61bb e120 aa3c
00000010: 4633 e53d f6a6 16bd acff ccbc 9d3a ebbc
00000020: df9b 963c 299e 7b3d c88c 1c3e 0cbc efbc
-0.08267389 -0.06194256 -0.0034345458 0.020767631 0.1119142 -0.03678032 -0.025024258 -0.028714472
0.018384872 0.06143013 0.15288079 -0.029264472

body_conv.6.0.weight f4 [16, 12, 1, 1]
00000000: 6c03 113a 22c1 0b3c f26f e93a 8335 9bb7
00000010: 71f0 723c 8940 c8be baa3 4a3b 4d01 1a36
00000020: 1ddd 6bb9 76b1 f33a a90f 2fbc 6ae3 9a3a
00000030: 60f8 7f3b 3502 c3bd bfe3 8ebe 2f3f 06bb
00000040: abce 74bb b7d0 f13d 14c9 2bbe 4194 293b
00000050: 541a feb9 b200 fa3d a5d8 df3b 1f03 99bd
00000060: 2de2 b23b 8710 923e d0d5 633e 38b2 6bbb
00000070: 62c9 203c fc09 79be 7973 86bc 8cb7 573a
00000080: 29ac b4bb 47d3 83be a1d7 aabb 9c2e b2bc
00000090: 4fff e1ba fce6 323e b254 453e 0413 39b9
000000a0: ed87 21be 9da2 1dbe b5fc f03d c8eb beba
000000b0: 417f 83bb a1dd f9be 2591 f13d dd4b 0e3c
000000c0: 7a54 a73b f996 7bbe e8d9 c0be a8d7 a03b
000000d0: 62c5 fb3d c010 5d3e 0290 4dbe 5fa2 e23b
000000e0: 333f 5aba 7688 483d 91da b9bd 77c9 5fbd
000000f0: 5085 83bd 52b2 b1bb d824 813c 9aaf e5ba
00000100: 8528 6f3d 8012 803b da23 e33c 4fc2 92bb
00000110: d606 04bb 0f80 fd3b eb8b 8c3c 97e6 023c
00000120: 1fff ec39 317e f1b9 892c 89bc 471b 1b3a
00000130: 8dfd 033d f2e0 013c 8f6a 10bc 79dc 8238
00000140: c8a4 0f3a 25bb bdba a824 c1bc 18d3 e2be
00000150: 2c12 c6b9 8bf7 98ba 5c8b afba 694a 5c39
00000160: a546 8739 621c dc39 04ae a4b9 e645 dcbe
00000170: 4df9 ba38 3ac9 b038 60a9 d9b9 b286 a038
00000180: cdb2 99ba 09c6 363d fcd6 1b3e 841e 90ba
00000190: 9823 54be acc1 4abe 1279 a73d 7669 06bb
000001a0: 47ae abbb d075 f8bc 9aaa 1e3e e97d ad3c
000001b0: dd75 40b8 9d9b 503b f495 243b fee1 21b9
000001c0: 8d3a 00bc d236 15bb ddf2 c13a a987 ce38
000001d0: 3754 fdbe 835a 23bb 56fe c03b b647 69b9
000001e0: f145 c8ba 5043 efbe b567 27be 8bd9 353b
000001f0: 8456 c43d 6305 fb3d 8c26 97bd bece 273a
00000200: b378 b8ba ce68 1a3e a746 95bd 97e6 08bc
00000210: b499 6fbb 8a98 20bd 86e7 dcbc 2a64 3b3b
00000220: 7d39 6ebb 272a 983c f067 fabe b428 a0ba
00000230: c55f 553a 414f 8b3c fee7 2839 2c89 023c
00000240: 604d 81bc 1a56 a43b 81c3 823b c4d1 0739
00000250: c2e3 febc 5d1c 2bbb 32a2 20bb 5ca7 17ba
00000260: 16bb 54ba 9283 99bc 1a2e 1f3d ae05 f43a
00000270: cb1e 703d 3aae c63b 0abe 673a 5657 63bb
00000280: 7ea7 63be ab2d 743c 866b 943b fb2b b1ba
00000290: 558a a9b8 ab22 a43a e35f 97be b657 cd3b
000002a0: 85f5 65bd ec04 543c 4488 8bbc d4c8 71ba
000002b0: fbb7 ea3b 0713 4d3c 4894 7cbc de8e 263b
000002c0: 31a3 d53a 3019 823a a4f6 913d 6a65 d73a
000002d0: 4524 f339 1525 cdbc 473a 27bd eaf8 edbe
000002e0: 74b9 193d 2797 cd3c 9e2d dcbc 6173 523a
000002f0: 2769 443a 0325 963c c4f7 e3bc d459 2cbc
0.0005531821 0.008529933 0.0017809852 -1.8502358e-05 0.0148278335 -0.39111736 0.0030920343 2.2948545e-06
-0.00022493718 0.0018592316 -0.010684886 0.0011817042 0.0039057955 -0.09521905 -0.2790813 -0.0020484438
-0.003735463 0.11807387 -0.16775924 0.002587572 -0.0004846627 0.12207164 0.006831246 -0.074712984
0.005459091 0.28528234 0.22249532 -0.003596438 0.009813638 -0.24320215 -0.016412484 0.000822895
-0.005513687 -0.2574713 -0.0052136932 -0.02175074 -0.0017242226 0.17470926 0.1927059 -0.00017650059
-0.15774508 -0.15394063 0.1176695 -0.0014566118 -0.0040129726 -0.48801902 0.11795262 0.008685079
0.005106506 -0.2456931 -0.3766625 0.0049085207 0.12293507 0.21588421 -0.20074466 0.006916329
-0.00083254575 0.048958264 -0.09074891 -0.05463549 -0.06421912 -0.0054228688 0.015764639 -0.0017523647
0.05838825 0.0039084554 0.027727056 -0.00447873 -0.0020145676 0.007736213 0.017156562 0.007989547
0.00045203508 -0.00046061122 -0.016744869 0.00059168454 0.032224227 0.007927166 -0.008814468 6.239949e-05
0.00054795714 -0.0014475329 -0.02357705 -0.44301677 -0.00037779042 -0.0011670453 -0.0013392973 0.00021008555
0.0002580184 0.00041982817 -0.0003141017 -0.43022078 8.915607e-05 8.429815e-05 -0.0004151566 7.6544835e-05
-0.001172626 0.044622455 0.15218729 -0.0010995422 -0.20716703 -0.19800442 0.08177389 -0.0020509637
-0.0052392813 -0.030329615 0.15494767 0.021178203 -4.5886136e-05 0.0031831034 0.0025113793 -0.00015438345
-0.00782646 -0.002276827 0.001479711 9.848114e-05 -0.49478313 -0.0024925775 0.005889694 -0.00022247326
-0.0015279633 -0.46731043 -0.16348155 0.0027748074 0.09586814 0.12256887 -0.07380399 0.00064013514
-0.0014074057 0.15079042 -0.072888665 -0.008355758 -0.003656012 -0.039207973 -0.026965868 0.0028593638
-0.0036350184 0.018574787 -0.48907423 -0.0012219162 0.0008139576 0.017005565 0.00016108152 0.007967275
-0.015783966 0.005015147 0.003990591 0.00012952747 -0.031114463 -0.0026109435 -0.0024510738 -0.00057851314
-0.0008115036 -0.018739495 0.038862325 0.0018617415 0.058623116 0.00606325 0.0008840269 -0.0034689507
-0.22231862 0.014903466 0.0045294194 -0.0013517136 -8.084314e-05 0.0012522539 -0.29565343 0.0062665595
-0.05614235 0.012940627 -0.01703275 -0.0009223346 0.0071630455 0.0125167435 -0.015416212 0.0025414745
0.0016299245 0.0009925719 0.07127121 0.0016433422 0.00046375595 -0.025042096 -0.040827062 -0.4647897
0.037530378 0.02509649 -0.02687722 0.0008028057 0.00074924756 0.018328195 -0.027828105 -0.010519464

body_conv.6.0.bias f4 [16]
00000000: 19a9 913a b24f d3bc 79b0 a7bb efd8 713b
00000010: 84b9 21bd 1dc3 373e 8a93 63b9 736c ff38
00000020: b58a cdbb f83d fe38 a71b e2bc 5c47 09bc
00000030: 02e0 333d e61d 4cba eb5d 4c3e 6e51 bdba
0.0011113017 -0.025794838 -0.0051174727 0.0036902984 -0.039483562 0.17945524 -0.0002170337 0.00012179548
-0.0062726387 0.000121232064 -0.027601076 -0.00837883 0.043914802 -0.00077864376 0.19957702 -0.0014443824

tail_conv.weight f4 [16, 3, 9, 9]
00000000: 92b1 163c d173 1b3c 9a9e 953c cdcd 75bc
00000010: 7fe6 17bb 96d1 c03b 5cc3 82bb 97ed f63c
00000020: 141f a33b 7886 ba3b 92b2 603b 6d4b 403c
00000030: 5f8b 57bd 8450 e4bc 96d0 febb 1f63 65bc
00000040: 665f 5c3d 4f24 903c 59f9 98bb 58bc 9fbc
00000050: ecd5 bbbc 1501 d6bd 2d43 89bd bbca 24bd
00000060: 0e45 0dbd 2460 683d 9652 6f3c 0a83 73bb
00000070: c784 94bc 847e 84bc 4087 18be e00e efbd
00000080: ba9b d8bd ddbb f5bd b08c 823d ea99 963c
00000090: 9841 8cbb a564 66bc 8a64 e1bc e211 1abe
000000a0: 4982 acbd 05d9 aabd cca6 46be 50db 923d
000000b0: 706c df3c d0a1 213c 1050 b33c df42 c93c
000000c0: 78e7 f1bd 5c57 85bd e0d4 a9bd 99a4 62be
000000d0: 328d fb3d 6c7e 313d 5070 0e3d 7471 893d
000000e0: fbbe 933d 36bc 59bd 4858 8a3b 3992 fcbb
000000f0: 493a 0fbe 909e 3c3e b4c1 983d 0928 483d
00000100: fcc0 c53d c311 e33d ad50 ec3d 3dc0 273e
00000110: e048 443e e01b f73d d102 683e 4204 db3d
00000120: 9d18 1f3c ba4f 083d fb89 4c3d 50e7 0f3d
00000130: 0557 203d 718e 6d3d d4fe 7e3d f7de e73d
00000140: 8ac6 483d a926 a93b 42b9 873a 415f b03b
00000150: 0a52 0a3a 762b 113c abc9 c03b 1707 32bc
00000160: aa80 e6b8 83f9 00bc 36f1 41b9 c1b9 cabb
00000170: 6b2b e7bb 0650 d0bc 2a03 d0bc 6e33 a7bc
00000180: f624 dfbc 2b2c 1d3a 95ea c3ba f00d 1abc
00000190: 7944 b3bc bd1a ecbc 29bd 89bd 57d0 b2bd
000001a0: 5a78 b9bd 77d5 b8bd 320a 1fbd d1da a3bc
000001b0: 1410 70bb 33b0 52bc fccd a4bb f9d3 a4bd
000001c0: 5af5 f5bd a7ac 29be 030f 3fbe 815e 4bbd
000001d0: adf9 1dbd ece2 abbb 462f e1bb 2a67 1c3d
000001e0: a169 66bc 1bf2 b8bc 4e61 87bd 1875 0abe
000001f0: bbb0 1339 baa1 00bd 0057 b53b 13eb b73c
00000200: f18b a23d 4ec1 d83c b433 ce3c 0113 b6bc
00000210: f2c9 f0bd 0f06 633d 5c8b d9bb f41e bbba
00000220: 7cb9 a53c a55a 843d 5e6b 34bc 7922 92bb
00000230: 231f 51bd ba72 09be 0466 5c3d 1ae9 f43a
00000240: fc49 633d c28b d93d 9a86 043e eb4a 393e
00000250: e691 4a3e a9e0 5d3e 141c 213e 1114 123e
00000260: 5b68 853d 75ab b13c 47e4 4e3d e53e 463d
00000270: 51bc 963d 66f9 973d f5ac b63d d7bc 703d
00000280: bc92 8f3d 7149 283d a1df 193c 3214 573c
00000290: a3a9 d83c 3bcd 09bc 84a5 5bba 8d7b d73a
000002a0: 2e56 85bc 2978 123d ed67 6a3c 9547 f03b
000002b0: fd2f e03b fe55 553c 61a0 3fbd 384d 01bd
000002c0: 3480 98bb 4917 babc 6c6f 7f3d 5bc5 153d
000002d0: 31b7 c8b9 60c1 02bc 8ba2 60bc 7aea d8bd
000002e0: 27ed 97bd 58e8 f0bc f6e2 1cbd d903 973d
000002f0: 65de 393d 6440 04ba 0346 30bc 096c e5bc
00000300: ae39 1dbe a309 05be bb30 cfbd 2bc0 f6bd
00000310: e04d 713d 5d52 023d 7246 6d3b 4637 053c
00000320: 3990 d93c 98dc cabd 1d08 8abd e890 f8bc
00000330: fee6 f03c bda3 3a3e 7917 883d f1b2 013b
00000340: 9e75 9f3c 3eb8 743d 7c7c a6bd 21c1 b3bd
00000350: 87d4 9abd 4029 323c 7cfc 673e 241e ac3d
00000360: c6a6 a7bc 735d d0bb c7b0 0c3d a874 10be
00000370: 28a7 44be da71 53be 2fce eebd eac5 0c3e
00000380: eb7e 363d 0c82 c73c 3177 733d 82a3 e13d
00000390: e773 bc3d 8946 5e3d 065c a03d 3896 2e3e
000003a0: c5fc 5b3e 0eda b33d 5436 ee39 4022 5c3c
000003b0: 0309 fe3c 83f8 cd3c 56a0 31bc 564c e4ba
000003c0: 4b61 3f3d 6143 bf3d e703 323d 8e00 8d3c
000003d0: 9d10 ee3c 90b4 193d 8c1e 883d 25ae 553d
000003e0: 308c 4a3d b779 843d 63f5 843c 8fe6 1bbc
000003f0: 0860 823a a520 3bbc 91a1 39bc 7fd0 fd3c
0.0091976095 0.009488062 0.018264104 -0.01500268 -0.0023178158 0.0058843596 -0.003990574 0.030142589
0.00497807 0.0056922995 0.0034286124 0.011736733 -0.05262315 -0.027870424 -0.00777633 -0.014000683
0.053801917 0.017595438 -0.0046683964 -0.019498989 -0.022929154 -0.10449425 -0.06702266 -0.0402324
-0.034489684 0.05673231 0.014607092 -0.0037156963 -0.01812972 -0.016173609 -0.14895344 -0.11672759
-0.105765775 -0.11998723 0.0637449 0.018383939 -0.0042802803 -0.014062081 -0.027513761 -0.15045884
-0.084232874 -0.083421744 -0.19399565 0.07170737 0.027273387 0.009865239 0.021888763 0.02456802
-0.11811727 -0.06510803 -0.08292556 -0.22133102 0.1228279 0.043333456 0.03477508 0.067110926
0.07214161 -0.053158008 0.0042219497 -0.007707861 -0.13987078 0.18419862 0.07458821 0.048866306
0.096559495 0.11087372 0.11538825 0.16381927 0.19168425 0.120658636 0.22657324 0.106941715
0.009710458 0.03327916 0.049936276 0.035132706 0.03914549 0.05799717 0.06225474 0.11321824
0.049017467 0.0051620794 0.0010354894 0.005382449 0.0005276507 0.00886046 0.0058834157 -0.010865948
-0.0001099122 -0.007871988 -0.00018495772 -0.0061866944 -0.0070547364 -0.025428783 -0.025392134 -0.020410266
-0.027239304 0.0005995656 -0.001494723 -0.009402737 -0.021883236 -0.028821344 -0.067255326 -0.08731144
-0.09056158 -0.0902509 -0.038828082 -0.0200018 -0.0036630677 -0.012859392 -0.005029438 -0.08048243
-0.12009688 -0.16569768 -0.1865807 -0.049650673 -0.038568188 -0.005245557 -0.0068720905 0.038184322
-0.01406327 -0.022576382 -0.06610356 -0.1352123 0.0001408485 -0.031404234 0.005534053 0.02245096
0.07936848 0.026459362 0.025171138 -0.022225859 -0.11757268 0.0554257 -0.0066389274 -0.0014276193
0.020230047 0.064626016 -0.011011926 -0.004459676 -0.051055085 -0.13422671 0.053808227 0.0018685192
0.05549048 0.1062236 0.12941971 0.18094985 0.19782218 0.21667732 0.15733367 0.14265467
0.06514045 0.021688202 0.05051067 0.048399825 0.07360137 0.07420616 0.08919708 0.05877384
0.07010409 0.041085664 0.009391696 0.0131273735 0.026448077 -0.008410747 -0.0008378851 0.0016440019
-0.016276445 0.035759125 0.014307004 0.007332752 0.006841658 0.01302099 -0.04678381 -0.031567782
-0.004653955 -0.022716181 0.06236212 0.036565166 -0.0003828346 -0.0079806745 -0.013710628 -0.10591598
-0.0741828 -0.029407665 -0.038302384 0.07373781 0.045378108 -0.00050449953 -0.01075888 -0.028005617
-0.15354034 -0.12991957 -0.101167165 -0.12048372 0.058912158 0.03181683 0.0036205319 0.008130854
0.026558029 -0.09905356 -0.06739829 -0.030342534 0.02940702 0.18226524 0.06645102 0.0019790495
0.019465264 0.05974602 -0.08129212 -0.08777071 -0.075600676 0.010874093 0.22654909 0.08404186
-0.020465266 -0.0063587963 0.034348276 -0.14107001 -0.1920439 -0.206489 -0.1166042 0.13747373
0.044554632 0.024354003 0.05943984 0.11017515 0.09201794 0.054266486 0.07830052 0.17049491
0.21483143 0.08781825 0.00045435375 0.0134359 0.031010156 0.025142914 -0.01084145 -0.0017417769
0.046723645 0.093390234 0.043460753 0.017212179 0.029060656 0.037525713 0.06646451 0.05216803
0.0494501 0.06468528 0.01623029 -0.009515419 0.0009946832 -0.011421357 -0.011330024 0.030983208

tail_conv.bias f4 [3]
00000000: a3f7 b63e d1c5 bc3e 9c52 c43e
0.35735807 0.36869672 0.38344276
